ConSciNet/models/ConSciNet_weights50k_lv2.pt (torch, 309987 bytes, 18 tensors)

encoder.encoder_net.0.weight f4 [500, 50]
0	0x3df13ae7	0.11778813
1	0x3b82b0dc	0.0039883684
2	0xbdb6c596	-0.08924405
3	0x3c058c1d	0.008151081
4	0xba14e23b	-0.0005679463
5	0x3dfc47ff	0.1231842
6	0x3d9a1ab6	0.07524626
7	0xbdc7651d	-0.09736083
8	0x3d7845f2	0.06061358
9	0x3d236821	0.039894227
10	0x3de23a0b	0.11046227
11	0x3c98cd40	0.018652558
12	0xbd3596a1	-0.044333104
13	0xbdddec76	-0.10836117
14	0x3d153f62	0.0364374
15	0xbcc3e2bc	-0.023911826
16	0x3de48216	0.111576244
17	0xbdc14eb4	-0.094388396
18	0xbc0b12fb	-0.008488412
19	0xbc4dec7a	-0.012568587
20	0x3c6dd231	0.014515446
21	0xbe03f27d	-0.1288547
22	0x3ca6bf74	0.020354964
23	0x3e04fa2f	0.12986062
24	0xbe0f34bd	-0.13984962
25	0xbcaae0e3	-0.020859187
26	0x3d68ff39	0.056884024
27	0xbdef1b83	-0.11675169
28	0xbd125872	-0.03572888
29	0x3d7fba86	0.062433742
30	0xbd9e064a	-0.07716043
31	0xbd4b0c24	-0.049572125
32	0x3d875f2b	0.06609949
33	0xbc7859fe	-0.015158175
34	0xbdf6b3cf	-0.120460145
35	0x3c827ad3	0.015927708
36	0x3d34b5cb	0.044118684
37	0x3d8a77da	0.06761141
38	0xbd716f52	-0.058944054
39	0xbe13e353	-0.14442186
40	0x3c9f4bf8	0.019445404
41	0xbdcd8eb9	-0.10036988
42	0x3da88c32	0.08229865
43	0x3dfc7a1b	0.12327977
44	0x3c5181f8	0.012787335
45	0xbd2b9981	-0.04189444
46	0xbd302431	-0.043003265
47	0xbda20098	-0.079102695
48	0x3df10d26	0.11770086
49	0xbaba1f70	-0.0014200043
50	0x3c0c11e0	0.008549184
51	0x3dcc9e63	0.09991147
52	0xbb025a48	-0.0019890238
53	0xbdb4d5fc	-0.08829877
54	0x3dee998b	0.1165038
55	0xbcd22b65	-0.025655458
56	0x3d80e2bd	0.06293247
57	0x3cebbf45	0.028777728
58	0x3c9fd04e	0.019508507
59	0x3dbcfc3c	0.092277974
60	0xbe15c07b	-0.14624207
61	0x3be59d3a	0.0070072683
62	0x3c6cfaaf	0.0144640645
63	0x3e0fb415	0.1403354
64	0x3dfdfe14	0.12401977
65	0xbc9701b2	-0.018433426
66	0xbd1e0ac9	-0.038584504
67	0x3d3a71a4	0.045518532
68	0xbd874d86	-0.06606583
69	0x3c8ded1a	0.017324973
70	0x3d87545b	0.066078864
71	0x3de7a6e3	0.11311128
72	0x3ce4ff4f	0.027953772
73	0x3d92d50c	0.07169542
74	0x3db5660d	0.08857355
75	0xbd7b56e2	-0.061362155
76	0xbdbfa6d4	-0.09357992
77	0xbc0ffac5	-0.008787815
78	0x3df1c69a	0.11805458
79	0x3d4c1c6d	0.049831796
80	0x3ddd94ea	0.10819419
81	0x3c7707c8	0.015077539
82	0xbd31e09a	-0.043427087
83	0xbdb86a6c	-0.09004673
84	0x3d9c4bd3	0.0763165
85	0x3e1cf4b2	0.15327719
86	0xbc41fe8a	-0.011840472
87	0x3c1a409a	0.009414816
88	0xbd348910	-0.044076025
89	0x3defed78	0.117152154
90	0xbe09409b	-0.13403551
91	0x3d9693af	0.07352387
92	0x3c357ce0	0.011077136
93	0x3bb6c338	0.005577471
94	0x3ddb70e8	0.107148945
95	0xbd700bef	-0.05860513
96	0xbae6117e	-0.001755282
97	0xbe095243	-0.13410287
98	0x3dd89e4d	0.105770685
99	0x3c0ddd3b	0.0086587025
100	0x3d5a1523	0.053242814
101	0xbe0c0660	-0.13674307
102	0xbd8661fb	-0.06561657
103	0xbbb6a21c	-0.005573524
104	0xbda99705	-0.08280758
105	0xbd8bf3b1	-0.0683359
106	0xbdb8ed25	-0.09029607
107	0x3d58aa94	0.05289705
108	0x3bf24d7e	0.0073944917
109	0xbcd90b40	-0.026494622
110	0xbcba726e	-0.022759642
111	0x3de01743	0.10941937
112	0xbdcda5e1	-0.100414045
113	0xbca03ee5	-0.01956124
114	0xbd9e6cf7	-0.07735627
115	0xbdd00efa	-0.101591066
116	0x3d843df6	0.064571306
117	0x3e28523f	0.16437624
118	0xbc4361fa	-0.011925215
119	0x3a81babe	0.0009897572
120	0xbdb6e347	-0.089300685
121	0x3d30c900	0.04316044
122	0xbd100a4e	-0.035166077
123	0x3d1310d5	0.035904724
124	0x3dad3316	0.084570095
125	0x3c429b80	0.011877894
126	0xbc144437	-0.009049467
127	0xbd5e0695	-0.054205496
128	0x3e0e603b	0.13903897
129	0xbdbd2301	-0.09235192
130	0x3e09835f	0.1342902
131	0xbd7737bd	-0.06035589
132	0x3d6cea3f	0.057840582
133	0xbd0aa3af	-0.033847507
134	0x3dacb88f	0.08433639
135	0x3ce4d975	0.027935723
136	0xbcea3c45	-0.028593192
137	0x3cf641d7	0.030060692
138	0x3d44cdac	0.048047706
139	0xba191627	-0.0005839788
140	0xbcc72f0b	-0.024314424
141	0xbd7e8bd6	-0.062145077
142	0x3da488ed	0.08033929
143	0x3cadde3a	0.02122413
144	0x3dca3575	0.09873477
145	0xbcf4645e	-0.029833015
146	0xbd6db4b3	-0.058033656
147	0x3cd346a1	0.025790514
148	0xbcd783c0	-0.02630794
149	0x3d50cd17	0.05097684
150	0xbdcf2a51	-0.10115493
151	0xbc8470d0	-0.016167074
152	0xbcdac455	-0.026704947
153	0x3b954ccf	0.0045562754
154	0x3d583c4b	0.052791875
155	0xbdca00fa	-0.098634675
156	0x3dbb73e3	0.09152963
157	0xbd19830b	-0.037478488
158	0x3d8e8629	0.06959183
159	0xbd40d5a2	-0.047078736
160	0xbd63b9fc	-0.05559729
161	0xbc435a76	-0.011923423
162	0xbcae95f2	-0.021311734
163	0x3debaced	0.11507592
164	0xbd907edc	-0.070554465
165	0x3c892a54	0.016743816
166	0x3e130590	0.1435759
167	0xbd8b75b8	-0.068095624
168	0x3da87d5f	0.08227038
169	0xbdb71378	-0.0893926
170	0x3d518c34	0.0511591
171	0x3de88867	0.11354142
172	0xbdab42fb	-0.08362385
173	0x3d187ddb	0.0372294
174	0x3dbc1181	0.09183026
175	0x3d479b47	0.04873207
176	0xbd5a2bfe	-0.05326461
177	0x3d0fbf30	0.03509444
178	0xbccc6f2f	-0.02495536
179	0x3db92496	0.09040181
180	0xbdb29840	-0.08720446
181	0x3dbeca5c	0.09315941
182	0x3d04580f	0.03231054
183	0x3dad2366	0.08454017
184	0xbdc6e008	-0.09710699
185	0xbd9b6dc7	-0.07589298
186	0x3d49d67b	0.04927681
187	0x3d1c7525	0.038197655
188	0x3d971883	0.07377722
189	0xbe0a5bf7	-0.13511644
190	0x3dff0c57	0.124535255
191	0xbc1a2abe	-0.009409605
192	0x3c02095a	0.0079368
193	0xbd8d9876	-0.06913845
194	0x3cd90929	0.026493626
195	0xbcec135f	-0.02881783
196	0x3d5d18cd	0.05397873
197	0xbc9f99e8	-0.019482568
198	0x3dad90ef	0.084749095
199	0xbdc4412f	-0.09582745
200	0x3b8eda10	0.004359491
201	0xbc71f80d	-0.014768613
202	0x3d916df3	0.07101049
203	0x3dcc2f34	0.09969941
204	0xbdf19bb9	-0.1179728
205	0x3e034ee1	0.12823059
206	0x3dd2bc03	0.10289767
207	0xbde9c7c7	-0.11415058
208	0x3daac56c	0.083384365
209	0x3daf4b17	0.08559244
210	0x3b4c1462	0.0031140079
211	0x3d761559	0.060078952
212	0x3dae3b75	0.08507434
213	0xbdab7f9f	-0.08373951
214	0xbd4c9c7b	-0.04995392
215	0x3b27ebd8	0.0025622752
216	0x3d91f885	0.071274795
217	0x3cb77f8b	0.022399684
218	0xbde01189	-0.109408446
219	0xbcf7e6fa	-0.030261505
220	0x3d59ab92	0.053142138
221	0xbd425589	-0.047444854
222	0xbdd14f9b	-0.10220262
223	0x3d603e5e	0.054746978
224	0x3cdb5751	0.026775034
225	0xbe318692	-0.17336491
226	0x3d2e9baf	0.04262894
227	0x3bacdd45	0.005275401
228	0xbdf1e8be	-0.1181197
229	0xbc93c76e	-0.018039431
230	0xbd6e6ded	-0.058210302
231	0x3d778704	0.060431495
232	0xbdea1d28	-0.11431342
233	0x3dd1f843	0.1025243
234	0xbdcbd34c	-0.09952411
235	0x3cac5c8f	0.02104023
236	0xbcd32e32	-0.025778864
237	0xbce40f5b	-0.027839353
238	0xbd8fd596	-0.0702316
239	0xbdab1089	-0.08352763
240	0x3dd451b5	0.10367147
241	0xbcccadeb	-0.024985274
242	0x3cf68ee3	0.03009743
243	0xbd72e03c	-0.059295878
244	0x3e0b3713	0.13595228
245	0xbdef81dc	-0.116946906
246	0xbdc0d2ee	-0.09415232
247	0x3db60f95	0.08889691
248	0x3d26bbb9	0.04070637
249	0xbd3095f8	-0.04311177
250	0xbd9ab480	-0.07553959
251	0x3dbc897f	0.09205913
252	0x3d918e39	0.07107205
253	0xbdb57626	-0.08860426
254	0x3cff07cb	0.031131646
255	0xbc8d5ce8	-0.017256215

encoder.encoder_net.0.bias f4 [500]
0	0x3d9f788f	0.077866666
1	0xbcb4c616	-0.022067111
2	0x3db40cc1	0.08791495
3	0x3da51a1b	0.0806162
4	0x3da95b37	0.08269351
5	0x3df88599	0.12134857
6	0xbdd4cf60	-0.10391116
7	0x3d93b484	0.07212165
8	0xbdffd16a	-0.124911144
9	0x3d8d9c1b	0.069145404
10	0x3862f688	5.41122e-05
11	0xbc9f401d	-0.019439751
12	0x3d8c0553	0.06836953
13	0xbcaf381f	-0.021389065
14	0xbdeb8ade	-0.11501096
15	0x3b34be9d	0.0027579435
16	0x3d0438e4	0.032280818
17	0xbd812a5c	-0.063069075
18	0xbd8cffce	-0.06884728
19	0xbe26523d	-0.16242309
20	0xbd49b483	-0.049244415
21	0xbde56e1d	-0.11202643
22	0xbd7cc3e9	-0.061710272
23	0x3de3bf35	0.11120454
24	0x3d92d0ec	0.07168755
25	0xbdd1645b	-0.102242194
26	0xbd79cc6f	-0.06098598
27	0x3d9413eb	0.072303616
28	0x3db9e8da	0.09077616
29	0x3d50dfe4	0.05099477
30	0xbde11864	-0.1099098
31	0xbe36c9ef	-0.17850469
32	0x3de801ca	0.11328466
33	0x3db23643	0.08701756
34	0xbbc328c7	-0.005955789
35	0x3c16a689	0.0091949785
36	0xbdc6f038	-0.09713787
37	0xbc86dcd2	-0.016462717
38	0x3e4e8745	0.20168789
39	0xbde4e9a1	-0.11177374
40	0x3c8c3767	0.017116262
41	0x3cb34714	0.021884479
42	0xbded90d9	-0.11599893
43	0xbd8b1d37	-0.06792682
44	0xbd47ffd5	-0.048827965
45	0x3d26c0bd	0.040711153
46	0x3dae5546	0.08512358
47	0xbde1dea2	-0.11028792
48	0xbdb0d8b5	-0.086350836
49	0xbde230ff	-0.110445015
50	0x3dee30d3	0.11630406
51	0xbc8057d8	-0.015666887
52	0xbba0e64d	-0.0049102665
53	0x3c1b403e	0.009475766
54	0x3d745473	0.05965085
55	0xbdfcfed2	-0.123532906
56	0x3d5452be	0.05183672
57	0xbcbf2b3b	-0.023336044
58	0xbda66e12	-0.08126463
59	0x3de25514	0.110513836
60	0x3ddb4a12	0.10707487
61	0x3d688690	0.056768954
62	0xbc6c9b80	-0.014441371
63	0x3e0d1af8	0.13779819
64	0xbdb593da	-0.08866091
65	0xbe1617fd	-0.14657588
66	0x39ae2082	0.00033212086
67	0x3d9b923b	0.075962506
68	0xbdf0e10a	-0.11761673
69	0x3ce43baa	0.027860481
70	0xbddcb940	-0.10777521
71	0xbd31ca66	-0.043405913
72	0x3cda52c0	0.026650786
73	0x39929d8f	0.0002796468
74	0xbd524414	-0.051334456
75	0x3dbb7052	0.09152283
76	0x3c38a7b3	0.011270451
77	0xbcb40c48	-0.021978512
78	0x3d40c98b	0.047067206
79	0x3d252808	0.04032138
80	0xbde76f62	-0.113005415
81	0x3de35836	0.11100809
82	0x3d0d098a	0.034432925
83	0xbcf9537e	-0.03043532
84	0xbd2b27b6	-0.04178592
85	0xbbf4aa0a	-0.0074665593
86	0x3d09c2b5	0.033632953
87	0xbdb0a5df	-0.086253874
88	0xbd82ea63	-0.06392362
89	0xbe0d654f	-0.13808177
90	0x3d4dac29	0.050213013
91	0x3c4e038d	0.012574089
92	0xbd069cd3	-0.032864403
93	0xbc938cfb	-0.01801156
94	0xbca9601d	-0.020675713
95	0x3de3f411	0.11130536
96	0x3d3c25d4	0.045934513
97	0xbcc3e750	-0.02391401
98	0x3c2e715c	0.010647144
99	0xbe153b27	-0.14573346
100	0xbdd60117	-0.104494266
101	0x3cb209b2	0.021733139
102	0xbd8c0229	-0.068363495
103	0x3dd0a9e6	0.101886556
104	0x3d57ff78	0.05273387
105	0xbcb6cac5	-0.022313485
106	0x3d0acf3e	0.033889048
107	0xbd588b8a	-0.05286745
108	0xbdba890c	-0.09108171
109	0x3d0313c3	0.032001268
110	0xbd9dc37c	-0.07703301
111	0xbe221726	-0.15829143
112	0xbd60aa0f	-0.05484968
113	0xbd376ec1	-0.044783358
114	0x3da69413	0.08133712
115	0x3e03527c	0.12824434
116	0x3dc5fd6a	0.096674755
117	0x3daf2dcf	0.08553659
118	0xbde2f749	-0.11082322
119	0xbf0beb8a	-0.5465628
120	0x3d2c5e27	0.04208198
121	0xbdafa0be	-0.08575581
122	0xbdb528af	-0.088456504
123	0xbdb86ba4	-0.09004906
124	0xbd07c70f	-0.03314882
125	0x3da1d03b	0.07901045
126	0x3cc62ecb	0.024192235
127	0x3c563201	0.013073445
128	0xbd9f331d	-0.07773421
129	0xbdb781fd	-0.0896034
130	0xbcd150d5	-0.025551239
131	0x3c99e1ce	0.01878443
132	0xbdb79047	-0.089630656
133	0x3dba06c9	0.090833254
134	0xbdf03c0b	-0.11730202
135	0xbdbab223	-0.09116008
136	0xbda38344	-0.07984021
137	0x3cc4ab36	0.024007421
138	0x3d423068	0.047409445
139	0x3cf15246	0.029458176
140	0xbd421586	-0.047383808
141	0x3da761f5	0.08172981
142	0xbdabd124	-0.083895
143	0x3d97ca03	0.074115776
144	0x3cc3df63	0.02391023
145	0xbc772910	-0.015085474
146	0x3c63a894	0.013895173
147	0xbcd9d801	-0.026592257
148	0x3ca369be	0.019947883
149	0xbca99723	-0.02070195
150	0x3d5184bb	0.051151972
151	0x3dec452e	0.115366325
152	0x3dc6e6f5	0.0971202
153	0xbceb6295	-0.028733531
154	0xbd6ef14c	-0.058335587
155	0xbdb2ecbd	-0.087365605
156	0x3dec11ea	0.11526854
157	0xbc916b8e	-0.017751481
158	0x3d49afc8	0.049239904
159	0x3dde855c	0.1086528
160	0xbdb25a5c	-0.08708641
161	0xbd4e4131	-0.05035514
162	0xbdaa3236	-0.08310358
163	0xbdd38e8b	-0.10329922
164	0x3c876f5e	0.016532596
165	0xbde0a863	-0.10969617
166	0x3d63b633	0.05559368
167	0x3c6b7e35	0.014373352
168	0xbf0b2577	-0.5435404
169	0x3c899d76	0.016798716
170	0xbd57ddd8	-0.0527018
171	0x3cdbcb93	0.02683047
172	0xbda6511f	-0.08120941
173	0xbd313203	-0.043260586
174	0xbdaca9fb	-0.08430859
175	0x3c99a2ef	0.01875445
176	0xbc965fa4	-0.018356152
177	0xbcd4dae2	-0.025983278
178	0xbdf8eb38	-0.121542394
179	0xbdabdd8e	-0.083918676
180	0xbd036dd8	-0.032087177
181	0x3dfc48b8	0.123185575
182	0x3dade661	0.08491207
183	0xbd100548	-0.035161287
184	0x3d8134bb	0.06308886
185	0xbda8e2a5	-0.08246354
186	0x3c2b56d9	0.010457718
187	0xbddd62e5	-0.10809878
188	0xbe0505d9	-0.12990512
189	0xbdb33538	-0.08750385
190	0x3d9f8a72	0.07790078
191	0x3d95dee5	0.073179044
192	0xbd934966	-0.07191734
193	0x3daf2a2d	0.08552966
194	0x3d4dddd6	0.050260387
195	0xbe16430d	-0.14674015
196	0x3d8f2224	0.06988934
197	0x3dc0fea3	0.09423568
198	0xbc7c2621	-0.01538995
199	0xbd15c0ee	-0.036560945
200	0x3dc1eaf8	0.09468645
201	0xbde4fa22	-0.111805215
202	0xbdd6d200	-0.10489273
203	0xbdbed92e	-0.093187675
204	0x3df7e6cd	0.12104569
205	0xbcd16711	-0.025561841
206	0x3c41140c	0.011784565
207	0x3d9a1559	0.07523603
208	0x3d0fcb99	0.035106275
209	0xbd5daeab	-0.054121654
210	0x3dc7a8c2	0.09748985
211	0xbe22c323	-0.15894751
212	0xbd94f6a7	-0.07273608
213	0xbda94d0f	-0.08266651
214	0xbcb94c32	-0.02261934
215	0xbe0aa875	-0.13540824
216	0x3d9343bf	0.07190656
217	0x3d832c04	0.0640488
218	0x3df2da15	0.11858002
219	0xbdeb7883	-0.11497595
220	0x3cdf88cb	0.027286908
221	0xbdac456f	-0.08411681
222	0xbcda5460	-0.026651561
223	0x3d8d4904	0.06898692
224	0xbdabd675	-0.08390514
225	0xbc9d8dcd	-0.019232655
226	0xbd80a259	-0.06280965
227	0x3da6353f	0.08115625
228	0x3df7e64c	0.121044725
229	0xbdfe4169	-0.1241482
230	0x3dcf9b8c	0.1013709
231	0xbdc11fb5	-0.09429876
232	0x3db6296b	0.088946186
233	0x3dcc4066	0.099732205
234	0xbd2c9b75	-0.042140443
235	0x3d3acf99	0.045608137
236	0xbd0358c1	-0.032067064
237	0x3d095b3d	0.033534277
238	0x3db15cc0	0.08660269
239	0xbd1c3627	-0.03813758
240	0x3de21637	0.110393934
241	0x3c93854e	0.0180079
242	0x3dd1d4c1	0.10245658
243	0xbcd5ef34	-0.026115038
244	0xbd936f72	-0.07198991
245	0xbdc05a65	-0.093922414
246	0x3db2e9b2	0.0873598
247	0x3c5411fb	0.01294374
248	0x3de02a3e	0.10945557
249	0x3d8a0909	0.067400046
250	0xbcde3b25	-0.027127812
251	0x3d078cda	0.03309331
252	0xbeac49a0	-0.3364992
253	0x3d08307a	0.033249356
254	0x3c905355	0.01761786
255	0xbe39900d	-0.18121357

encoder.encoder_net.2.weight f4 [100, 500]
0	0xb8bc3805	-8.974973e-05
1	0xbb705e32	-0.0036677239
2	0xbb35c30f	-0.0027734672
3	0x3b23d519	0.0024998842
4	0x3bae6a48	0.0053227283
5	0x3c84d6f8	0.016215786
6	0x3a872918	0.001031193
7	0x3a9d7e30	0.0012015756
8	0xbbcf8e6b	-0.006334116
9	0xb9d1dd8c	-0.00040028652
10	0x3a146489	0.0005660733
11	0x3b2eef8f	0.002669308
12	0x3b318b01	0.002709091
13	0x3c16b2d0	0.009197906
14	0x3b2332e9	0.002490217
15	0x3afff4fc	0.0019527967
16	0xbba4c306	-0.0050281314
17	0xbb62ddec	-0.003461714
18	0xba9ee086	-0.0012121357
19	0xbae3b790	-0.0017373431
20	0x3b015274	0.0019732984
21	0x3c23a768	0.009988643
22	0xbba608a5	-0.0050669485
23	0x3b852a63	0.004063891
24	0x3aa08a89	0.0012248318
25	0x3aa5852c	0.0012628189
26	0xbb8657b3	-0.00409981
27	0xbb232cde	-0.002489857
28	0xba9b4461	-0.001184594
29	0xba4e8d91	-0.00078793714
30	0x3b6f6735	0.0036530022
31	0xbce2b462	-0.027673904
32	0x3c1129de	0.00886008
33	0xbc094652	-0.008378582
34	0xbac53236	-0.0015044871
35	0xbbb8cee4	-0.0056398977
36	0x3a7e578c	0.00097023766
37	0x3b28fc32	0.0025785086
38	0x3ce39f16	0.027785819
39	0xba8eb34d	-0.0010887176
40	0xbaec91d5	-0.0018048832
41	0xba789e4e	-0.00094840385
42	0xbbbb3b04	-0.0057138223
43	0x3a0d6dcb	0.00053950836
44	0xbad6f48c	-0.0016399785
45	0xbc703532	-0.01466112
46	0x3b03ec0b	0.0020129706
47	0x3c1c18d4	0.009527404
48	0x3b846b4a	0.00404111
49	0x3c1b18f7	0.009466401
50	0x3c5fcf90	0.013660327
51	0x3bccfacb	0.006255483
52	0xbb47cd13	-0.0030487224
53	0x39c1e17b	0.00036979825
54	0x3b0e59ce	0.0021721008
55	0x3bf5d459	0.0075021205
56	0xbc080299	-0.008301401
57	0x3b95d3f4	0.004572386
58	0x3ba14e9c	0.004922701
59	0xbada82cb	-0.001667106
60	0xbb58ba88	-0.0033070166
61	0xbb0f4d07	-0.002186598
62	0xbb8b3f21	-0.004249469
63	0xbb85b128	-0.0040799566
64	0xbac015da	-0.001465495
65	0x3c1bb3c7	0.0095033115
66	0xbbd548ea	-0.006508936
67	0x3ab7e286	0.0014029301
68	0x3b55eb2b	0.0032641392
69	0x3af3795e	0.0018575599
70	0xbb5b60d4	-0.0033474462
71	0xbb9d7ed9	-0.004806381
72	0x3bcbb112	0.006216177
73	0x3a5f475a	0.0008517407
74	0xbb6956dc	-0.003560475
75	0x3be1468d	0.0068748654
76	0x3bc10c23	0.0058913394
77	0xbc179406	-0.0092516
78	0xbb7be7e1	-0.003843777
79	0xbbcd2f4a	-0.006261741
80	0xbb33ac1f	-0.0027415825
81	0xbbc4373d	-0.00598803
82	0xbbab2a4a	-0.005223547
83	0x3b01c482	0.0019800966
84	0xbb4ca2dd	-0.0031225004
85	0xbb2c2d64	-0.0026272172
86	0x3aa78859	0.0012781724
87	0x3bba34d9	0.0056825695
88	0xba690b66	-0.0008889943
89	0x3ba8772b	0.005141159
90	0xbb63e301	-0.0034772756
91	0x3ba3600d	0.0049858154
92	0x3baa815b	0.0052034087
93	0xbc39c2b8	-0.0113379285
94	0xbbaac29f	-0.005211189
95	0x3aaae468	0.0013038041
96	0xb8ce9999	-9.851455e-05
97	0xbaa6e357	-0.0012732547
98	0xbb03f42a	-0.0020134547
99	0x3ba82a48	0.0051319934
100	0x3bad15ea	0.0052821534
101	0x3b89a7c4	0.0042009074
102	0xbbd7adf5	-0.0065820166
103	0xb9a990d8	-0.0003234211
104	0x3ba688df	0.0050822343
105	0xbba57b30	-0.0050500855
106	0x3b55d2b8	0.003262682
107	0x39162741	0.00014319738
108	0x3ade181a	0.0016944439
109	0x3aeb65b9	0.0017959393
110	0x3b195f7c	0.002340286
111	0x3aa41092	0.0012517145
112	0xbc0dc799	-0.008653545
113	0xbc004372	-0.00782858
114	0xbae08fed	-0.0017132737
115	0xbb872e67	-0.0041254046
116	0x3b5874c0	0.0033028573
117	0x3aae5526	0.0013300523
118	0x3b06161e	0.002045996
119	0x3d5f63da	0.054538585
120	0xba8b816f	-0.0010643433
121	0x3d185fb3	0.03720064
122	0x3a82b136	0.0009971026
123	0x3acb30d8	0.0015502227
124	0x38b470aa	8.604054e-05
125	0xbc0b9c29	-0.008521118
126	0xbba559a8	-0.0050460882
127	0xbc101546	-0.0087941345
128	0xb957edd4	-0.00020592596
129	0xbb26849a	-0.0025408627
130	0x3ba80878	0.0051279627
131	0x3be72a56	0.0070546074
132	0xbb8ba6fc	-0.0042618494
133	0xbb7406ec	-0.003723557
134	0xbbe29617	-0.0069148648
135	0xbb25df65	-0.0025310155
136	0xbc253082	-0.010082366
137	0x3baca1bd	0.005268304
138	0x3bd071b1	0.0063612093
139	0x3b8db9b9	0.0043251184
140	0x39dbc521	0.00041917808
141	0xbbc5cd89	-0.0060364646
142	0xbbfa8b5d	-0.007646008
143	0x3a9df310	0.0012050588
144	0x3b877a4d	0.0041344524
145	0x3b8f1685	0.004366698
146	0x3b632e81	0.003466517
147	0xba5e9fd5	-0.0008492445
148	0x3ac2e928	0.0014870511
149	0xbd8dc695	-0.06922642
150	0x3b439e8d	0.0029849142
151	0x3ba10712	0.004914173
152	0xba81f49a	-0.0009914816
153	0xbae40c3c	-0.0017398666
154	0x3ab29f49	0.0013627793
155	0xbba1fae6	-0.0049432395
156	0x3b06f22c	0.0020591123
157	0x3ba8e21d	0.005153908
158	0xbb440b88	-0.00299141
159	0xbb76bb12	-0.0037648124
160	0x3b5a8131	0.0033341164
161	0x3c621d48	0.0138009265
162	0xbb71449c	-0.0036814576
163	0xbb56fa09	-0.003280284
164	0x3b380165	0.0028077003
165	0xbbde04b9	-0.0067754653
166	0xba5a1fe4	-0.0008320792
167	0x3bbc28ab	0.0057421527
168	0x3d9b6ee3	0.07589509
169	0xbb7b8f8c	-0.003838512
170	0x3bb21784	0.005434932
171	0xbe46ef3c	-0.19427198
172	0xbb86f450	-0.00411848
173	0xbc097654	-0.008390028
174	0xbc26660c	-0.010156166
175	0x3bc0f55b	0.0058886237
176	0xbb5dd4b7	-0.0033848712
177	0x3b2a9830	0.0026030652
178	0xbb757553	-0.0037453964
179	0x3a6441b6	0.00087073015
180	0xbba33165	-0.0049802535
181	0xbad82365	-0.001649004
182	0x3ab01e30	0.0013436731
183	0xbb9ab0bd	-0.004720776
184	0x3ac2cc98	0.0014861999
185	0xba868948	-0.0010264302
186	0x3a854f8c	0.0010170802
187	0xb9999478	-0.00029293052
188	0xbbcad7b7	-0.006190266
189	0xbaa670bf	-0.0012698396
190	0xbb6d2fa6	-0.003619173
191	0x3b7e12bf	0.0038768498
192	0x3af49b5f	0.0018662027
193	0x3c61bdfb	0.013778205
194	0x3b9106fc	0.0044258814
195	0x39b5efb0	0.0003470159
196	0x3b313a7a	0.0027042911
197	0xbaa6dbea	-0.0012730334
198	0x3b14fae0	0.002273254
199	0x3940f94b	0.00018403416
200	0xbb927b06	-0.004470232
201	0xba3b5f81	-0.0007147715
202	0xba4d2170	-0.0007825112
203	0x3a96ae8c	0.0011496111
204	0xbb745f93	-0.0037288412
205	0xbb7acac7	-0.0038267837
206	0xbbd24bb2	-0.006417715
207	0x3a12a34c	0.0005593791
208	0xbb912a44	-0.0044300873
209	0x3b07b032	0.0020704386
210	0x3be8e151	0.007106938
211	0x3d9f75d7	0.07786148
212	0x3ba51661	0.005038068
213	0x3805d654	3.190928e-05
214	0xbbd9a505	-0.0066419863
215	0xbb1c57a7	-0.0023855956
216	0x3bccf234	0.006254459
217	0x3a9c47dc	0.0011923271
218	0xbb1b25ad	-0.002367358
219	0xb7e28bb8	-2.7006361e-05
220	0xbb79d51b	-0.0038121406
221	0xbb3becbd	-0.0028675043
222	0x3bb7f361	0.00561373
223	0xbb3abe98	-0.002849495
224	0xbb4cd709	-0.00312561
225	0xba7fecd6	-0.00097627693
226	0x3bc2c727	0.005944151
227	0xbba957b6	-0.0051679267
228	0xbad18841	-0.0015986041
229	0x3b560dd3	0.0032662048
230	0x3c13e615	0.009027024
231	0x39cf80da	0.0003957812
232	0x3a525487	0.000802346
233	0xbc32101f	-0.010868101
234	0x3d64b330	0.05583495
235	0x3ba36294	0.0049861167
236	0xbb8f5187	-0.0043737325
237	0xbaf64d4b	-0.0018791346
238	0x3be5c0fe	0.007011532
239	0xbb4b6935	-0.003103805
240	0x3aedaec9	0.0018133755
241	0xbbb15a37	-0.005412366
242	0xbc0ac632	-0.008470105
243	0x3b9c9e11	0.004779585
244	0x3be6db5b	0.007045192
245	0x3b620e38	0.0034493338
246	0x3c7047af	0.014665528
247	0xba01b612	-0.000494809
248	0xba36c1c6	-0.00069716235
249	0x3b519a86	0.0031982972
250	0xbb6b009e	-0.0035858522
251	0x3bc5c33f	0.006035238
252	0xbe0701a0	-0.13184214
253	0x3c326143	0.010887447
254	0x3b80a3e4	0.0039257873
255	0x3d3de3e5	0.046359915

encoder.encoder_net.2.bias f4 [100]
0	0xbd65cace	-0.056101613
1	0xbb6c0398	-0.0036012884
2	0x3c17e8ca	0.00927181
3	0xbcdc00dc	-0.026855879
4	0xbbfa0896	-0.007630418
5	0x3d6ebd62	0.05828608
6	0xbddbfe84	-0.107419044
7	0x3c5dcae9	0.013537147
8	0xbef5d30d	-0.4801258
9	0x3ce24d2e	0.027624693
10	0xbce51b9e	-0.02796727
11	0xbef98c74	-0.4873997
12	0x3d35c5af	0.04437798
13	0xbda0f235	-0.07858697
14	0x3d6e3125	0.058152337
15	0xbf097445	-0.5369304
16	0xbed9f404	-0.42568982
17	0xbd1acac5	-0.037791032
18	0xbb703a71	-0.0036655928
19	0x3ca8af2e	0.020591345
20	0xbebd309e	-0.36951154
21	0xbe9c44e3	-0.30521306
22	0xbbd917df	-0.00662516
23	0x3bf374f7	0.007429715
24	0x3ce28f68	0.027656272
25	0xbd3bbd6a	-0.045834936
26	0xba64e119	-0.0008731052
27	0xbd1106b3	-0.03540678
28	0xbc52e595	-0.012872119
29	0x3ce966f4	0.028491475
30	0xbcf3c644	-0.029757626
31	0x3d033020	0.032028317
32	0xbee8ff65	-0.4550735
33	0x3c326afe	0.010889767
34	0xbedc0a16	-0.42976445
35	0x3c92a604	0.017901428
36	0xbea08a21	-0.31355384
37	0x3cc06a80	0.023488283
38	0xbcfbbee1	-0.030730667
39	0x3a534f72	0.00080608495
40	0x3c1045d5	0.008805712
41	0x3d05353e	0.03252148
42	0x3bab5bd3	0.005229452
43	0xbb5a5298	-0.003331339
44	0xbccfb5b2	-0.025355194
45	0xbf1bddd8	-0.6088538
46	0xbefbc329	-0.49172333
47	0xbc849c70	-0.016187876
48	0xbf072c7a	-0.5280224
49	0xbd1d380b	-0.038383525
50	0xbd1154c1	-0.03548122
51	0xbc121a22	-0.008917363
52	0xbf19e0c7	-0.6010861
53	0x3bb772b3	0.00559839
54	0xbf1d9c3c	-0.6156652
55	0xbcddf835	-0.027095893
56	0xbef65e2d	-0.48118725
57	0x3cab2fe9	0.020896869
58	0x3bc583b7	0.0060276645
59	0x3ca55dfe	0.02018642
60	0xbcc493b3	-0.02399621
61	0xbbeee621	-0.007290617
62	0xbc736c7a	-0.014857406
63	0xbef52061	-0.47876266
64	0xbed42f7f	-0.41442487
65	0xbca0f194	-0.019646443
66	0xbc8d7777	-0.01726888
67	0xbedf3f15	-0.43602815
68	0xbe2988f6	-0.16556153
69	0xbecaaa7b	-0.3958319
70	0x3cc1a6e3	0.023639148
71	0xbc11685f	-0.008874982
72	0xbaea8b8b	-0.001789437
73	0x3cbb0423	0.022829121
74	0x3c0d9b66	0.008643007
75	0xbefb10d2	-0.4903627
76	0x3ccd0044	0.02502454
77	0x3b60daa9	0.003431002
78	0xbbe64285	-0.0070269727
79	0xbec2003e	-0.3789081
80	0xbb3a63fd	-0.0028440945
81	0xbcec837c	-0.02887129
82	0xbc81ed75	-0.015860299
83	0x3c5e2f85	0.013561134
84	0xbae56600	-0.0017501712
85	0xbcf45a71	-0.029828282
86	0xbcc86bf6	-0.024465542
87	0x3d0a207e	0.033722393
88	0xbcfcf012	-0.030876193
89	0xbcbe507c	-0.023231737
90	0xbb9a4aee	-0.0047086393
91	0xbd03c284	-0.032167926
92	0xbf0026a8	-0.50058985
93	0xbd0274fa	-0.03184984
94	0x3d0f5456	0.03499254
95	0xbcb42803	-0.021991735
96	0x3c97026f	0.018433778
97	0x3bd67f7e	0.00654596
98	0x3d309a6f	0.04311603
99	0xbda2549c	-0.07926294

encoder.mu_net.weight f4 [2, 100]
0	0xbae87031	-0.0017733631
1	0xbb36c3ca	-0.0027887695
2	0x3ab987cf	0.0014154854
3	0xbc08b084	-0.008342866
4	0xbaaa8394	-0.0013009184
5	0xba314c7c	-0.0006763411
6	0xbc024e0d	-0.007953179
7	0xbafd03e8	-0.0019303532
8	0xbd29942b	-0.04140107
9	0x396974d6	0.00022264136
10	0xbba8496a	-0.0051357048
11	0xbd46e370	-0.048556745
12	0xbb38fe9e	-0.0028227936
13	0x3bfbd9b3	0.007685864
14	0x3be1f007	0.0068950686
15	0xbc8294a1	-0.015940012
16	0x3d83a9ab	0.06428846
17	0xbae0e275	-0.0017157333
18	0x3b174406	0.0023081317
19	0xbab2c065	-0.001363766
20	0x3cbf184e	0.023327019
21	0xbd52e479	-0.05148742
22	0xbaf9bba1	-0.001905311
23	0xbb5fca6a	-0.0034147748
24	0xba2d16d2	-0.0006602827
25	0x39fd54b2	0.00048319023
26	0xba6aab72	-0.0008951939
27	0x3a7901a2	0.00094988395
28	0xbaddb58e	-0.001691507
29	0xba40f384	-0.00073605054
30	0x3a5f3e3a	0.00085160474
31	0xbb56b4eb	-0.0032761644
32	0x3c95d76b	0.018291196
33	0xbb36e95c	-0.002791009
34	0x3c8530b4	0.016258575
35	0x3bc3b434	0.0059724096
36	0xbc04be25	-0.008101975
37	0xbab8eb5c	-0.0014108228
38	0xba964028	-0.0011463212
39	0x3b222cf3	0.002474603
40	0xbb210f82	-0.0024575894
41	0xba216684	-0.00061569386
42	0xbb84fdc6	-0.0040585725
43	0xbabdd54a	-0.0014483121
44	0xbbf2983e	-0.0074034026
45	0x3bfa1e69	0.0076330197
46	0xbcc037e0	-0.023464143
47	0x3b611224	0.0034343088
48	0xbd28d9ae	-0.04122322
49	0x3b456774	0.0030121477
50	0x3b22cd79	0.002484171
51	0x3b343f76	0.0027503646
52	0xbd7c54b9	-0.061604235
53	0xbad0aba4	-0.0015920294
54	0x3d5d7f1d	0.054076303
55	0x3b98c823	0.00466253
56	0xbc344467	-0.0110026365
57	0x3a82ca3a	0.0009978481
58	0xba91e7a7	-0.001113166
59	0x3a0c657a	0.00053556974
60	0xbaabe817	-0.0013115433
61	0x3b13e685	0.002256782
62	0x3a8e5cec	0.0010861433
63	0x3b49b481	0.0030777755
64	0x3d10421e	0.035219304
65	0x3ac7f411	0.0015255233
66	0x3a662701	0.0008779616
67	0x3cdce2c0	0.026963592
68	0x3bf81cee	0.007571808
69	0x3ccc4823	0.024936741
70	0xbae02df8	-0.0017103544
71	0x3b8ea300	0.004352927
72	0xbb6dd14a	-0.0036288076
73	0x3997bb99	0.00028940736
74	0xbae4f1f5	-0.0017467128
75	0x3cf6ca3d	0.030125732
76	0x39db1a83	0.00041790688
77	0x3a3bc178	0.0007162313
78	0x3b2ae48a	0.0026076161
79	0xbcc49219	-0.023995446
80	0xbaca4e38	-0.0015434688
81	0xba8bdd7f	-0.0010670869
82	0x3bade796	0.005307148
83	0xba711e9d	-0.0009197982
84	0xbb333991	-0.0027347545
85	0x3bbacace	0.0057004457
86	0x3b6fd607	0.0036596076
87	0x3aa72ebb	0.0012755016
88	0x3ba08e8b	0.004899805
89	0x3b02cae1	0.001995735
90	0xb927678c	-0.00015964935
91	0xba29dffa	-0.00064802135
92	0xbce71f6f	-0.02821323
93	0x3ad1dc06	0.0016011007
94	0x3b818529	0.0039526415
95	0xba6091bd	-0.00085666386
96	0x39b35024	0.0003420125
97	0x39c98091	0.00038433497
98	0x37aaa170	2.0340754e-05
99	0x35804e80	9.55959e-07
100	0xb98d9b65	-0.00027009394
101	0x3ab4d7c8	0.0013797218
102	0xb8994d4b	-7.3100055e-05
103	0x3a6bc29e	0.0008993539
104	0x3a957c88	0.0011404911
105	0xbaa68f69	-0.0012707534
106	0xbaa8c28a	-0.001287536
107	0x3a09c7a4	0.0005255884
108	0xbd8c9ed6	-0.06866233
109	0x39dca420	0.00042083953
110	0x3901545c	0.00012333825
111	0x3d7f92fd	0.06239604
112	0xba80b49e	-0.0009819453
113	0xb9347684	-0.00017210288
114	0xb967a61a	-0.00022091754
115	0x3d8ccf06	0.06875424
116	0xbd25c64e	-0.04047232
117	0x39a59dcc	0.0003158882
118	0xba69f237	-0.00089243375
119	0xb96f5e20	-0.0002282788
120	0x3d1c65a3	0.038182866
121	0x3d0dc9ad	0.03461616
122	0xb9ce9963	-0.00039405664
123	0xb98ff598	-0.00027458067
124	0x3a89feda	0.0010528222
125	0x3933b504	0.00017138204
126	0x3a2cc98c	0.0006591312
127	0x3aa91434	0.0012899698
128	0xba6a5ad2	-0.0008939925
129	0x3a1761ec	0.00057747844
130	0xb9060ef3	-0.00012784805
131	0xb9adcabf	-0.0003314819
132	0xbd541eff	-0.051787373
133	0x3a32128a	0.00067929237
134	0x3d3a24db	0.045445304
135	0xb8f13db8	-0.000115032715
136	0xbcb8f7eb	-0.022579154
137	0xba2de0b1	-0.0006632908
138	0x3a80320b	0.0009780539
139	0x39dd010a	0.0004215318
140	0x3a24dea1	0.0006289278
141	0xbcb409a7	-0.021977259
142	0x3a85ce9c	0.0010208669
143	0x3a527b82	0.00080292684
144	0xba2b9554	-0.0006545384
145	0x3d7cd8a7	0.061730053
146	0xbd69c3a2	-0.057071336
147	0x39a420c7	0.0003130494
148	0x3d93ad50	0.07210791
149	0xb94414ec	-0.0001869981
150	0x39a783ef	0.0003195102
151	0x395c52da	0.000210117
152	0x3d904cad	0.07045875
153	0x38f37d28	0.00011610455
154	0x3d9c9cda	0.076471046
155	0xb9c631c3	-0.00037802578
156	0xbd845d17	-0.06463068
157	0xb9b23140	-0.000339875
158	0x3a0a93b2	0.00052862905
159	0xb995055e	-0.00028423493
160	0xba064291	-0.00051216135
161	0x39e68eef	0.00043975512
162	0xb443e000	-1.8242281e-07
163	0x3d74c398	0.059756845
164	0xbd242e5f	-0.040083285
165	0xb9b00605	-0.0003357382
166	0x39fa0a09	0.00047691193
167	0xbd524afe	-0.05134105
168	0xbc1d9e86	-0.009620314
169	0x3d4c910a	0.049943008
170	0xba4cb20a	-0.00078085123
171	0xb9073460	-0.00012894114
172	0xb93c31e8	-0.00017947669
173	0x39cd4797	0.00039153986
174	0x390ed8c4	0.00013622927
175	0xbd88880f	-0.06666576
176	0x38ab9134	8.1809616e-05
177	0xba0ee262	-0.0005450604
178	0xb986a6d0	-0.00025682757
179	0xbd1a4661	-0.037664775
180	0x39fc3162	0.0004810198
181	0x3a368b2e	0.00069634884
182	0xba493943	-0.0007676074
183	0xba455e04	-0.0007528963
184	0x390215de	0.00012405912
185	0xba19714d	-0.000585337
186	0xb8c82870	-9.544275e-05
187	0x3968925c	0.00022179767
188	0x383e9560	4.5438646e-05
189	0x38cfe798	9.913667e-05
190	0xba47d770	-0.000762335
191	0xba8bda34	-0.0010669888
192	0xbd6aff56	-0.057372414
193	0xbab0c986	-0.0013487793
194	0xb9cb0004	-0.0003871919
195	0xba491cf0	-0.00076718535
196	0x3d897252	0.06711258
197	0x3a1db200	0.0006015599
198	0xba8502cb	-0.0010147927
199	0x39fc9ee5	0.0004818357

encoder.mu_net.bias f4 [2]
0	0xbd2f640e	-0.04282003
1	0xbc9fca49	-0.019505637

encoder.log_var_net.weight f4 [2, 100]
0	0x3c252a75	0.010080923
1	0xb9a63523	-0.00031701577
2	0x3c176343	0.009239974
3	0x3abf8db0	0.001461437
4	0x3bd9a4fd	0.0066419826
5	0x3c36ab42	0.0111492295
6	0x3d22f018	0.039779752
7	0xbcec299c	-0.028828435
8	0x3d8f3be4	0.06993845
9	0xbba44bab	-0.005013903
10	0xbbe07000	-0.006849289
11	0x3e07eed1	0.13274695
12	0x3c9d4f0a	0.019202728
13	0xbc4110c7	-0.011783785
14	0xbc09426b	-0.008377652
15	0x3e4fc130	0.20288539
16	0x3d12c80f	0.035835322
17	0x3bfff1fc	0.007810829
18	0x3cd4e7fc	0.025989525
19	0x3d28fc84	0.041256443
20	0xbd66ba36	-0.05632993
21	0x3ce3afdb	0.027793815
22	0xbd0838ad	-0.033257175
23	0x3cddb1f2	0.02706239
24	0x3d0528a6	0.03250947
25	0xbc6d9b87	-0.014502413
26	0xbd3b5180	-0.04573202
27	0xbbd57888	-0.0065146126
28	0x3adaa7c4	0.0016682078
29	0xbb6071ee	-0.0034247595
30	0xbc95c9a5	-0.018284628
31	0x3c748906	0.014925247
32	0x3dd7a441	0.10529376
33	0x3c065daf	0.008201047
34	0xbacaf2c0	-0.0015483722
35	0xbc6a9d83	-0.01431978
36	0xbd824bde	-0.06362127
37	0xbc26608c	-0.0101548545
38	0x3b21bdf2	0.0024679867
39	0x3bef8467	0.0073094848
40	0xbc84d946	-0.016216885
41	0x3ad71121	0.0016408303
42	0xbc252ff6	-0.010082236
43	0xbc0480f6	-0.008087387
44	0x3c29da94	0.0103670545
45	0x3e6f2c2f	0.23356698
46	0x3e5fe3d3	0.21864252
47	0x3a170d28	0.00057621533
48	0x3e406f01	0.18792345
49	0x3c9adc8e	0.018903997
50	0x3c35008c	0.011047494
51	0xbd00af45	-0.03141715
52	0x3daa0239	0.08301205
53	0xbc7aafe8	-0.015300728
54	0x3e544104	0.20727926
55	0x390f1d7b	0.00013648525
56	0x3e6ce16e	0.2313287
57	0xbaf43206	-0.0018630631
58	0x3a3b6a1c	0.00071492954
59	0xbce11268	-0.027474597
60	0x3d063f56	0.032775246
61	0xbd3daeb6	-0.046309195
62	0x3acd430b	0.0015660239
63	0xbc10e810	-0.0088443905
64	0x3d4d162a	0.050069965
65	0xbc4d9808	-0.012548454
66	0xbccbc9ec	-0.024876557
67	0x3e513381	0.20429803
68	0xbd366bfd	-0.04453658
69	0x3c6b4fb7	0.014362267
70	0xbb8f65e8	-0.004376162
71	0x3c76fc23	0.0150747625
72	0x3ce33952	0.027737293
73	0xbc260720	-0.010133535
74	0xba5cb95c	-0.00084199547
75	0x3e3b42f3	0.18287258
76	0x3c4dacca	0.012553403
77	0xbd489976	-0.048974477
78	0x3cda05b0	0.02661404
79	0x3e0a2f55	0.13494618
80	0x3ccabaf1	0.024747344
81	0xbccfac63	-0.025350755
82	0x3a644fda	0.00087094086
83	0xbc0d6c6d	-0.008631808
84	0xbc30c739	-0.010789686
85	0xbc524019	-0.012832665
86	0xbc0a0d8b	-0.00842608
87	0xbb2e143b	-0.0026562351
88	0xbc81afef	-0.015830962
89	0x3bf985a2	0.007614807
90	0x3a034c21	0.00050085975
91	0x3c6786bf	0.014131247
92	0xbdabe574	-0.08393374
93	0x3aebf35b	0.0018001603
94	0x3c01c4cc	0.007920455
95	0xbbf5aa67	-0.00749712
96	0xbb09f608	-0.0021051187
97	0x3cb57471	0.02215025
98	0xbc40805f	-0.011749356
99	0xbb08ff92	-0.0020904285
100	0x3d721d6e	0.059110098
101	0x3b9e83d5	0.004837493
102	0xba8f324c	-0.0010925024
103	0xbc11de25	-0.008903061
104	0x3a22d23d	0.00062111375
105	0x3b2f25f4	0.0026725503
106	0x3d5dccab	0.054150265
107	0xbb7649e0	-0.0037580654
108	0x3e90a714	0.2825247
109	0xbad767b0	-0.00164341
110	0xbc92b7f2	-0.017909978
111	0x3e4c36f3	0.19942836
112	0xbbaed584	-0.0053355116
113	0x3ca4eef4	0.020133473
114	0x3c7daf51	0.015483693
115	0x3e68a1ef	0.22718023
116	0x3e69dfc5	0.22839268
117	0xbba25e47	-0.0049550864
118	0x3c6f2e4d	0.014598441
119	0x3b18912e	0.0023279893
120	0x3e3f8c74	0.18705922
121	0x3e6a312c	0.2287032
122	0x3bc4cd5f	0.0060059275
123	0x3be6257c	0.0070235115
124	0x3c1e3486	0.009656077
125	0xbc3eefe5	-0.011653875
126	0x3b76ecd7	0.0037677789
127	0xbb385642	-0.0028127586
128	0x3b8d82c2	0.004318566
129	0x3a6eead3	0.0009113971
130	0x3c247c3a	0.010039384
131	0x3c786ab4	0.015162159
132	0x3e7cf189	0.24701513
133	0xbb195f6a	-0.0023402818
134	0x3e569c43	0.20958047
135	0xbc109bf6	-0.0088262465
136	0x3e91e909	0.28498104
137	0xbb2201bc	-0.0024720272
138	0xbbedeaeb	-0.0072606704
139	0xbaa8e65a	-0.0012886033
140	0x3b710f03	0.003678263
141	0x3e0dae29	0.13835968
142	0xbbf53b0f	-0.007483847
143	0xbba42e06	-0.0050103692
144	0xbacf82df	-0.0015831849
145	0x3e89bc80	0.26901627
146	0x3e86a745	0.26299492
147	0x3bb9e7f2	0.005673402
148	0x3e8101a1	0.25196555
149	0x3c446aab	0.011988322
150	0xbbb52314	-0.0055278633
151	0x3b9ad7f2	0.0047254497
152	0x3e93ece4	0.2889167
153	0xbb8e703f	-0.004346877
154	0x3e87c85f	0.2652006
155	0xbb5dd9d8	-0.0033851769
156	0x3e315292	0.17316654
157	0x3c18fa3a	0.009337002
158	0xbbacecdc	-0.0052772593
159	0x3bbebbe8	0.00582074
160	0xbacc2e78	-0.0015577814
161	0xbbe071e9	-0.0068495166
162	0xbc65dce6	-0.014029717
163	0x3e1fa50c	0.15590304
164	0x3e49e7e0	0.1971736
165	0x3c2462cf	0.010033323
166	0xbbaddbed	-0.005305758
167	0x3e95770c	0.29192388
168	0x3e0b4669	0.13601078
169	0x3d90f836	0.070785925
170	0xba977ae0	-0.0011557005
171	0xbba2605b	-0.004955334
172	0x3bc3575c	0.005961342
173	0xbb3ec9a8	-0.0029111896
174	0x3b17d470	0.0023167394
175	0x3e53378c	0.20626658
176	0xbc6a6661	-0.014306636
177	0xbc337134	-0.010952283
178	0xbb08ed95	-0.0020893563
179	0x3e86cf89	0.26330212
180	0xbb7eee14	-0.003889923
181	0x3c80fa2f	0.015744297
182	0x3c39e83c	0.011346873
183	0xbc52a776	-0.012857309
184	0xbb83d672	-0.0040233666
185	0xbad0758a	-0.001590417
186	0xbb006b02	-0.0019595032
187	0xbb0357a5	-0.0020041254
188	0xba51b2e0	-0.0007999372
189	0x3b876b7f	0.0041326876
190	0x3c0547e7	0.008134819
191	0x3c914bdf	0.017736373
192	0x3e7dad91	0.24773242
193	0xbbeacc35	-0.0071654567
194	0xbad34203	-0.0016117695
195	0x3bc431d0	0.0059873834
196	0x3ebd32ff	0.3695297
197	0x3c1f28fe	0.009714363
198	0xba7785b2	-0.00094422244
199	0x3ea3c46c	0.31985795

encoder.log_var_net.bias f4 [2]
0	0xbe6ea54a	-0.2330524
1	0xbe73cc44	-0.2380839

nn_model.net.0.weight f4 [10, 4]
0	0x3f6e5de3	0.9311201
1	0xbf5cc724	-0.86241364
2	0xba3e62a0	-0.0007262621
3	0xbf5e41a8	-0.86818933
4	0x3e67a374	0.22620946
5	0x3eaacc44	0.33358967
6	0xbbad604b	-0.00529102
7	0x3fb292e2	1.3951075
8	0xbcbf140e	-0.023324993
9	0x3fac2237	1.3447942
10	0xba6e3232	-0.0009086459
11	0xc02844d9	-2.6292021
12	0xbf002881	-0.50061804
13	0xbf7bb03d	-0.98315793
14	0x3b67012c	0.0035248501
15	0x3ed1d6f6	0.40984315
16	0xbb187f74	-0.0023269327
17	0xbfdd1c92	-1.7274344
18	0x3ab39a79	0.0013702653
19	0x4031d25f	2.778465
20	0x3d33816a	0.04382459
21	0x3fd75c08	1.6824961
22	0xb6b67700	-5.437876e-06
23	0x3fa211e0	1.2661705
24	0x3f2abb61	0.6669217
25	0xbd3995e3	-0.04530896
26	0x39e2ff4a	0.00043296284
27	0x4056f976	3.358976
28	0x3f60541c	0.8762834
29	0xbfa6df0b	-1.3036817
30	0x3991edda	0.00027833768
31	0x3f1353ca	0.57549727
32	0xbbd39230	-0.006456636
33	0x400150b7	2.0205514
34	0xbbaa88a9	-0.0052042794
35	0x3fd94f46	1.6977317
36	0x3dc8bee6	0.09802036
37	0x3fc45b52	1.5340369
38	0xb884295c	-6.301954e-05
39	0x3f770664	0.96494126

nn_model.net.0.bias f4 [10]
0	0x3f170280	0.5898819
1	0x3df1a9d6	0.11799972
2	0xbf654a7e	-0.8956679
3	0x3d8df66c	0.06931767
4	0x3ed7876f	0.42095515
5	0x3ef89322	0.48549753
6	0xbdbd090b	-0.092302404
7	0xbf0c94e2	-0.5491468
8	0x3f099cfe	0.53755176
9	0x3e525292	0.2053931

nn_model.net.2.weight f4 [10, 10]
0	0xbf48e498	-0.78473806
1	0x3f6d3055	0.92651874
2	0xbec0688a	-0.37579757
3	0x3dbe1ef0	0.092832446
4	0x3f145f7b	0.5795819
5	0x3eda21b1	0.4260383
6	0xbf603150	-0.87575245
7	0x3e83517c	0.25648105
8	0xbf452a95	-0.770181
9	0xbf0c09dd	-0.5470255
10	0xbf8f0549	-1.1173488
11	0xbdddc1e5	-0.10827998
12	0x3ee3f08e	0.44519466
13	0xbfb5fbad	-1.421743
14	0xbfa0726c	-1.2534919
15	0x3f3a9e9f	0.72898287
16	0x3ecc0bb6	0.39852685
17	0xbed8b772	-0.42327458
18	0x3f2099ce	0.6273469
19	0x3f09a52e	0.5376767
20	0x3f18f860	0.5975399
21	0xbf837eae	-1.0273035
22	0xbdf4eaab	-0.11958822
23	0x3e478322	0.19483617
24	0x3f5c4e5f	0.86057085
25	0xbf98a280	-1.1924591
26	0xbefdbe29	-0.49559143
27	0x3f0e9580	0.5569687
28	0xbf69620f	-0.9116525
29	0xbfc54f9b	-1.5414919
30	0x3f077667	0.5291504
31	0xbf66efeb	-0.90209836
32	0xbfc402e9	-1.5313388
33	0x3f6abbde	0.9169291
34	0x3f7ec118	0.9951339
35	0xbf1f6c5b	-0.6227471
36	0xbdea9eba	-0.11456056
37	0x3f3e6244	0.7436869
38	0xbf582ebb	-0.84446305
39	0xbf1f043d	-0.6211584
40	0x3f26c2fd	0.6514128
41	0xbf7ea485	-0.99469787
42	0xbf0dedba	-0.55440867
43	0x3f88e26c	1.0694098
44	0x3fbee12c	1.4912467
45	0xbf1ca82a	-0.611941
46	0xbe2d8a77	-0.16947351
47	0x3f616bb8	0.8805499
48	0xbf98ec1a	-1.1947052
49	0xbf192df0	-0.5983572
50	0xbdbdb58f	-0.09263145
51	0x3f9e7d0c	1.2381911
52	0x3e67d6a5	0.22640474
53	0x3e4e3ae0	0.20139647
54	0x3fa69989	1.3015605
55	0xbf59d715	-0.85093814
56	0xbef17895	-0.4716231
57	0xbf0734a7	-0.52814716
58	0xbed3fd05	-0.41403976
59	0xbec51eff	-0.3850021
60	0x3eccc836	0.399965
61	0xbeae075c	-0.3398999
62	0xbe37d5f9	-0.17952718
63	0x3f03ff1c	0.5156114
64	0x3f4701e7	0.7773728
65	0xbefd1eb8	-0.494375
66	0x3f83cd0a	1.0296948
67	0x3ebd6584	0.36991513
68	0xbf07bbd7	-0.53020996
69	0xbe19bd48	-0.15013611
70	0xbf145ab4	-0.579509
71	0x3f2e7134	0.68141484
72	0xbf65abc3	-0.8971521
73	0x3f40dced	0.75337106
74	0x3e34895c	0.17630523
75	0x3df70070	0.1206063
76	0xbf5f9263	-0.87332743
77	0xbe0121c0	-0.12610531
78	0xbf30d62a	-0.6907679
79	0x3f719d07	0.9438023
80	0xbeaf4f9d	-0.34240428
81	0x3f3844ff	0.7198028
82	0x3f19b3be	0.6003989
83	0xbdfbaf2e	-0.12289272
84	0xbf448fe7	-0.7678208
85	0x3fa7d4f8	1.3111868
86	0x3f35b475	0.7097848
87	0xbf55b1b1	-0.8347426
88	0x3f383a98	0.71964407
89	0x3fdd4596	1.7286861
90	0xbea52b72	-0.3225971
91	0x3f22b1b8	0.6355243
92	0xbf5a551f	-0.85286134
93	0x3fa719c3	1.3054737
94	0xbe3deca4	-0.18547302
95	0x3ebc36cc	0.36760557
96	0x3e9d43e2	0.30715853
97	0xbeddb410	-0.4330144
98	0x3e55ad85	0.20866974
99	0xbe410580	-0.18849754

nn_model.net.2.bias f4 [10]
0	0xbecfc897	-0.40582725
1	0xbd65a6d0	-0.056067288
2	0x3dde30ec	0.10849175
3	0xbebf99b6	-0.3742196
4	0x3e9f70a7	0.31140634
5	0x3ed110f5	0.4083325
6	0x3f63f2fe	0.8904265
7	0xbf310a97	-0.69156784
8	0x3e23fe98	0.16015089
9	0xbf7d2bed	-0.9889515

nn_model.net.4.weight f4 [1, 10]
0	0x3f942a6b	1.1575445
1	0x3edc52d9	0.43031958
2	0xbf3f4430	-0.7471342
3	0x3f954a44	1.1663289
4	0xbf25d9a5	-0.64785224
5	0xbef71058	-0.48254657
6	0xbea86975	-0.32892957
7	0x3f10d5d8	0.565763
8	0xbf3e13fd	-0.7424925
9	0xbfd37d1b	-1.6522554

hnn.differentiable_model.net.0.weight f4 [10, 4]
0	0x3f6e5de3	0.9311201
1	0xbf5cc724	-0.86241364
2	0xba3e62a0	-0.0007262621
3	0xbf5e41a8	-0.86818933
4	0x3e67a374	0.22620946
5	0x3eaacc44	0.33358967
6	0xbbad604b	-0.00529102
7	0x3fb292e2	1.3951075
8	0xbcbf140e	-0.023324993
9	0x3fac2237	1.3447942
10	0xba6e3232	-0.0009086459
11	0xc02844d9	-2.6292021
12	0xbf002881	-0.50061804
13	0xbf7bb03d	-0.98315793
14	0x3b67012c	0.0035248501
15	0x3ed1d6f6	0.40984315
16	0xbb187f74	-0.0023269327
17	0xbfdd1c92	-1.7274344
18	0x3ab39a79	0.0013702653
19	0x4031d25f	2.778465
20	0x3d33816a	0.04382459
21	0x3fd75c08	1.6824961
22	0xb6b67700	-5.437876e-06
23	0x3fa211e0	1.2661705
24	0x3f2abb61	0.6669217
25	0xbd3995e3	-0.04530896
26	0x39e2ff4a	0.00043296284
27	0x4056f976	3.358976
28	0x3f60541c	0.8762834
29	0xbfa6df0b	-1.3036817
30	0x3991edda	0.00027833768
31	0x3f1353ca	0.57549727
32	0xbbd39230	-0.006456636
33	0x400150b7	2.0205514
34	0xbbaa88a9	-0.0052042794
35	0x3fd94f46	1.6977317
36	0x3dc8bee6	0.09802036
37	0x3fc45b52	1.5340369
38	0xb884295c	-6.301954e-05
39	0x3f770664	0.96494126

hnn.differentiable_model.net.0.bias f4 [10]
0	0x3f170280	0.5898819
1	0x3df1a9d6	0.11799972
2	0xbf654a7e	-0.8956679
3	0x3d8df66c	0.06931767
4	0x3ed7876f	0.42095515
5	0x3ef89322	0.48549753
6	0xbdbd090b	-0.092302404
7	0xbf0c94e2	-0.5491468
8	0x3f099cfe	0.53755176
9	0x3e525292	0.2053931

hnn.differentiable_model.net.2.weight f4 [10, 10]
0	0xbf48e498	-0.78473806
1	0x3f6d3055	0.92651874
2	0xbec0688a	-0.37579757
3	0x3dbe1ef0	0.092832446
4	0x3f145f7b	0.5795819
5	0x3eda21b1	0.4260383
6	0xbf603150	-0.87575245
7	0x3e83517c	0.25648105
8	0xbf452a95	-0.770181
9	0xbf0c09dd	-0.5470255
10	0xbf8f0549	-1.1173488
11	0xbdddc1e5	-0.10827998
12	0x3ee3f08e	0.44519466
13	0xbfb5fbad	-1.421743
14	0xbfa0726c	-1.2534919
15	0x3f3a9e9f	0.72898287
16	0x3ecc0bb6	0.39852685
17	0xbed8b772	-0.42327458
18	0x3f2099ce	0.6273469
19	0x3f09a52e	0.5376767
20	0x3f18f860	0.5975399
21	0xbf837eae	-1.0273035
22	0xbdf4eaab	-0.11958822
23	0x3e478322	0.19483617
24	0x3f5c4e5f	0.86057085
25	0xbf98a280	-1.1924591
26	0xbefdbe29	-0.49559143
27	0x3f0e9580	0.5569687
28	0xbf69620f	-0.9116525
29	0xbfc54f9b	-1.5414919
30	0x3f077667	0.5291504
31	0xbf66efeb	-0.90209836
32	0xbfc402e9	-1.5313388
33	0x3f6abbde	0.9169291
34	0x3f7ec118	0.9951339
35	0xbf1f6c5b	-0.6227471
36	0xbdea9eba	-0.11456056
37	0x3f3e6244	0.7436869
38	0xbf582ebb	-0.84446305
39	0xbf1f043d	-0.6211584
40	0x3f26c2fd	0.6514128
41	0xbf7ea485	-0.99469787
42	0xbf0dedba	-0.55440867
43	0x3f88e26c	1.0694098
44	0x3fbee12c	1.4912467
45	0xbf1ca82a	-0.611941
46	0xbe2d8a77	-0.16947351
47	0x3f616bb8	0.8805499
48	0xbf98ec1a	-1.1947052
49	0xbf192df0	-0.5983572
50	0xbdbdb58f	-0.09263145
51	0x3f9e7d0c	1.2381911
52	0x3e67d6a5	0.22640474
53	0x3e4e3ae0	0.20139647
54	0x3fa69989	1.3015605
55	0xbf59d715	-0.85093814
56	0xbef17895	-0.4716231
57	0xbf0734a7	-0.52814716
58	0xbed3fd05	-0.41403976
59	0xbec51eff	-0.3850021
60	0x3eccc836	0.399965
61	0xbeae075c	-0.3398999
62	0xbe37d5f9	-0.17952718
63	0x3f03ff1c	0.5156114
64	0x3f4701e7	0.7773728
65	0xbefd1eb8	-0.494375
66	0x3f83cd0a	1.0296948
67	0x3ebd6584	0.36991513
68	0xbf07bbd7	-0.53020996
69	0xbe19bd48	-0.15013611
70	0xbf145ab4	-0.579509
71	0x3f2e7134	0.68141484
72	0xbf65abc3	-0.8971521
73	0x3f40dced	0.75337106
74	0x3e34895c	0.17630523
75	0x3df70070	0.1206063
76	0xbf5f9263	-0.87332743
77	0xbe0121c0	-0.12610531
78	0xbf30d62a	-0.6907679
79	0x3f719d07	0.9438023
80	0xbeaf4f9d	-0.34240428
81	0x3f3844ff	0.7198028
82	0x3f19b3be	0.6003989
83	0xbdfbaf2e	-0.12289272
84	0xbf448fe7	-0.7678208
85	0x3fa7d4f8	1.3111868
86	0x3f35b475	0.7097848
87	0xbf55b1b1	-0.8347426
88	0x3f383a98	0.71964407
89	0x3fdd4596	1.7286861
90	0xbea52b72	-0.3225971
91	0x3f22b1b8	0.6355243
92	0xbf5a551f	-0.85286134
93	0x3fa719c3	1.3054737
94	0xbe3deca4	-0.18547302
95	0x3ebc36cc	0.36760557
96	0x3e9d43e2	0.30715853
97	0xbeddb410	-0.4330144
98	0x3e55ad85	0.20866974
99	0xbe410580	-0.18849754

hnn.differentiable_model.net.2.bias f4 [10]
0	0xbecfc897	-0.40582725
1	0xbd65a6d0	-0.056067288
2	0x3dde30ec	0.10849175
3	0xbebf99b6	-0.3742196
4	0x3e9f70a7	0.31140634
5	0x3ed110f5	0.4083325
6	0x3f63f2fe	0.8904265
7	0xbf310a97	-0.69156784
8	0x3e23fe98	0.16015089
9	0xbf7d2bed	-0.9889515

hnn.differentiable_model.net.4.weight f4 [1, 10]
0	0x3f942a6b	1.1575445
1	0x3edc52d9	0.43031958
2	0xbf3f4430	-0.7471342
3	0x3f954a44	1.1663289
4	0xbf25d9a5	-0.64785224
5	0xbef71058	-0.48254657
6	0xbea86975	-0.32892957
7	0x3f10d5d8	0.565763
8	0xbf3e13fd	-0.7424925
9	0xbfd37d1b	-1.6522554
