ConSciNet/models/ConSciNet_weights50k_lv6.pt (torch, 313379 bytes, 18 tensors)

encoder.encoder_net.0.weight f4 [500, 50]
00000000: 3ab2 9c3c 025a 19ba 9bf7 c8bd e797 efbc
00000010: 2c77 7e3c 89d2 3f3d c8d6 3cbd abb2 353e
00000020: d148 54bd dd52 29bd 4128 cf3c d299 a7bd
00000030: 345d 023e 99c0 353d ac2a 3c3d 271a bfbd
00000040: 7358 cfbd 987d e93b a51d 3a3c 155b 673d
00000050: ac01 953d 0393 2cbe b4af e63d 0a3b 263d
00000060: f960 963d 7b51 2abd ed91 c4bd 5d8e bb3c
00000070: 9ef3 193e 0d50 78bd 9be6 38bd 011c b43d
00000080: 8e60 25bd 1acc a9bd bc00 dc3c b9e0 6b3d
00000090: 0dc1 94bd 64fc 99bd 6228 c23d 15ef 46bd
000000a0: 350f 53bc 43e3 d53d 9519 93bd 0e83 89bc
000000b0: 22ce e13a fab5 283d 7688 e4bc bec2 aabc
000000c0: 8083 9bba ff37 22bd 41b9 d2bd c0da f9bd
000000d0: 8228 82bd a652 8ebd 5968 76bd 1546 8cbd
000000e0: cc68 d5bd 2d9e a3bc 41a1 5b3d c052 c4bd
000000f0: 16e4 42bd 6624 943c 3a39 12be 9b13 8bbd
00000100: 08a8 fabc dcb5 953d 9bca 2fbe f0a6 cfbc
00000110: c7fd 603d 36e7 a3bd 0dbd 0f3e 7503 883c
00000120: a5bd 9a3c 235b 553c 1c07 8e3d 26db 573d
00000130: c072 c73d e98f 993c cc46 503d 023f 013d
00000140: c595 483d 430f 83bd 5314 273d 8d09 88bc
00000150: f324 3f3d 2500 983d 40d6 7d3d 66f2 be3d
00000160: 4ba6 9ebc acf9 cabd 57c9 423d a02f ad3d
00000170: 57bc b33b 2fed 2dbc 8f16 013d 4a8d 143e
00000180: 3135 eabd 7de2 a6bd 7c68 7cbd b109 b93d
00000190: 4bc4 e23c 2b45 1abe 78aa ab3d 58f4 68bd
000001a0: b1b5 91ba 29bb d9bc 3314 63bd b3d0 bdbd
000001b0: 1c0c 243e 76ce 27bc 9160 8b3d cdac 433d
000001c0: 1b0a efbc a4e1 25be 382a edbc 8f19 17bd
000001d0: 71d4 113d 1b3a 193b aac9 103d 27b7 483d
000001e0: c180 0b3e ba83 c4bd 1436 513d 5136 7cbd
000001f0: 3e17 bbbc 8714 c33d 2fe9 fb3d d10f 093d
00000200: 9789 973c 48ec 0c3d 6d63 9ebd f4a7 46bd
00000210: a29d e83d 97ee b2bd 2fcb 8a3d cd04 e6bd
00000220: da7d 90bc 6800 f9bc e292 da3d b625 7f3d
00000230: 6c37 04be 9fd7 9b3d e4a6 30b8 7b02 5fbd
00000240: cc70 c1bd ce52 943d b9d3 77bc 4a86 b03a
00000250: 7986 813d c74c d6bd c7f4 16be a1b0 a4bd
00000260: 0a95 ec3d 678f d73d e5d7 b4bd 05bb 4abd
00000270: 1d52 e53d 9f35 c43c 78a0 aebc 48bc 2e3e
00000280: aec8 153c 6a6c eebd cabc 263e 933d 623c
00000290: 6b0e fd3b 393e 5a3b c7c5 b4bc 6baf f33c
000002a0: 2a6d dcbc 3606 55bd 4aa1 01be feec 8c3d
000002b0: 4dc2 1b3e 3ad5 b43d 8a4c 143c 1767 abbb
000002c0: 078b 44bc 4aa2 fd3d cf64 33bc 5814 a8bc
000002d0: 75de 933d efce 81bd f59e 3c3d 8a93 2a3d
000002e0: ad2a 15be 161e 9abd d0db 163d 45a0 87bd
000002f0: 31ca b03d c8a7 1fbb 0e5b f93d 37e5 973d
00000300: ba4b 89bd 25d3 253d 920d e03b 5030 edba
00000310: 96dc acbd b257 c03d aa17 ebbc c1b3 78bd
00000320: 3fa5 b0bd 67c3 9a3d 4a9c 86bb 77c6 593d
00000330: e879 803d d8fa 72bd 2ca9 b0bc e50f 56bc
00000340: 95ab d0bd 3c24 db3d ecb1 aabc b4cd c03d
00000350: f830 3fbd 0ed2 90bb 855d aa3d 9bc5 ab3d
00000360: 9ca5 11bc d7d2 373d 22fb a43d 96c4 03bc
00000370: 6cd6 c23d 5830 acbd 7ed7 083e 75c4 9dbd
00000380: beef 263d a0c4 a53d a009 8d3d aabe cf3d
00000390: 97b1 6d3d d0d0 dabb f4f8 3e3d df8a 853d
000003a0: 7508 6bbd 8348 92bd 47de 183e 1968 223e
000003b0: 8478 b63c a0f0 08be ac12 653c 6d95 c33b
000003c0: 374b ed3d ebee 663d 12f3 b6bd 3426 933c
000003d0: 5246 cbbd a4de 0a3e 28ff 3c3d 25f3 30bd
000003e0: bb6a 593d 60ff df3a 41a9 f9ba 9fe7 eebd
000003f0: e368 e83c 5ef7 c6bd c5a3 a6bd 2b6b 41be
0.019127954 -0.0005849899 -0.09812852 -0.029247237 0.0155313425 0.04683164 -0.04610327 0.17743938
-0.051827256 -0.04133879 0.02528775 -0.08183636 0.12730867 0.04437313 0.045939133 -0.0933116
-0.10124292 0.0071255676 0.011359607 0.056483347 0.072757095 -0.16852956 0.112639815 0.040583648
0.07342715 -0.041581612 -0.09598146 0.022895033 0.15034339 -0.060623217 -0.045141798 0.08794404
-0.040375285 -0.082908824 0.026855819 0.05758736 -0.07263384 -0.07518843 0.09480359 -0.04856785
-0.012882044 0.10443737 -0.07182614 -0.016786125 0.001722757 0.04118917 -0.0278971 -0.020844813
-0.0011864752 -0.039604183 -0.10289241 -0.121999264 -0.063553825 -0.06949358 -0.060158107 -0.068493046
-0.10420379 -0.019972885 0.05362058 -0.09586096 -0.0475808 0.018083762 -0.14279643 -0.06790849
-0.030597702 0.073100775 -0.17167132 -0.025348157 0.05492952 -0.08003084 0.14036961 0.016603211
0.018889258 0.013022217 0.0693495 0.05269923 0.09738684 0.01874538 0.050848767 0.03155423
0.048970956 -0.06399395 0.040790867 -0.016606117 0.046666097 0.074219026 0.061971903 0.093235776
-0.019366404 -0.099109024 0.047555294 0.084563494 0.0054850983 -0.010615631 0.031515654 0.14507023
-0.11435927 -0.08148668 -0.06162308 0.090350516 0.02768149 -0.15065448 0.08382124 -0.05687365
-0.001111677 -0.026578503 -0.055439185 -0.09268322 0.16020244 -0.010242095 0.06805528 0.047772218
-0.029179623 -0.16199356 -0.028950796 -0.03688961 0.03560299 0.002338058 0.03534857 0.049002793
0.13623334 -0.09595437 0.051076964 -0.061575238 -0.022838231 0.095254 0.123003356 0.03346235
0.018498225 0.034405023 -0.07733808 -0.048500016 0.11358191 -0.08736914 0.067770354 -0.112313844
-0.017638136 -0.030395702 0.10672547 0.062291823 -0.12911767 0.07609486 -4.21171e-05 -0.054445725
-0.094453424 0.07242356 -0.015126162 0.0013467756 0.06324477 -0.10463863 -0.14741813 -0.08041502
0.115518644 0.10525399 -0.08830241 -0.049494762 0.111973025 0.02395135 -0.021316752 0.17064011
0.009142084 -0.11641772 0.16282955 0.013808626 0.007722666 0.0033301248 -0.022066964 0.029746732
-0.026907522 -0.052007876 -0.12659183 0.0688114 0.15210839 0.08829732 0.009051451 -0.005230795
-0.011996037 0.1238447 -0.010949328 -0.020517513 0.07220165 -0.063382976 0.04605003 0.04164461
-0.14567061 -0.0752527 0.036830723 -0.06622366 0.08632315 -0.002436148 0.121755704 0.07416766
-0.06703897 0.040484566 0.006837555 -0.0018096063 -0.08440511 0.093917266 -0.028697807 -0.0607183
-0.08625268 0.07556801 -0.0041079866 0.053167786 0.06273252 -0.059321254 -0.021565042 -0.013065313
-0.10188977 0.107002705 -0.020836793 0.09414235 -0.04667756 -0.0044195717 0.08318619 0.083872996
-0.008889582 0.044878807 0.08055712 -0.008042475 0.09513554 -0.08407658 0.13363454 -0.07703487
0.04075598 0.08094144 0.068866014 0.10143788 0.05803069 -0.0066777244 0.04662414 0.06520628
-0.057381112 -0.07142737 0.14928542 0.15860023 0.022274263 -0.13373041 0.0139815025 0.0059687407
0.11586612 0.056380194 -0.08933081 0.017962553 -0.09925522 0.13561493 0.046141773 -0.04320063
0.0530803 0.0017089657 -0.0019047634 -0.11665272 0.028370326 -0.0971515 -0.08136705 -0.18888538

encoder.encoder_net.0.bias f4 [500]
00000000: 96e5 43bd 85c9 f7bc 7c2d dbbc c8d6 a53d
00000010: 8360 50bd f5e3 0cbc dd71 8c3d 48ad aabd
00000020: b756 6f3d ef80 b83d ea15 adbd f79d 063e
00000030: 2096 f1bd 8c00 2abe cff0 9f3d d9fe 943d
00000040: 4392 6fbd 8bfd 3f3d 2384 3fbd dd6d fcbd
00000050: 45a5 a9bd 9236 783d 349f 9e3d f4a2 d03d
00000060: bc95 d5bc 9735 d23d 3c21 d63d b1ea c7bd
00000070: 12da 273d 1d53 e8bd b0e0 a33d badf 40bd
00000080: 53e3 e5bd 7720 1dbd 4c2d f43d d0dd db3d
00000090: 21b7 673d 1ac2 0c3e c8e3 7ebd ad9a febc
000000a0: c41c 8f3d 7c8c 2c3d c13c 053e 0cc8 a2bd
000000b0: e4d9 0c3e 58d4 d0bd 0131 0ebd 8034 bfbd
000000c0: 8cc7 3b3e 953e b9bd e9e8 03be fb7e 02be
000000d0: 99db dabd 75c0 963d 3a85 8f3d eb3f 2fbd
000000e0: 65ed 55bd 2624 de3d da6b b4bd 7ceb a43b
000000f0: 7ef3 433d c68f 433e 1f00 0b3d a644 343d
00000100: e779 8ebd 714b 4ebd 9053 dabd b1a1 4d3d
00000110: 982c 303d 367d bcbc bc7f adbd f80e c23d
00000120: 52b9 30be 8698 01be 2817 b1bd bee5 1e3d
00000130: fd3a 96bc 7d9f 92bd 62ff f2bd f8dd 17be
00000140: ee1c 4abd 98e0 19be 9f5c f0bd 9898 023e
00000150: 6465 b63d 0628 883c c643 13be 7d87 c63d
00000160: 9caf b03d 6a53 a6bd 70d4 c7bc 1b0c 0abe
00000170: f93b 193d ff89 95bc 60e0 503d 232b f83d
00000180: 4def 873d 8674 c9bd c5a8 233d aed9 a6bc
00000190: cdd5 9b3d 374b 96bc 5d9d c43d 3f1e eeb9
000001a0: a5fc 98bd 7ce9 d83d 0822 99bd bbaa 9ebd
000001b0: f873 923d d5e2 efbd 1799 6abd 78ea 873c
000001c0: 0bc0 d73d 3658 be3d 8c4a a9bd 7bff 9fbd
000001d0: 2784 03bd a5a5 a43c 2fd1 583d 9ed7 fd3c
000001e0: c320 b6bd daf4 b0bd 9b2f bb3d 67ef c4bc
000001f0: 1b6b 0a3d dec4 c13c c3b7 383d adb6 94bd
00000200: ebcd f7bd 870f a8bd 9bf7 9d3d f4e9 573d
00000210: 86fd fabd 4a7b 09be 2b24 d23c debf 1a3b
00000220: 051d bdbd 1d7f d5bd 2590 653c c8de a0bd
00000230: 91bd 8ebd b086 1b3d f5b8 53bd fab2 2f3d
00000240: 46cf c73d 2a3b 00bd 68b5 b23b 6f93 86bd
00000250: 49c0 bd3d ecde febd e340 e13d d252 133c
00000260: dbb4 b93c 0fc7 e73d b077 863d 7ff3 813d
00000270: e9ff e7bd 91a3 033d 02f1 e9bd 791b b73c
00000280: 7410 b3bd 83c2 7dbd ccb4 a4bd 2dd4 05be
00000290: b53b 14be 2b52 abbb 2465 5a3d cd70 c13d
000002a0: dc54 56bd e059 d33d 94be 77bd c9fe cebd
000002b0: ad7d 0e3e 22e3 b63d 4835 d8bd dfe7 b5bb
000002c0: a7f5 e4bd 78df 47bd 5eeb 0a3c 547c 76bc
000002d0: 69a4 a63d 65ef 5c3c 7c20 b03c 1b8a bd3d
000002e0: 9b1d b53d 8f7c 5cbc a395 683d 32ef 263d
000002f0: a87b 973d ce6b 59bd c746 64bb a935 20bd
00000300: aec5 48bd 6067 debd 5809 d7bd e9fe e7bd
00000310: eb42 803d ebbb 8bbc c963 babc 583d 6abd
00000320: b2ff fc3d e51e e9bd 04b0 cc3c 4490 60bd
00000330: b715 07bd 59f1 80bc f899 933d 928a b4bc
00000340: 2f44 e63c 8c6e 8b3d 6e76 8dbd 6c69 383e
00000350: cc32 efbd 10a9 a9bd 9861 1bbd 161c b93d
00000360: b055 953d 93ac 623d ba7a 043e 0524 bcbd
00000370: c6ad db3d 62c3 87bd ca90 64bc 0da6 4fbd
00000380: 2dc3 55bd da5d 34bd c65c fc3d 3d56 523d
00000390: fcd1 8d3d 6a76 19be 883d 8dbd 0c2f 58bd
000003a0: 2c9f a0bd 1652 8f3d 3e61 763d a6c3 153e
000003b0: dd34 eabb af54 27bd 938b ac3d 19cb 813d
000003c0: a1c5 f0bd 9496 033d fc55 9639 fac2 bdbd
000003d0: 208d 1dbe 3172 f7bb ba99 4cbe 82ba 02be
000003e0: d220 06bd fe19 c23d 6a1d 0f3e 8647 143d
000003f0: 575d 1abd 7536 c4bd 9b8c 0c3d 251d 063e
-0.047826372 -0.03024746 -0.026755087 0.08097607 -0.05087329 -0.008599271 0.06857655 -0.08333832
0.058432307 0.09008967 -0.084514454 0.13146196 -0.11796212 -0.16601771 0.078096025 0.07275171
-0.058489095 0.046872657 -0.046756875 -0.12325642 -0.08283476 0.060598917 0.07745209 0.10187331
-0.026072375 0.10264128 0.10455558 -0.09761561 0.040979452 -0.113439776 0.0800184 -0.047088362
-0.11224999 -0.03836104 0.11922702 0.10735667 0.05657113 0.13745919 -0.062228948 -0.031079615
0.069879085 0.042126164 0.13011457 -0.07948312 0.13754994 -0.10196751 -0.034714703 -0.093361855
0.1833784 -0.0904514 -0.12881817 -0.12743752 -0.10686416 0.07360927 0.07007833 -0.042785566
-0.05222835 0.108467385 -0.088096336 0.0050329547 0.047839634 0.19097814 0.033935662 0.04401078
-0.06956845 -0.050364915 -0.106604695 0.05020303 0.043011278 -0.023008924 -0.08471629 0.09475511
-0.17258194 -0.1265584 -0.08646995 0.038793318 -0.018338675 -0.07159326 -0.11865117 -0.14830768
-0.049343996 -0.15027082 -0.11736416 0.12753522 0.089060575 0.016620647 -0.14381322 0.09693811
0.08627245 -0.08121379 -0.02439329 -0.1348118 0.03741071 -0.018254278 0.05099523 0.12117603
0.0663744 -0.09836678 0.039955873 -0.02036747 0.07609139 -0.018346412 0.09600327 -0.00045417433
-0.07470063 0.105914086 -0.07477194 -0.07747408 0.071510255 -0.11713187 -0.057274904 0.016591296
0.10534676 0.09294169 -0.08266172 -0.07812401 -0.032108452 0.020098517 0.052933868 0.030986603
-0.088929676 -0.08640452 0.091399394 -0.024039937 0.03379355 0.023653444 0.045097124 -0.07261405
-0.120998226 -0.082060866 0.077132426 0.05271335 -0.12255387 -0.13425937 0.025652012 0.0023612897
-0.09234051 -0.104246356 0.0140114175 -0.07854992 -0.06969751 0.037970245 -0.05169006 0.042895295
0.09756331 -0.031306423 0.005453754 -0.065710895 0.09265191 -0.12444863 0.10998704 0.008991914
0.022669246 0.11317264 0.06565797 0.06345271 -0.11328108 0.03213841 -0.11422922 0.022351967
-0.087433726 -0.06195308 -0.08042297 -0.1306922 -0.14475901 -0.005228301 0.05331911 0.09445343
-0.052327022 0.10319877 -0.060484484 -0.1010719 0.13915129 0.08930041 -0.105570376 -0.005551323
-0.11179667 -0.0487971 0.0084789675 -0.015044291 0.081368275 0.0134848105 0.021499865 0.09254857
0.088435374 -0.013457431 0.05678333 0.04075546 0.073966324 -0.053081326 -0.0034832226 -0.039113674
-0.049016647 -0.10859561 -0.10499829 -0.11327917 0.062627636 -0.01705738 -0.02275266 -0.05718741
0.123534575 -0.11382846 0.024986275 -0.054825082 -0.032979693 -0.015740084 0.072071016 -0.022038732
0.028108684 0.068081945 -0.06907354 0.18008965 -0.116796106 -0.08284199 -0.03793487 0.0903856
0.07291734 0.05534036 0.12937441 -0.09186558 0.10726504 -0.06629063 -0.013950536 -0.050695468
-0.052188087 -0.044034816 0.12322383 0.051351774 0.06924817 -0.14986578 -0.06896502 -0.052779242
-0.078428596 0.069980785 0.06015133 0.14625415 -0.007147415 -0.040852245 0.08425059 0.06337566
-0.11756445 0.032126024 0.00028674293 -0.092657045 -0.15385866 -0.0075514545 -0.19980517 -0.1276646
-0.032746144 0.09477614 0.13976064 0.036201023 -0.037686672 -0.09580699 0.03431378 0.13097055

encoder.encoder_net.2.weight f4 [100, 500]
00000000: 0867 8ebc cd39 c03c c5bc 4dbb b594 56bc
00000010: e4e8 73bc 2423 093c 6c1a 7ebc 11c9 e13c
00000020: c534 7fbc 3503 34bc 76a5 e93b 54b4 54bb
00000030: 1416 1f3b 703f 0c3b 81bd d43c 57eb a03c
00000040: 79d1 50bc 3944 b1bc f9cd 403c f66e 93bc
00000050: 57a5 c73c 1786 70bc 8bb1 41bb c065 09bb
00000060: 5574 ce3a 2238 a0ba f70e febb 7b7a 16bc
00000070: b622 993b e3a4 90bc c224 6cbc 55a2 e63b
00000080: b154 4c3b 00c5 083c 3d70 233c 23b2 943c
00000090: 5ea4 16bc c2e8 2038 3cfd 2fbc 5c4e 61bc
000000a0: f6ca 85bb 7064 babb 5d39 bfbb 3dee 54bc
000000b0: ce3d a33c e130 bfbb 2061 03bc 2c9b de3a
000000c0: e7f6 99bc 6d13 a23c ee70 833c d9f6 f33b
000000d0: 8e08 3d3c a177 82bc b6bb 963b 98b3 a23c
000000e0: e307 bbbb e595 913c 14ad f53b d3a6 103c
000000f0: 4b2f 19bc f410 0e3b 9c91 013b 77e9 e8bb
00000100: f60d 22bc 45b1 153d 6908 0dbc 8ee8 6cba
00000110: a564 91bb 76b0 493c 0805 2cbb 9e4b 1fbc
00000120: 9736 5dbc 3e71 353c b136 d839 1a9b 6cbb
00000130: 2cad 1bbc 4677 f3bc 5161 97ba bcb4 3c3c
00000140: 5c4f babb 0ad6 c53c 2e13 013d 8bc7 42bc
00000150: e862 e4bb 71f0 23bc f78d 25bc d340 af3c
00000160: d452 273c 3278 17bc 183c 573c fad7 81bc
00000170: 8538 febb 6e6c 3b3b 4fc4 b9bb 510b cdbb
00000180: cf0d cfbc 8d04 193c bcdc 523c 76d6 3ebc
00000190: 39eb 59bc 7d19 0a3c a75c 96bc 20d5 0c3c
000001a0: bf55 66bc 473b a8bb 6bb7 853c 5fa8 b1bc
000001b0: 6c6a fd3b 0c67 7e39 d26f 813a 2f7d 9abc
000001c0: 3004 793c fba0 e5bc 7c44 963b 7cbd 2ebc
000001d0: f6a4 6eba 788e 21bc 94b4 9d3c 18ab 343c
000001e0: 884f 123c 4f37 bd3b c357 2abc bdc3 4e3d
000001f0: 64f4 09bd fda2 b7bc 22eb 32bc 17b1 063c
00000200: fd43 4fbb c59a 94ba 4f16 b33a 81f7 7ab9
00000210: 8e03 cb3b afcb 88bc 3636 d03c 0ebb 6b3c
00000220: 772d c43b 6548 a0ba fbad 6cbc 12ed 623c
00000230: 49b7 353c 34dd 39bc 90cd 3c3c b67f 243b
00000240: cfd8 c5ba a9a7 83bc d90e d43c eeba e7bb
00000250: a256 97bc 3146 6b3a 459c 513a 1a39 52bc
00000260: 3ebd 8cbb 1c50 bcbb cad6 05bc 648d fd3b
00000270: de14 4f3c c910 91bc b41f 373b be0c d1bb
00000280: d449 f53a 4393 2bbc 6c88 873c 1ade d33b
00000290: fb92 1cbc 0f33 f2ba 743d 373c 4d2b 41bc
000002a0: 1350 2639 97bc 0a3c 50ba 9e3b afb7 5dbc
000002b0: 387b 733c e0c6 eebb ddfd 81bc 05b0 6abc
000002c0: fa51 dc3c f922 2abc e7e2 c63c 198b 6d3c
000002d0: 5e51 da3c c752 24bc 1f91 52bc c1b7 323b
000002e0: c46c 68bc 1e94 22bc aaa1 d23c 39dd b2bb
000002f0: 6417 d5bb 3e56 2e3c 7221 01bd fcb4 c53c
00000300: 0ec4 78bc da3f 023c 8555 793c d527 c93c
00000310: 3d6c 8e3c 2301 0dbc 80ed 313c 942e 823c
00000320: 7a50 c53c db97 e23c a7ac 3e3c c638 823c
00000330: 7314 b63c 55f0 99bc 4b36 0bbc e762 c83c
00000340: 4467 a0bb b567 2bbb c60b 773c 653e 2b3c
00000350: 6c86 823c eae1 afb9 32bf 443c fcae 59bb
00000360: 2fbe 203c 5c34 ff3b e82a 9bbb a5e2 10bc
00000370: 0429 13bc 7672 86bb 36a4 19bb b807 9abb
00000380: 2927 dfbb 7e74 643a df2c e9bb cdfd 5b3c
00000390: 7fb2 683c 0fd8 5d3c d752 03bd 23ff e53b
000003a0: 7251 253b 1d45 b13c 0372 b33c f5f5 2a3c
000003b0: c434 603c f87a 983c 76d7 52bc 2463 4c3c
000003c0: 2f75 363c 23d7 d6ba 3d45 ba3c b1a2 8f3c
000003d0: 9f70 0e3c 5a1f 7abc 8b8e 2b3d c5bb f4bb
000003e0: a82c 6a3c cee9 de3c 7d5a 91bc 9e4f b13c
000003f0: 1535 2d3a 06bc b6bc 2d27 39bc 7986 053c
-0.017383114 0.023465062 -0.0031393033 -0.013096978 -0.014887068 0.008370195 -0.015509229 0.027561696
-0.015576546 -0.010987093 0.00713032 -0.0032456117 0.0024274634 0.0021400116 0.025969269 0.019643469
-0.012745255 -0.021638976 0.011767858 -0.017997246 0.024370832 -0.014680407 -0.0029555287 -0.0020965189
0.0015751222 -0.001222376 -0.007753249 -0.009184475 0.0046733273 -0.01765675 -0.014413061 0.0070383945
0.003117841 0.00834775 0.00997549 0.018151348 -0.009194462 3.8363745e-05 -0.010741528 -0.0137515925
-0.0040830327 -0.0056882426 -0.0058356957 -0.012996254 0.019926932 -0.0058346842 -0.008018762 0.0016983501
-0.01879449 0.019784654 0.01604506 0.007445198 0.011537684 -0.015926184 0.0046000136 0.019861028
-0.0057077273 0.01777167 0.007497439 0.0088288365 -0.009349654 0.0021677585 0.0019770628 -0.0071079093
-0.009891024 0.03654601 -0.008607962 -0.0009037339 -0.0044370466 0.012310138 -0.0026248116 -0.009722618
-0.013501785 0.011074362 0.0004123948 -0.003610319 -0.009501737 -0.02971996 -0.0011549388 0.0115177
-0.00568573 0.024149913 0.03151243 -0.011888395 -0.0069697984 -0.010006056 -0.010104648 0.021393215
0.010212619 -0.009244965 0.013136886 -0.015850056 -0.0077582025 0.0028598565 -0.0056691538 -0.0062574525
-0.02527514 0.009339464 0.01287001 -0.011647811 -0.01330071 0.008428928 -0.018354727 0.008595735
-0.014058529 -0.0051340195 0.016322812 -0.02168673 0.0077336337 0.00024261716 0.0009875244 -0.01885852
0.015198752 -0.028030863 0.0045858007 -0.010665294 -0.00091035606 -0.009860627 0.019251145 0.01102712
0.008930095 0.0057744156 -0.010396901 0.05047964 -0.033680335 -0.022416586 -0.010920318 0.008220932
-0.0031626218 -0.0011337629 0.0013663265 -0.0002393406 0.006195492 -0.016698686 0.025416475 0.014387859
0.005986865 -0.0012228607 -0.014445777 0.013850467 0.011091062 -0.011344243 0.011523619 0.0025100536
-0.0015094521 -0.016071158 0.025885986 -0.0070718443 -0.018473927 0.0008974998 0.0007996003 -0.012830997
-0.0042950204 -0.0057468545 -0.0081688855 0.0077378023 0.0126392525 -0.0177082 0.002794248 -0.006379693
0.0018714019 -0.010472122 0.016544543 0.0064656856 -0.009556527 -0.0018478351 0.011184085 -0.011790109
0.00015860824 0.008467815 0.0048439875 -0.013532563 0.014860921 -0.0072868913 -0.015868122 -0.014324193
0.026894558 -0.010384315 0.024278117 0.0144984955 0.026650127 -0.010029501 -0.012851982 0.002727017
-0.014186088 -0.009923009 0.025711853 -0.0054585007 -0.0065030325 0.010640679 -0.031526037 0.024134152
-0.015183462 0.007949794 0.015218143 0.024555126 0.017385596 -0.008606228 0.010859847 0.01589135
0.024086226 0.027660301 0.011637843 0.015896212 0.022226548 -0.018791357 -0.008496831 0.024461223
-0.0048951227 -0.0026154344 0.015078491 0.010451888 0.015933238 -0.0003354692 0.012008475 -0.003321587
0.009810968 0.007788224 -0.0047353394 -0.008843099 -0.008981947 -0.0041030003 -0.0023443825 -0.004700627
-0.006810088 0.00087148685 -0.0071159448 0.01342721 0.014202713 0.013540282 -0.032061424 0.00701894
0.0025225547 0.021639401 0.021904951 0.010434617 0.013684455 0.018613324 -0.012868753 0.012474809
0.011136337 -0.001639102 0.022738094 0.017533632 0.008693843 -0.015266264 0.041883986 -0.007468673
0.014292873 0.027211096 -0.017743343 0.02164441 0.0006607336 -0.022306453 -0.011300844 0.008149737

encoder.encoder_net.2.bias f4 [100]
00000000: df31 29bd 57cd 723b 7f62 94bc bac4 1abd
00000010: a6b3 14bc ec06 58bb 402b babc c1ad b0bc
00000020: 8884 353e 856b 253c 4a9b 5abd 904a 993d
00000030: 0b52 b43c ff7b 5bbd 1da9 4bbd 3b83 3a3c
00000040: a844 f53b 6afa 9ebd eecc 79bd bdb1 93bb
00000050: ccaf 83bc 10d4 b5bb 9c83 7cbc 9fa3 05bc
00000060: 544a 88bc 57fc aabc 55c8 763d 4caa 5e3c
00000070: a1c8 0cbd 7870 cdba 8b3f f5bc abf0 10bd
00000080: 402d 513b 848b 2abd dc4f 1abd 83bf f83b
00000090: 123b b7bd 9dfa a1bb c860 0fbd c983 213d
000000a0: 6c76 6dbc de4f 7a3a c5fc ccbc f334 6fb7
000000b0: dcc6 b4bd 8c1f bab9 e6c2 a33b 7701 a3bc
000000c0: a31d a63b 604b 603d 6f42 58bb 2d0e 4abc
000000d0: 1d6d cdbb ea4b afbb 0c75 893c 5c1d 203d
000000e0: ffd7 e1bc 2db5 85bc b5df 14bd 31d1 aa3c
000000f0: 7b8b 86bc 5f92 ebbc daa0 403c 6822 303c
00000100: 0070 04bd 9298 75bc b38b f1bc c58f d73b
00000110: 9fc6 eabc e1ea 90bd f15e 843c f9fe 36bd
00000120: 9f5f b4bf e5eb 7cbb 604e f5bc b561 c03b
00000130: 4717 e5bd 2724 24bd 55c1 16bd 32cd 13bd
00000140: 6adc 03bd f818 a1bc 3df2 27bb 3f48 45bc
00000150: 8b96 1bba c502 12bd c640 0fbb d29a d2bc
00000160: 3f59 21bd 9829 89bb 4297 c8bc f44c 2fbd
00000170: 1ae9 b03e ea13 e93b 4680 ebbb 5faf f0bc
00000180: c15b bf3c 6f0e 86bc aaca 0f3d c40e edbd
-0.041307326 0.0037048662 -0.018113373 -0.03778527 -0.009076035 -0.003296311 -0.022725701 -0.021567227
0.17726338 0.010096435 -0.05337075 0.07484925 0.022011777 -0.05358505 -0.049721826 0.011383827
0.007484991 -0.077626064 -0.06098645 -0.004507272 -0.016075037 -0.0055489615 -0.0154122375 -0.008156686
-0.016637005 -0.020872278 0.060249645 0.013590407 -0.034371022 -0.0015673777 -0.029937526 -0.03538577
0.003191784 -0.04163696 -0.037673816 0.0075911894 -0.08946814 -0.0049432055 -0.035004407 0.03943232
-0.014493566 0.00095486443 -0.025022874 -1.4257838e-05 -0.08826992 -0.0003550019 0.004997599 -0.01989816
0.005069451 0.054759383 -0.0032998582 -0.012332481 -0.006269111 -0.005349626 0.016779445 0.0390905
-0.027568815 -0.016321743 -0.036346156 0.020851703 -0.016423931 -0.028756319 0.0117571 0.010750391
-0.032333374 -0.014989989 -0.02948556 0.006578418 -0.028659163 -0.070760496 0.016158553 -0.044676755
-1.4091681 -0.0038592753 -0.029944599 0.0058710226 -0.111860804 -0.04007354 -0.03680547 -0.03608436
-0.032192625 -0.019665226 -0.0025626563 -0.012041151 -0.00059352134 -0.035647172 -0.0021858676 -0.02570859
-0.039391752 -0.0041858666 -0.024486188 -0.042797998 0.34552842 0.0071129696 -0.0071869222 -0.029380498
0.023359181 -0.016364304 0.035105385 -0.11575082

encoder.mu_net.weight f4 [6, 100]
00000000: 6fc6 88bb 0371 24bc fb2e 63bb ce93 fe3b
00000010: 4108 113c 4511 a33c f6ff c83a ffd7 633b
00000020: f4e7 733d 12aa 5c3c 7ee8 6eba 0cc2 b13b
00000030: 860b 513c 7c83 5cba 626f e63b 8a15 e4bb
00000040: 196e 14bc 5bdc 35bb 48e3 0e3b 3326 87bb
00000050: f0ed 0d3b 8456 e73b ed44 903c 4c3c 15bc
00000060: 7ac1 763b fbcb e13b aa13 5c3c 6824 ed3a
00000070: d352 01ba 0b94 38bc a3cb d3ba 60c3 a23a
00000080: b12b 863c af0e 0abc cbb1 5dbb 6dcd 6c3c
00000090: 971f 89bd 01fd f7bb 2a2d 3ebc 298e 6c3c
000000a0: d69b bf3b 4ad2 253c a469 7abc 9c06 5a3b
000000b0: 5dee 423a 0de7 693b 5ce8 96ba d9ba 9d38
000000c0: 809b 083b 40b4 33bc 7025 273c 6c8d 013c
000000d0: 4c24 863c 292b b0bb 0aef bb3b 2293 123c
000000e0: 17ef 59bc 3e65 f73b a14b 133a c7ab 373c
000000f0: 8dee 2b3c 0894 b3ba 2d70 573b 45c4 09ba
00000100: c367 babb 80de d5bb a7b8 9b3a 45ed 03bb
00000110: f4c6 593c 07d4 b0bb 588c 5a3c 0e07 613b
00000120: 84d2 a7bc f99f fcbb 55a6 eeba c24a 0f3c
00000130: 2469 d13b 0c6a 763c dc7b 36bb e612 eeba
00000140: f190 d0bb ca8f 363a fb00 05bc 38db 3bb9
00000150: 5ed9 1c3c a6ff 0bbc 6784 7c3a 4544 4eba
00000160: 0088 92bb 6ce8 d03b b327 583a 7778 12bc
00000170: 98f1 46bc b66f 103c 6a21 6c3b af2e cbbb
00000180: 6b55 1dba 4a61 f0bc c143 ca3c 8033 1bbb
00000190: 1cb6 47bb 340a 66bc 58d9 90ba 8cdc c23b
000001a0: d70d c43b 5a0f 263c 8204 d1bb 0686 023c
000001b0: 0557 853d 430a 563b d354 cfbb 0900 5b3c
000001c0: 0a8e bebb a419 0d3c 949e 70bc c167 2bbd
000001d0: a69d aabc 5875 13bb 310a 0bbb 25ab 08bc
000001e0: ecfd 953b d166 f23c c579 da3b 7823 823b
000001f0: 9a6b 093c 38ed 4d3c e043 b63b ab30 703c
00000200: a385 4a3c e054 623b f701 a63b bfad 543c
00000210: 6454 633b f4da dbba fa1b 9b3b 2f86 3c3c
00000220: f172 00bd 63ec 8fbb c54b b73b 3b53 a3bb
00000230: 5cc8 3d39 88c1 bdbb 3772 903b 7f60 9b3b
00000240: 1222 e53b 8e35 3a3c 05f0 1b3b 7711 5c3c
00000250: 6321 2abc d57f 573a d195 8c3b 45c2 0cba
00000260: 6b94 0dbb bd75 1fbb 3fa3 4b3c 26b2 faba
00000270: 68c6 9fbc 4d16 2f3b fa01 c43c 42e2 283c
00000280: 70ea f03b c455 853c 5de0 033c 64b5 ac3c
00000290: 0457 f23b 244a 15bc 182f ba3b 749c 74bc
000002a0: c0d6 70ba 2ce0 3fbc 9cae 3bbb 4336 fabb
000002b0: 8512 de3b cb84 93ba 67be d0bb 0f42 f93c
000002c0: 8cd9 57bc dd6b c13b 34c3 133c b8f1 2e3c
000002d0: a837 af3a e18a bd3b 6808 043d c4a9 27bc
000002e0: 6179 4dbc 6155 d7b9 f831 e0bc 0379 7cbb
000002f0: 39fb f03b 0eea 3a3c bd06 7bbc 8afc 8f3c
00000300: a404 8ebc ecab f5bb 9ab0 f739 6624 7aba
00000310: 0907 5dbc 9548 6bbd 8523 b93b 15a6 463b
00000320: 8eab e5bb fcc9 be3b 3694 16bb 1985 7b3c
00000330: 0488 003b 3061 113a cc62 d53b 5420 8c3a
00000340: 4031 8dbc 01ea 823b 2f35 a63b c7e2 3cb9
00000350: ebc3 a6ba ddad c1bb 1e73 053c 440c 013d
00000360: 1f06 e33b cdfd 2b3c aa33 643b 7d8f edbb
00000370: cc5f 65bc 9377 0fbc e5ac 3c39 263f 81b9
00000380: 94da 30bc 94c4 25bc 2296 3e3a a34c a2bc
00000390: dbe9 213a 51ab cdbb ae75 fb3a 4f94 6abc
000003a0: 78e8 8f3a 1dde c3bb d197 893b 2bc8 0b3a
000003b0: 62e4 713c 81bd 943b a3e4 d33a 249e 77b9
000003c0: 5b39 00bc 1f84 69ba a62f 76bc 5ab7 0dbc
000003d0: 7c0a 0fbc da10 2dbc fd26 84bb 0d52 e7bb
000003e0: 1a9e 023c f169 86bb c1fd ae3b c93f 6eba
000003f0: 18e3 033c 7085 1abc 241c 8b3a b683 4c3b
-0.0041740458 -0.01003671 -0.0034665454 0.0077690845 0.008852066 0.019905696 0.0015335071 0.0034766195
0.05954738 0.013468282 -0.00091136235 0.0054247435 0.012759095 -0.00084119267 0.007032321 -0.0069605755
-0.009059452 -0.002774975 0.002180295 -0.0041244267 0.0021656714 0.007059874 0.017610991 -0.009108614
0.0037651942 0.0068907714 0.013432423 0.0018092515 -0.0004933301 -0.011265765 -0.0016158711 0.0012417845
0.016378256 -0.008426352 -0.0033827897 0.014453274 -0.066954784 -0.007568002 -0.011607448 0.0144381905
0.0058474345 0.010120938 -0.015283976 0.00332681 0.00074360316 0.0035690696 -0.001151334 7.5211465e-05
0.0020844638 -0.010968268 0.010201797 0.007907253 0.01637473 -0.005376239 0.005735283 0.008946212
-0.013301632 0.007549911 0.00056188746 0.0112103885 0.010493887 -0.0013700733 0.0032873258 -0.00052553817
-0.005688639 -0.006526768 0.0011880592 -0.0020130437 0.013292063 -0.0053963694 0.013339125 0.003433648
-0.020486124 -0.0077095 -0.001820753 0.008745851 0.0063907076 0.015039932 -0.0027844822 -0.0018163591
-0.0063649346 0.0006964175 -0.00811791 -0.00017915375 0.009573309 -0.008544838 0.00096327666 -0.00078684493
-0.004471779 0.006375363 0.0008245662 -0.008939854 -0.012142561 0.008815696 0.0036030659 -0.0062006335
-0.0006001803 -0.029343266 0.02469051 -0.002368182 -0.0030473536 -0.014040519 -0.0011051102 0.0059467014
0.005983095 0.010135496 -0.006378711 0.007966524 0.06510738 0.0032659925 -0.0063272505 0.013366708
-0.005815272 0.00861207 -0.0146862455 -0.041846994 -0.020827126 -0.0022500362 -0.0021215791 -0.008341585
0.004577389 0.029590042 0.006667348 0.0039715134 0.008387471 0.012568764 0.0055622905 0.014660041
0.012360963 0.0034535453 0.005066152 0.012980877 0.0034687752 -0.0016773627 0.0047335597 0.011506601
-0.031359617 -0.004392193 0.005593749 -0.004984287 0.00018099084 -0.005790893 0.0044081467 0.004741728
0.006992587 0.0113653075 0.0023794186 0.013431898 -0.010383937 0.00082206476 0.0042903204 -0.00053695246
-0.0021603357 -0.0024331652 0.012429058 -0.0019126579 -0.019503787 0.0026716173 0.023926724 0.01030785
0.007352166 0.016276248 0.008049098 0.021082588 0.007395627 -0.009111915 0.0056818835 -0.014929879
-0.00091872737 -0.011711162 -0.002863801 -0.007635863 0.00677711 -0.0011254785 -0.006370354 0.030427007
-0.013174426 0.005902751 0.009018708 0.010677747 0.0013368027 0.005784378 0.03223458 -0.010233346
-0.012541146 -0.00041071608 -0.027367577 -0.0038524277 0.007354167 0.011408342 -0.015321431 0.017576475
-0.017336197 -0.0074973013 0.0004724309 -0.0009542167 -0.013490447 -0.057442266 0.005649986 0.0030311395
-0.0070089763 0.0058224183 -0.0022976524 0.015351557 0.0019612322 0.0005545793 0.0065120216 0.0010690787
-0.017235398 0.0039951806 0.005072258 -0.00018013558 -0.0012723183 -0.0059106187 0.008145122 0.031505838
0.00692822 0.010497523 0.0034820833 -0.007249771 -0.013999891 -0.008756536 0.00017993485 -0.00024651847
-0.010794301 -0.010117669 0.00072702963 -0.019811934 0.000617651 -0.006276526 0.0019184852 -0.014317586
0.0010979315 -0.0059774057 0.004199006 0.00053322566 0.014763923 0.004539192 0.0016166162 -0.00023614668
-0.007826175 -0.0008907932 -0.015026009 -0.008649671 -0.008730527 -0.0105631 -0.004032968 -0.0070593418
0.007972265 -0.0041019847 0.0053403084 -0.0009088484 0.008049749 -0.009431228 0.0010613245 0.0031206436

encoder.mu_net.bias f4 [6]
00000000: 6682 09bd 05fa b63c 64eb 433c bfd2 963d
00000010: 2185 293c 60f0 fbbc
-0.033571623 0.022336015 0.011957977 0.073644154 0.010346682 -0.030754268

encoder.log_var_net.weight f4 [6, 100]
00000000: 6ef7 533c ce8d 1bbd 5c90 7c3c 3ae1 2abd
00000010: 50bf 6cbc 6aba 103d c2ad 09b9 15a6 143d
00000020: 3e4c ccbe 8c52 1b3d ed16 80bc efe7 333b
00000030: 1316 7bbc 62be 47bb 8ad8 f0bb e632 16bd
00000040: 78b6 b6ba 7a7e da3d 65e1 e33b 6c61 143d
00000050: 7acf 9a3c 9c18 f23c 4649 5bbc abed 4b3b
00000060: dfda a1bc 0dfb 35bd 3378 50bc a3b9 873b
00000070: 8e24 153d 98a6 8e3b e7e7 6fbc 83d1 103c
00000080: b37b 07bd 2857 11bd a88e 813d 712d b6bc
00000090: 42f4 433a ae3c d03c bde0 14bb e9d4 95bc
000000a0: de99 2d3d 42c7 efbc 4ffe 103d c6c3 6d3b
000000b0: 9ace 9aba 4fff 16bd 61f8 5cbd 25bc db3b
000000c0: 2fe7 b0bb 429f 3ebc 1f51 a63c 9e84 ba3c
000000d0: de5f 1b3d fb76 5abd 627c 743c 3052 08bd
000000e0: bd47 54be 1161 efbc 22b5 fa3c c595 843c
000000f0: 132d babc dca0 da3b a4d2 35bd b2a1 7d3d
00000100: ed61 c53c 5686 c13c d16c 1d3d 0325 04bb
00000110: a5bf 893c 91fd a83d c7ad 13bd 3404 08bc
00000120: 22d2 863f f484 4eba c5e7 d53c 7b3f 9d3c
00000130: 8996 e53c 75eb 88bb 8ef8 62bb d13b d53b
00000140: e2af dfba 6131 43bc 25c6 73bd 03ce 2abd
00000150: 38ef 85bc 5f4b 473d 803e 853b e7a0 563b
00000160: c3de e0bb 4d2d cb3b b105 06bc d2e4 7f3d
00000170: aaf2 8a3d d301 69bc b9d6 24bd da91 e5bb
00000180: fce6 903c 78bd 20bd 32ee 42bc 4f15 683d
00000190: c76f 6bbb fba0 babc 7bae 32ba 6df6 e2bc
000001a0: da6f ab3b dfe3 f13c 1748 5f3c 06bc dd3c
000001b0: a5bb ebbe 155a 2c3d 695a 673c 1adb 69bc
000001c0: cb3a 22bc 53c0 0b3d fccf 663c ebb0 b5bc
000001d0: c5ed 383c 08eb c53d 53cb c23c aa2e 3d3d
000001e0: 9518 e2bb a621 283d de14 abbb c949 37bb
000001f0: bbb5 7bbc e00d 67bd 779f 943c 27c8 19bd
00000200: 866d 2e3d 17b2 833c f698 49bc ef98 cf3c
00000210: 7933 98bb 287f b6bc 1667 003d 9371 ebbc
00000220: 9464 8ebd eedf e53c 90e9 653c a53f c23c
00000230: f46c 0d3d 3e75 cbba 0170 9dba 1d99 16bd
00000240: 7036 943c 34d3 1abd 470c 41bd a5d4 e63c
00000250: c55b 763c cf30 293c 2c1f e33c 5246 c23c
00000260: ec2b ff3c 0307 6abd 5704 9d3d 7cef 28bc
00000270: 65d4 7bbe 965d 83bc 91e7 a23c 9e89 5c3c
00000280: 9a8e bfbc fd99 22bc 0ebc a7bc 2423 063c
00000290: 55a5 0bbd a9ec ed3c dae8 453c 9aea f5bc
000002a0: d383 9b3c f454 da3d a073 03ba d705 1f3c
000002b0: b38c 953f 8693 853c 9dd2 753c 2945 cebc
000002c0: 42b9 303d 1a87 013d bb85 123c c3d3 f3ba
000002d0: 5872 eabb 7d76 95b9 fbf9 91bd c8e6 e0bc
000002e0: 0ee0 53bc f83a 853d e071 4fbb eb4d ffbc
000002f0: f5e2 d53b 790e 093b 6ead ea3c 4d55 833d
00000300: bf9d 9e3d 412e cd3b 7b70 96bc a1b0 15bc
00000310: 6e3e d83c 592e 93bb 2137 54bc c63a e13c
00000320: 2677 c6bb 09bd 76ba 5259 4a3c f12c 5a3c
00000330: 8e49 c5b9 63f5 fc3c 48f3 913c e2b4 9a3c
00000340: 738f c2be acd7 893c 6859 083d 9438 18bc
00000350: cea2 1b3b 3893 9a39 c1c7 a839 2ee7 d8bb
00000360: d667 623c 4ea1 c63d f822 6b3c bc63 ab3b
00000370: a589 263c d545 423c d11d 89bc 48d7 36bd
00000380: 3438 b3bb 709d a8bd c37b 053d b2f6 3dbd
00000390: 45db 1e3d 114a 1f3b e3e9 c0bb 1437 8d3c
000003a0: 9248 d03c 2cf8 13bd bd39 593c a54b ebbb
000003b0: e05f 193d a093 a23c 1cbb ecbb 9b2e f0ba
000003c0: 546d dd3b 76f3 96bc 9e0d 6d3a a81e 703b
000003d0: 6ce5 8e3c a134 88bc aa1d e3bc 0885 aebb
000003e0: 8233 cbbb 7da5 89bc ced7 bdbb b2c4 9b3a
000003f0: a06b c73c 6a81 47bd cbeb 263d 2e23 b5bb
0.01293741 -0.037977032 0.015415277 -0.0417187 -0.014449909 0.03533403 -0.00013130068 0.0362912
-0.39901918 0.03792052 -0.015635932 0.0027451476 -0.015325087 -0.0030478467 -0.007350032 -0.036669634
-0.0013939878 0.10668655 0.0069543594 0.03622572 0.01889776 0.02955275 -0.013384169 0.0031117003
-0.019757686 -0.044428874 -0.01272397 0.0041420027 0.036411814 0.0043533556 -0.014642692 0.008839014
-0.033076953 -0.03548351 0.06326038 -0.022238465 0.0007475057 0.02541956 -0.0022716962 -0.01829
0.042383067 -0.029269818 0.035398778 0.003628002 -0.001181084 -0.036864575 -0.05394781 0.006705778
-0.005398653 -0.01163465 0.020302353 0.022768315 0.037933223 -0.053336125 0.014922233 -0.033281505
-0.20730491 -0.02922109 0.030603949 0.016184697 -0.022726571 0.006672008 -0.044390336 0.061921783
0.024094546 0.023623627 0.038433854 -0.0020163662 0.016815016 0.08251489 -0.0360544 -0.008301783
1.0532877 -0.0007878088 0.026111493 0.019195309 0.028025882 -0.0041784593 -0.0034633013 0.006507375
-0.0017065967 -0.011913628 -0.059515137 -0.041700374 -0.01634942 0.048655864 0.0040662885 0.0032749714
-0.0068624928 0.0062004686 -0.008180068 0.06247408 0.06784566 -0.014221626 -0.040243838 -0.0070059123
0.017688267 -0.03924319 -0.0118976105 0.056660946 -0.0035924779 -0.02278184 -0.0006816161 -0.027705396
0.0052318396 0.029527603 0.013628027 0.027067196 -0.460416 0.042078096 0.014120677 -0.014273429
-0.009901713 0.03411896 0.014087673 -0.022179088 0.011287157 0.09663969 0.023778593 0.04618708
-0.006899903 0.041047715 -0.0052209934 -0.0027967563 -0.015363152 -0.056409717 0.018142445 -0.037544396
0.04258492 0.01607613 -0.012304535 0.02534148 -0.004644808 -0.02227743 0.03134831 -0.02874068
-0.069527775 0.02806088 0.014032736 0.023711989 0.034527734 -0.0015522612 -0.0012011529 -0.036767114
0.018092364 -0.037799075 -0.04713085 0.028177569 0.015036528 0.010326578 0.027724825 0.023715172
0.031148873 -0.057135593 0.076668434 -0.010311004 -0.24592741 -0.016035836 0.01988581 0.013460545
-0.023383427 -0.009924409 -0.020475414 0.008187089 -0.03409322 0.029043512 0.012079442 -0.030019093
0.018983757 0.10660735 -0.0005014483 0.009705982 1.1683563 0.016305696 0.015003827 -0.025179463
0.043145426 0.031622984 0.008943017 -0.0018602539 -0.007154744 -0.00028507775 -0.07127758 -0.027453795
-0.012931837 0.06505388 -0.0031653568 -0.031165084 0.0065272995 0.0020913167 0.02864715 0.06412754
0.077449314 0.0062616174 -0.018364182 -0.00913635 0.026396956 -0.004491609 -0.012952597 0.027493846
-0.006056684 -0.00094123237 0.012350397 0.013316379 -0.0003762957 0.030878728 0.0178162 0.01888508
-0.38000068 0.016826473 0.03328839 -0.009290833 0.0023748162 0.00029482855 0.00032192285 -0.0066193556
0.013818702 0.09698735 0.014351599 0.005230395 0.010164653 0.01185747 -0.01673785 -0.044638902
-0.0054693464 -0.08233154 0.03258873 -0.046377845 0.03878333 0.0024305622 -0.0058872565 0.017238177
0.02542523 -0.036125347 0.013258395 -0.0071806484 0.03744495 0.019845784 -0.0072244536 -0.0018324436
0.0067574177 -0.018426638 0.00090428616 0.0036639366 0.017443381 -0.016626658 -0.027724106 -0.005325917
-0.0062012086 -0.016802544 -0.005793548 0.0011884181 0.024343312 -0.048707403 0.040752213 -0.0055278754

encoder.log_var_net.bias f4 [6]
00000000: fec0 aebf 2e1f a5bf 5a07 b7bf 2f4c 38c0
00000010: fd9a b3bf f560 b8bf
-1.3652647 -1.290014 -1.4299119 -2.8796499 -1.4031674 -1.4404589

nn_model.net.0.weight f4 [10, 8]
00000000: fe89 1cbf eb51 c83d a258 943a 1c3b 86ba
00000010: 9027 333a 7ef4 5a3f 9344 9e39 fcf3 a5b7
00000020: 232b 52ba 20d9 24c0 b3c2 fcba 16ae d33a
00000030: 40b5 dfb8 5330 f43f d794 6f39 e5b8 b13a
00000040: 7aeb ccbc a034 8fbf 38bd 9339 e4ac 14ba
00000050: 952a b139 2157 b53f 546a bd3a b234 933a
00000060: c047 e13c c887 da3f 17af 6139 360c 4939
00000070: 2e41 e039 45a5 923f 1ed3 d0b9 c0ff cc3a
00000080: fdd5 4abf 7237 aebc b10b 7539 add1 7d39
00000090: 5df9 10ba b89f 163f e480 47ba d3a8 c53a
000000a0: 981a f53b 16d3 25bf bf20 a1ba bd3f 953a
000000b0: db2f 843a c685 793f 68e8 0d3b 6cca cf38
000000c0: 9df4 47bf a133 363b 234e 803a f63b e1b9
000000d0: e5e5 4939 3fe0 ddbe 8c86 cb3a 6087 bb3a
000000e0: 8be5 07be 6e7f aabf 0a8b 043a 2e3a 813a
000000f0: 8a0c f73a 10b0 94be 8a65 1e39 5127 3f39
00000100: 9248 dd3b ee8c babf 47d8 f838 2f3a 20ba
00000110: 7d68 b539 9225 d8bf 6001 4e38 c08f 86b7
00000120: 29b1 903b 0194 36be 7979 01bb 401d f7ba
00000130: cc01 91ba c08e bbbf c74f 8638 2fba e9b9
-0.6114806 0.097812496 0.0011317919 -0.0010241005 0.00068342034 0.85529315 0.000301872 -1.9783147e-05
-0.0008017292 -2.5757523 -0.0019284099 0.0016149904 -0.00010667229 1.9077247 0.00022848263 0.0013559131
-0.025014628 -1.1187935 0.00028179004 -0.00056715147 0.00033791797 1.4167215 0.0014451244 0.0011230914
0.027500033 1.7072687 0.00021522898 0.00019173403 0.00042773172 1.1456686 -0.00039830146 0.0015640184
-0.7923277 -0.021266673 0.00023369376 0.0002420607 -0.0005530322 0.5883746 -0.0007610454 0.0015080221
0.007479977 -0.64775217 -0.0012293084 0.0011386793 0.0010085063 0.9746975 0.0021653417 9.908233e-05
-0.78107625 0.002780177 0.0009788912 -0.0004296002 0.00019254496 -0.4333515 0.0015527769 0.0014307313
-0.13271157 -1.3320138 0.0005056119 0.0009859258 0.0018848341 -0.29040575 0.0001510588 0.00018229826
0.006753036 -1.4574258 0.00011865846 -0.00061121857 0.0003460086 -1.6886466 4.9115508e-05 -1.6040984e-05
0.0044156504 -0.17829897 -0.0019756241 -0.0018853322 -0.0011063158 -1.4652939 6.4044776e-05 -0.0004457994

nn_model.net.0.bias f4 [10]
00000000: a931 8bbe e538 20bf 7df8 d4be 0e5f cfbe
00000010: 6577 56be 2d80 99bd 7ec8 ab3e e257 e03c
00000020: fa70 fd3e a108 7a3d
-0.27186325 -0.62586814 -0.41595832 -0.40502208 -0.20943983 -0.07495151 0.335514 0.027385656
0.49500257 0.061043385

nn_model.net.2.weight f4 [10, 10]
00000000: 793e febe 6971 773f 9b2b 6f3f 90f2 00bf
00000010: b991 36bc 9978 073f fea1 cc3e 931d d2bd
00000020: 0fd3 c0bd dedf eabe 133a 01bf 983b f4be
00000030: 3ef0 94be bede 99be d5f0 5abf 52ca 7dbf
00000040: 4020 873e 2fbe ae3e 8efc 263f 7abe 173f
00000050: 91af ee3e 0410 46bf cf3a 4cbf b49b 3a3f
00000060: 16ed fb3e 29d1 9cbe 2052 40bf 6ffd 44bf
00000070: e6ec 86be 32ac 833e 477f 143e 5e58 68bf
00000080: afa6 81bf 746b 453e 1a1c 0abf 2042 34bf
00000090: 81bc 003f 13ba 02be cf13 67bf 7812 13be
000000a0: 0f6f 5cbd c5cf eabd 7d73 d3be 4eea 5a3f
000000b0: c054 04bf 55be 54be 202b 2f3f a193 b2be
000000c0: 5509 9ebf 5cc8 8fbf 0df3 74be 67a0 1b3f
000000d0: 426a 753f 122c 95be 45b3 c63e f1b2 483f
000000e0: 088e c6be 9bc0 7e3f 6075 8e3f 503f 733f
000000f0: 7be8 4b3f 8ed8 97bf 7498 53bf 21e5 753f
00000100: 5636 6cbe ddb1 32bf 0d43 f1bd 4ff3 87bf
00000110: 9258 16bf 8720 b2bf 8b95 f5be 3cd5 1b3f
00000120: ee1b 2b3f 4ce9 b7bf f9ee 1bbe b283 fe3e
00000130: 81e8 cc3e b3f3 003f 1fdf 413f 54e5 8b3f
00000140: 4cb2 193e 9675 dc3e fba9 e13e 86ac 593f
00000150: 4f82 90bd 6db2 2c3f bc05 96bf 6158 be3d
00000160: 01df 79be d8bc 9cbf bdac c7be 3347 8b3f
00000170: 0928 c23e 8905 5dbf b010 813e 6bc9 983f
00000180: c746 0abe ac66 3a3f 1fdd c73f 4320 663f
-0.49657038 0.96657425 0.9342591 -0.5037012 -0.011143141 0.5291839 0.3996734 -0.10259547
-0.09415256 -0.45873922 -0.5047924 -0.47701716 -0.2908954 -0.3005275 -0.8552373 -0.9913684
0.26391792 0.34129474 0.6522912 0.5927502 0.46618322 -0.7736819 -0.79777235 0.72893834
0.4920432 -0.30628327 -0.7512531 -0.7694921 -0.26352614 0.25717312 0.14501677 -0.9075984
-1.0128993 0.19279271 -0.5394913 -0.704134 0.50287634 -0.12766294 -0.902646 -0.14362514
-0.05381685 -0.1146541 -0.41299048 0.8551377 -0.5169182 -0.20775731 0.6842518 -0.34878257
-1.2346598 -1.123302 -0.23920842 0.6079163 0.9586526 -0.29135185 0.38808647 0.7839804
-0.38780236 0.9951264 1.112957 0.9501848 0.7965161 -1.1862962 -0.826545 0.9605275
-0.23067603 -0.6980265 -0.11780367 -1.0621127 -0.587289 -1.3916177 -0.47965655 0.60872245
0.6683949 -1.4368072 -0.1522788 0.4970985 0.40021136 0.50371855 0.7573108 1.092936
0.15009421 0.4305846 0.44074997 0.85028875 -0.070561044 0.67459756 -1.17205 0.09294201
-0.24401475 -1.224513 -0.38998976 1.0881103 0.3792117 -0.8633657 0.25208044 1.1936468
-0.13503562 0.72812915 1.5614356 0.8989298

nn_model.net.2.bias f4 [10]
00000000: 3eae ee3d d1bb b1bf e15e a03c 676c 853e
00000010: 2fdc bcbd 636b 0cbe 33e4 e7be 924b 113f
00000020: f61f b73f 5cac 92bc
0.11654328 -1.3885442 0.019576492 0.26059267 -0.09221684 -0.1371284 -0.4529129 0.56755936
1.4306629 -0.017904453

nn_model.net.4.weight f4 [1, 10]
00000000: 4006 88bf 24ee 72bf 107d 1d3f 10fa 60bf
00000010: 3d5f 5cbf f6b4 fe3e 0d81 693f 38f6 fcbe
00000020: 06aa 5b3f 2e7f 4c3f
-1.0626907 -0.94894624 0.61518955 -0.87881565 -0.8608282 0.49747437 0.9121254 -0.494066
0.8580631 0.7988156

hnn.differentiable_model.net.0.weight f4 [10, 8]
00000000: fe89 1cbf eb51 c83d a258 943a 1c3b 86ba
00000010: 9027 333a 7ef4 5a3f 9344 9e39 fcf3 a5b7
00000020: 232b 52ba 20d9 24c0 b3c2 fcba 16ae d33a
00000030: 40b5 dfb8 5330 f43f d794 6f39 e5b8 b13a
00000040: 7aeb ccbc a034 8fbf 38bd 9339 e4ac 14ba
00000050: 952a b139 2157 b53f 546a bd3a b234 933a
00000060: c047 e13c c887 da3f 17af 6139 360c 4939
00000070: 2e41 e039 45a5 923f 1ed3 d0b9 c0ff cc3a
00000080: fdd5 4abf 7237 aebc b10b 7539 add1 7d39
00000090: 5df9 10ba b89f 163f e480 47ba d3a8 c53a
000000a0: 981a f53b 16d3 25bf bf20 a1ba bd3f 953a
000000b0: db2f 843a c685 793f 68e8 0d3b 6cca cf38
000000c0: 9df4 47bf a133 363b 234e 803a f63b e1b9
000000d0: e5e5 4939 3fe0 ddbe 8c86 cb3a 6087 bb3a
000000e0: 8be5 07be 6e7f aabf 0a8b 043a 2e3a 813a
000000f0: 8a0c f73a 10b0 94be 8a65 1e39 5127 3f39
00000100: 9248 dd3b ee8c babf 47d8 f838 2f3a 20ba
00000110: 7d68 b539 9225 d8bf 6001 4e38 c08f 86b7
00000120: 29b1 903b 0194 36be 7979 01bb 401d f7ba
00000130: cc01 91ba c08e bbbf c74f 8638 2fba e9b9
-0.6114806 0.097812496 0.0011317919 -0.0010241005 0.00068342034 0.85529315 0.000301872 -1.9783147e-05
-0.0008017292 -2.5757523 -0.0019284099 0.0016149904 -0.00010667229 1.9077247 0.00022848263 0.0013559131
-0.025014628 -1.1187935 0.00028179004 -0.00056715147 0.00033791797 1.4167215 0.0014451244 0.0011230914
0.027500033 1.7072687 0.00021522898 0.00019173403 0.00042773172 1.1456686 -0.00039830146 0.0015640184
-0.7923277 -0.021266673 0.00023369376 0.0002420607 -0.0005530322 0.5883746 -0.0007610454 0.0015080221
0.007479977 -0.64775217 -0.0012293084 0.0011386793 0.0010085063 0.9746975 0.0021653417 9.908233e-05
-0.78107625 0.002780177 0.0009788912 -0.0004296002 0.00019254496 -0.4333515 0.0015527769 0.0014307313
-0.13271157 -1.3320138 0.0005056119 0.0009859258 0.0018848341 -0.29040575 0.0001510588 0.00018229826
0.006753036 -1.4574258 0.00011865846 -0.00061121857 0.0003460086 -1.6886466 4.9115508e-05 -1.6040984e-05
0.0044156504 -0.17829897 -0.0019756241 -0.0018853322 -0.0011063158 -1.4652939 6.4044776e-05 -0.0004457994

hnn.differentiable_model.net.0.bias f4 [10]
00000000: a931 8bbe e538 20bf 7df8 d4be 0e5f cfbe
00000010: 6577 56be 2d80 99bd 7ec8 ab3e e257 e03c
00000020: fa70 fd3e a108 7a3d
-0.27186325 -0.62586814 -0.41595832 -0.40502208 -0.20943983 -0.07495151 0.335514 0.027385656
0.49500257 0.061043385

hnn.differentiable_model.net.2.weight f4 [10, 10]
00000000: 793e febe 6971 773f 9b2b 6f3f 90f2 00bf
00000010: b991 36bc 9978 073f fea1 cc3e 931d d2bd
00000020: 0fd3 c0bd dedf eabe 133a 01bf 983b f4be
00000030: 3ef0 94be bede 99be d5f0 5abf 52ca 7dbf
00000040: 4020 873e 2fbe ae3e 8efc 263f 7abe 173f
00000050: 91af ee3e 0410 46bf cf3a 4cbf b49b 3a3f
00000060: 16ed fb3e 29d1 9cbe 2052 40bf 6ffd 44bf
00000070: e6ec 86be 32ac 833e 477f 143e 5e58 68bf
00000080: afa6 81bf 746b 453e 1a1c 0abf 2042 34bf
00000090: 81bc 003f 13ba 02be cf13 67bf 7812 13be
000000a0: 0f6f 5cbd c5cf eabd 7d73 d3be 4eea 5a3f
000000b0: c054 04bf 55be 54be 202b 2f3f a193 b2be
000000c0: 5509 9ebf 5cc8 8fbf 0df3 74be 67a0 1b3f
000000d0: 426a 753f 122c 95be 45b3 c63e f1b2 483f
000000e0: 088e c6be 9bc0 7e3f 6075 8e3f 503f 733f
000000f0: 7be8 4b3f 8ed8 97bf 7498 53bf 21e5 753f
00000100: 5636 6cbe ddb1 32bf 0d43 f1bd 4ff3 87bf
00000110: 9258 16bf 8720 b2bf 8b95 f5be 3cd5 1b3f
00000120: ee1b 2b3f 4ce9 b7bf f9ee 1bbe b283 fe3e
00000130: 81e8 cc3e b3f3 003f 1fdf 413f 54e5 8b3f
00000140: 4cb2 193e 9675 dc3e fba9 e13e 86ac 593f
00000150: 4f82 90bd 6db2 2c3f bc05 96bf 6158 be3d
00000160: 01df 79be d8bc 9cbf bdac c7be 3347 8b3f
00000170: 0928 c23e 8905 5dbf b010 813e 6bc9 983f
00000180: c746 0abe ac66 3a3f 1fdd c73f 4320 663f
-0.49657038 0.96657425 0.9342591 -0.5037012 -0.011143141 0.5291839 0.3996734 -0.10259547
-0.09415256 -0.45873922 -0.5047924 -0.47701716 -0.2908954 -0.3005275 -0.8552373 -0.9913684
0.26391792 0.34129474 0.6522912 0.5927502 0.46618322 -0.7736819 -0.79777235 0.72893834
0.4920432 -0.30628327 -0.7512531 -0.7694921 -0.26352614 0.25717312 0.14501677 -0.9075984
-1.0128993 0.19279271 -0.5394913 -0.704134 0.50287634 -0.12766294 -0.902646 -0.14362514
-0.05381685 -0.1146541 -0.41299048 0.8551377 -0.5169182 -0.20775731 0.6842518 -0.34878257
-1.2346598 -1.123302 -0.23920842 0.6079163 0.9586526 -0.29135185 0.38808647 0.7839804
-0.38780236 0.9951264 1.112957 0.9501848 0.7965161 -1.1862962 -0.826545 0.9605275
-0.23067603 -0.6980265 -0.11780367 -1.0621127 -0.587289 -1.3916177 -0.47965655 0.60872245
0.6683949 -1.4368072 -0.1522788 0.4970985 0.40021136 0.50371855 0.7573108 1.092936
0.15009421 0.4305846 0.44074997 0.85028875 -0.070561044 0.67459756 -1.17205 0.09294201
-0.24401475 -1.224513 -0.38998976 1.0881103 0.3792117 -0.8633657 0.25208044 1.1936468
-0.13503562 0.72812915 1.5614356 0.8989298

hnn.differentiable_model.net.2.bias f4 [10]
00000000: 3eae ee3d d1bb b1bf e15e a03c 676c 853e
00000010: 2fdc bcbd 636b 0cbe 33e4 e7be 924b 113f
00000020: f61f b73f 5cac 92bc
0.11654328 -1.3885442 0.019576492 0.26059267 -0.09221684 -0.1371284 -0.4529129 0.56755936
1.4306629 -0.017904453

hnn.differentiable_model.net.4.weight f4 [1, 10]
00000000: 4006 88bf 24ee 72bf 107d 1d3f 10fa 60bf
00000010: 3d5f 5cbf f6b4 fe3e 0d81 693f 38f6 fcbe
00000020: 06aa 5b3f 2e7f 4c3f
-1.0626907 -0.94894624 0.61518955 -0.87881565 -0.8608282 0.49747437 0.9121254 -0.494066
0.8580631 0.7988156
