ConSciNet/models/ConSciNet_weights50k_lv1.pt (torch, 309155 bytes, 16 tensors)

encoder.encoder_net.0.weight f4 [500, 50]
0	0x3d16d880	0.036827564
1	0x3e03d6c1	0.12874891
2	0xbd06e1b1	-0.03293008
3	0x3d66c889	0.05634359
4	0xbdda514a	-0.10660036
5	0x3d80a5c0	0.06281614
6	0xbb4403b0	-0.0029909424
7	0xbc0da653	-0.008645612
8	0x3d2cf93c	0.042229876
9	0x3d46c55f	0.04852807
10	0x3d67013f	0.056397673
11	0x3db83cc6	0.089959666
12	0xbe06f9b8	-0.13181198
13	0x3da06596	0.07831876
14	0x3d12ecd9	0.035870407
15	0xbcffe7d0	-0.031238467
16	0x3c3ceb4a	0.011530707
17	0x3d3f585e	0.046715133
18	0x3dadad1a	0.08480282
19	0xbcf6b68c	-0.030116342
20	0x3ce48cb9	0.027899133
21	0x3db00623	0.085949205
22	0x3d884316	0.066534206
23	0x3d112f90	0.03544575
24	0x3cf335d1	0.029688748
25	0xbdcea8bc	-0.10090777
26	0x3d54cd1b	0.051953416
27	0x3d7375a1	0.05943835
28	0x3e2c8553	0.16847734
29	0x3d828bc4	0.063743144
30	0xbda94e41	-0.08266879
31	0x3dd93f1f	0.106077425
32	0xbb8a73ea	-0.004225244
33	0x3dbb6b4d	0.091513254
34	0x3c8a384d	0.01687255
35	0x3d9149a5	0.07094125
36	0x3d86f204	0.065891296
37	0xbce073cf	-0.027398972
38	0x3c6eace4	0.0145675875
39	0x3da9ae89	0.08285243
40	0x3d6f9c3c	0.058498606
41	0xbc777a20	-0.0151048
42	0x3d77d997	0.060510244
43	0x3dcd5c9a	0.10027428
44	0xbd65617a	-0.056001164
45	0x3d6236cd	0.055228043
46	0x3d1978bb	0.037468653
47	0xbe0a7b2e	-0.13523552
48	0x3d6e2e46	0.0581496
49	0x3dd609f4	0.10451117
50	0xbdc602b4	-0.09668484
51	0x3cdf5235	0.027260879
52	0xbb317c62	-0.0027082195
53	0x3d848359	0.06470365
54	0xbc0b73e2	-0.008511515
55	0xbd55c06e	-0.05218547
56	0x3d0d8773	0.034553003
57	0x3cf1063f	0.029421924
58	0xbd4d232b	-0.050082367
59	0xbd8af85b	-0.06785651
60	0xbde2ae5c	-0.11068413
61	0x3dd192db	0.102330886
62	0x3ddc9345	0.10770277
63	0x3c0e152c	0.00867204
64	0x3a8df165	0.0010829387
65	0x3d76489c	0.06012784
66	0xbde83818	-0.11338824
67	0xbc929824	-0.017894812
68	0xbcd257aa	-0.025676567
69	0x3cc27af9	0.023740279
70	0x3e159bfa	0.14610282
71	0x3db51564	0.088419706
72	0xbd9ee5ca	-0.077586725
73	0x3d66e6aa	0.056372322
74	0xbd8ea227	-0.06964522
75	0x3ca3e784	0.020007856
76	0xbdd0e69a	-0.10200234
77	0x3c7d999f	0.015478521
78	0x3db65d5d	0.089045264
79	0x3dbef1af	0.09323441
80	0x3d6d9f50	0.05801326
81	0xbd9fbdd1	-0.077998765
82	0xbdaaebb6	-0.083457395
83	0x3c85b71b	0.016322663
84	0xbd4c399a	-0.04985962
85	0xbd85a4c6	-0.06525569
86	0x3dd6741a	0.10471363
87	0x3e06b230	0.1315391
88	0xbd95e02a	-0.073181465
89	0xbd97dfb1	-0.074157126
90	0xbdbfecb2	-0.09371318
91	0x3da76117	0.08172815
92	0x3d4e4f07	0.050368335
93	0xbddbb1e4	-0.10727289
94	0x3c221e7e	0.009894965
95	0xbcf3e65a	-0.029772926
96	0x3c33a72b	0.010965149
97	0x3db07869	0.086167164
98	0xbd6ce705	-0.057837505
99	0xbd06f7b3	-0.032951068
100	0x3e14089a	0.14456406
101	0xbe00c50d	-0.12575169
102	0xbdc375bc	-0.095439404
103	0x3dfe6300	0.124212265
104	0xbd6fe5f0	-0.058568895
105	0xbe220263	-0.15821223
106	0xbc54dc47	-0.012991971
107	0xbc4dbc5e	-0.012557117
108	0x3de4d289	0.11172969
109	0x3dee80cb	0.11645659
110	0x3b9dcba5	0.004815536
111	0xbda2ecf2	-0.0795535
112	0xbe001112	-0.12506512
113	0x3cdb3f7d	0.026763672
114	0x3dacc551	0.084360726
115	0x3c9c6dbf	0.0190953
116	0xbe241569	-0.16023792
117	0x3dd01ece	0.101621255
118	0xbd4eb833	-0.050468635
119	0xbd3c0a16	-0.045908056
120	0x3d96ae88	0.07357508
121	0x3e0a141f	0.13484238
122	0xbddf8925	-0.1091483
123	0xbd13b1e7	-0.036058333
124	0xbdb4b688	-0.088238776
125	0x3da52650	0.08063948
126	0x3d97ce8f	0.07412445
127	0xbd8ab405	-0.06772617
128	0xbcf60880	-0.03003335
129	0xbcb74411	-0.022371324
130	0x3d6c41a5	0.05767979
131	0x3dfb15d2	0.12260021
132	0xbd884b90	-0.066550374
133	0xbd8caaf5	-0.06868545
134	0xbd185d54	-0.03719838
135	0x3ca31e0a	0.019911785
136	0x3d5046a4	0.05084862
137	0xbcfe5e29	-0.031050758
138	0x3c391389	0.011296161
139	0x3beb9534	0.0071894173
140	0x3cee3bb0	0.029081196
141	0x3ae5b8a8	0.0017526345
142	0x3cc8fd39	0.024534808
143	0xbdb30df5	-0.087428965
144	0x3da3699e	0.07979129
145	0x3c3d8b0f	0.011568799
146	0xbdedcb3d	-0.1161103
147	0x3d75fa22	0.060053
148	0x3d896c12	0.06710066
149	0xbd66a22b	-0.056307
150	0xbd1121bb	-0.03543256
151	0xbd7df9d8	-0.062005848
152	0x3c960a80	0.018315554
153	0x3c28e0cd	0.010307503
154	0x3c512832	0.012765931
155	0xbd561c36	-0.052272998
156	0xbde20b4c	-0.11037311
157	0xbd74c461	-0.059757594
158	0x3d4ebefa	0.0504751
159	0x3d72da16	0.059290014
160	0x3d99232b	0.07477411
161	0xbdd15b87	-0.102225356
162	0xbdda00db	-0.106446944
163	0x3d01f958	0.031731933
164	0xbda85a54	-0.08220354
165	0x3e1a86d6	0.15090498
166	0x3d5966d4	0.05307658
167	0xbd1518dd	-0.036400665
168	0x3a92ad66	0.0011190593
169	0xbcb2c10f	-0.021820573
170	0xbdec0399	-0.11524124
171	0x3cd4702d	0.025932396
172	0x3c0f60ed	0.008751136
173	0x3df47093	0.11935534
174	0x3dc2308c	0.09481916
175	0x3d423624	0.047414914
176	0xbdf0dfda	-0.11761446
177	0xbac69ad0	-0.0015152339
178	0xbd51b951	-0.051202122
179	0x3d0ad5e6	0.033895396
180	0xbcd76570	-0.026293486
181	0xbcfd8dc8	-0.030951396
182	0x3e022519	0.12709464
183	0xbcd778d9	-0.026302742
184	0x3e12148f	0.14265655
185	0xbca18584	-0.019716986
186	0xbe0dc355	-0.13844045
187	0x3c26f6af	0.01019065
188	0xbe051490	-0.12996125
189	0x3dd33449	0.10312707
190	0x3d525fee	0.051361017
191	0xbab9573a	-0.0014140375
192	0x3d5bba92	0.053644724
193	0xbd286a0b	-0.041116755
194	0x3d08a95e	0.033364646
195	0xbd7fdf27	-0.062468674
196	0x3c434bd2	0.011919932
197	0xbdd90705	-0.10597042
198	0x3dfda829	0.1238559
199	0xbcb49d70	-0.022047728
200	0x3de03ad5	0.10948721
201	0x3d6d7c3c	0.057979807
202	0xbcc8109c	-0.024421982
203	0xbe089b60	-0.13340521
204	0xbd86a11b	-0.06573697
205	0x3e0f3306	0.13984308
206	0xbc6d903b	-0.014499719
207	0xbcfbdc9c	-0.030744843
208	0xbdb25f5b	-0.08709594
209	0x3e1a749b	0.15083544
210	0x3c96c911	0.018406423
211	0x3e10f5a6	0.14156207
212	0xbd7a3562	-0.061086066
213	0xbc6ba032	-0.014381455
214	0xbe4063c7	-0.18788062
215	0x3dc96b90	0.09834969
216	0xbde30f4d	-0.11086903
217	0x3dae8b5c	0.085226744
218	0x3bff17e5	0.007784831
219	0x3dc9bfe6	0.09851055
220	0xbdf53e9e	-0.11974834
221	0x3e030c00	0.12797546
222	0xbde16de8	-0.11007291
223	0xbc75eb1f	-0.0150096705
224	0x3ba3bda3	0.0049969717
225	0x3aba960b	0.001423539
226	0x3da09bb0	0.07842195
227	0xbdf8a68b	-0.121411406
228	0x3dad2ea8	0.084561646
229	0xbb429759	-0.002969226
230	0x3c0a8ba0	0.008456141
231	0x3da9981d	0.082809664
232	0xbd8b4ee9	-0.0680216
233	0xbcac2c9c	-0.021017365
234	0x3e20302f	0.1564338
235	0xbde738b3	-0.112901114
236	0x3d0f85a5	0.035039563
237	0x3bf193d9	0.007372361
238	0xbdb7d645	-0.089764155
239	0x3e0405e8	0.12892878
240	0x3d2161cc	0.039399907
241	0x3cc51614	0.02405838
242	0xbcf732e8	-0.030175641
243	0x3cabfb81	0.02099395
244	0x3d9e1f76	0.077208444
245	0xbdc9e052	-0.09857239
246	0xbd87887d	-0.0661783
247	0x3dcf6017	0.101257496
248	0x3d17ab77	0.037028756
249	0xbd269c30	-0.040676296
250	0x3d9dfb4b	0.07713946
251	0xba346ee9	-0.0006882982
252	0xbdbd56ca	-0.09245069
253	0xbdec5320	-0.11539292
254	0x3d827317	0.06369608
255	0xbdbf90fe	-0.09353827

encoder.encoder_net.0.bias f4 [500]
0	0xbd7de027	-0.061981346
1	0xbcb926f5	-0.022601584
2	0x3d85f4b1	0.06540812
3	0x3c881da2	0.016615693
4	0x3d0ae311	0.033907954
5	0xbbeb9ab5	-0.0071900734
6	0xbd8f4e43	-0.06997349
7	0x3deccd0d	0.11562548
8	0x3da34570	0.079722285
9	0xbe0f35c6	-0.13985357
10	0xba93d4e7	-0.001127866
11	0xbbcff105	-0.0063458704
12	0xbdabd657	-0.083904915
13	0x3e040e48	0.12896073
14	0xbc2d68a5	-0.010584031
15	0x3da1beb7	0.07897704
16	0x3d363f8f	0.044494208
17	0xbd8700aa	-0.065919235
18	0x3d057c92	0.032589503
19	0xbd8f4b15	-0.06996743
20	0xbcd232cc	-0.025658987
21	0xbd9586ae	-0.07301079
22	0xbdce1815	-0.10063187
23	0xbc3937f2	-0.011304842
24	0xbda48ed0	-0.08035052
25	0xbdd7b3b8	-0.105323255
26	0xbe017916	-0.12643847
27	0xbd813888	-0.063096106
28	0x3b37d498	0.00280503
29	0xbc90c906	-0.01767398
30	0xbbff57ae	-0.0077924347
31	0x3c56942d	0.013096851
32	0x3e0eee26	0.13958034
33	0xbd414a97	-0.047190275
34	0x3e064783	0.13113217
35	0xbd219b5b	-0.0394548
36	0xbd613ba7	-0.05498853
37	0x3d733c56	0.059383713
38	0xbdda733a	-0.10666509
39	0x3de5cdf8	0.11220926
40	0x3d7279bb	0.059198122
41	0xba987016	-0.0011630084
42	0x3d0769cf	0.03305989
43	0x3dcbc1e1	0.09949089
44	0x3c8cd690	0.017192155
45	0xbcdfd5e6	-0.027323674
46	0x3c003c54	0.007826883
47	0x3e1c99fd	0.15293117
48	0x3d10f9f8	0.03539464
49	0x3df860d0	0.121278405
50	0x3d5a6e14	0.053327635
51	0xbddb2b32	-0.10701598
52	0xbe2ce8ac	-0.16885632
53	0x3dcf11e6	0.10110836
54	0x3d9a615b	0.075381
55	0xbd5d15ac	-0.053975746
56	0x3c605508	0.013692148
57	0xbde31cc6	-0.110894725
58	0x3d5cc777	0.053901162
59	0x3d4e595f	0.0503782
60	0x3bedcf97	0.0072574127
61	0x3cb0bb75	0.021573761
62	0xbd93d76f	-0.07218825
63	0x3e049b4d	0.12949868
64	0xbc2240e2	-0.009903165
65	0xbd7c6852	-0.061622925
66	0x3da6e7ad	0.081496574
67	0x3de806fb	0.113294564
68	0xbce86674	-0.028369166
69	0x3d4999d2	0.04921896
70	0x3de7ecb4	0.113244444
71	0x3dedd921	0.1161368
72	0xbcabd195	-0.02097396
73	0xbde93a57	-0.113880806
74	0x3d478f59	0.04872069
75	0xbd485e44	-0.048918024
76	0xbda4b47d	-0.08042238
77	0x3c059c11	0.008154885
78	0x3d853894	0.06504932
79	0x3df9a38a	0.12189396
80	0xbde8d993	-0.11369624
81	0x3d18c3b6	0.03729602
82	0x3dc5c566	0.096567914
83	0x3db582c6	0.08862834
84	0xbdb5af7c	-0.088713616
85	0x3dc26b0f	0.09493076
86	0xbddadbf6	-0.106864855
87	0x3d95648a	0.07294567
88	0xbc9169bb	-0.017750612
89	0xbd0757c2	-0.033042677
90	0xbdc62bdf	-0.096763365
91	0xbd80664a	-0.0626951
92	0x3d67615c	0.056489334
93	0x3c97feb2	0.018554065
94	0xbd716a16	-0.058939062
95	0xbe40b2d9	-0.18818225
96	0x3d51e9dc	0.051248416
97	0x3df0f72b	0.117658935
98	0x3bf61fe5	0.0075111263
99	0xbd57261a	-0.05252657
100	0xbd4e2855	-0.050331432
101	0xbd837636	-0.06419031
102	0xbe1b9a97	-0.1519569
103	0xbc27d9d2	-0.0102448035
104	0x3d6d7dec	0.057981417
105	0x3e00de28	0.12584746
106	0xbdaa0ba4	-0.083030015
107	0xbd8d02b0	-0.06885278
108	0xbdc43b11	-0.095815785
109	0x3d192a74	0.037394002
110	0xbe018cbb	-0.1265134
111	0x3d40598a	0.04696039
112	0xbd39eafb	-0.04539011
113	0xbdac98b5	-0.08427564
114	0x3dbed0c8	0.093171656
115	0x3d025c78	0.031826466
116	0xbd9d7199	-0.07687683
117	0xbdcbcf7d	-0.099516846
118	0xbcbeff99	-0.023315238
119	0x3bbc5343	0.0057472303
120	0xbdefe96c	-0.117144436
121	0xbe53ecc5	-0.20695789
122	0x3c8e4d7d	0.017370934
123	0x3de22f52	0.11044182
124	0x3e0a31de	0.13495585
125	0x3dc184c1	0.09449149
126	0xbe06715b	-0.13129179
127	0x3d9fcbb8	0.07802528
128	0x3e0314d9	0.12800921
129	0x3d6399de	0.05556666
130	0xbddf7662	-0.109112516
131	0xbceae586	-0.028673898
132	0x3d248578	0.04016635
133	0xbd0f800d	-0.035034228
134	0xbb629afa	-0.0034577237
135	0x3d8f5bca	0.06999929
136	0xbdd04f6b	-0.10171398
137	0xbdf54e35	-0.119778074
138	0x3d34b75e	0.044120185
139	0xbd2efd66	-0.04272213
140	0x3d9779b1	0.07396258
141	0x3df28aa2	0.11842848
142	0x3a33f04a	0.0006864114
143	0xbd295134	-0.041337207
144	0xbc4da361	-0.01255116
145	0x3cb5c261	0.022187414
146	0xbd82673a	-0.06367345
147	0xbc778510	-0.015107408
148	0xbcf84a54	-0.03030888
149	0xbd9293cb	-0.071570955
150	0x3dd8f535	0.105936445
151	0xbd279ad8	-0.040919155
152	0xbc46f46e	-0.0121432375
153	0x3dddbf41	0.108274944
154	0xbd85c249	-0.065311976
155	0x3c255540	0.010091126
156	0xbd731f92	-0.05935628
157	0xbd2882cc	-0.041140363
158	0xbd1a4c30	-0.037670314
159	0x3d423289	0.047411475
160	0xbe05728c	-0.13031977
161	0xbdf562e4	-0.119817525
162	0x3db8622b	0.09003099
163	0xbcfec72b	-0.03110083
164	0x3cffd11a	0.031227637
165	0xbc9caf26	-0.019126486
166	0x3da60ded	0.08108125
167	0xbddea741	-0.10871745
168	0x3dc2e03c	0.095154256
169	0xbda15470	-0.07877433
170	0xbd8447c1	-0.064589985
171	0xbdde04b0	-0.10840738
172	0x3e003e0b	0.12523668
173	0xbdb1425d	-0.08655236
174	0x3d1088a2	0.035286553
175	0x3c960513	0.018312966
176	0x3db04db0	0.08608568
177	0xbc22c3e0	-0.009934396
178	0x3d7594e1	0.059956435
179	0xbe1417fb	-0.14462273
180	0xbe02d577	-0.12776743
181	0xbb845365	-0.0040382617
182	0x3d05197d	0.03249501
183	0xbded8e5f	-0.11599421
184	0x3dec9993	0.115527295
185	0xbddfc7e1	-0.10926796
186	0x3d9f258f	0.077708356
187	0xbd1fe9cd	-0.03904133
188	0x3dc1c471	0.09461296
189	0xbddd3ad2	-0.10802235
190	0x3d246816	0.040138327
191	0x3d46623b	0.048433524
192	0xbda8d9b5	-0.08244649
193	0x3c57ac13	0.013163584
194	0x3b1f8480	0.002434045
195	0xbea2891a	-0.31745225
196	0xbdd5d4b8	-0.104409635
197	0xbdc3b003	-0.09555056
198	0xbd5fb2ff	-0.054614063
199	0x3d8b2ec7	0.067960314
200	0x3d45dfa5	0.048308987
201	0x3e07df8f	0.13268875
202	0x3d8903aa	0.06690152
203	0x3d974fd4	0.07388273
204	0x3d01edb9	0.03172085
205	0x3c2a0f14	0.0103795715
206	0xbc92edf9	-0.01793574
207	0xbd40ef1f	-0.047103044
208	0x3d8a28c0	0.06746054
209	0xbdac6f2a	-0.0841964
210	0xbbb36755	-0.0054749646
211	0x3d2f35a4	0.042775765
212	0xbc88158a	-0.016611833
213	0x3d8735f7	0.0660209
214	0x3d181cb6	0.037136756
215	0x3db54e00	0.08852768
216	0x3d61f54f	0.055165585
217	0x3cdf83f1	0.027284594
218	0xbd32ae9d	-0.043623555
219	0xbdd193d0	-0.10233271
220	0xbcc6dce4	-0.02427525
221	0xbd6ac0a3	-0.05731262
222	0xbc317e21	-0.010833294
223	0xbd52b3c3	-0.051440965
224	0x3d4cf3d5	0.050037224
225	0xbd6ad5ff	-0.05733299
226	0xbbf9749c	-0.007612778
227	0x3d7268e8	0.059182078
228	0xba81ba5f	-0.0009897462
229	0xbdcfb286	-0.101414725
230	0x3dc2df56	0.09515254
231	0x3d66a295	0.056307394
232	0x3cdeead1	0.027211579
233	0xbc372098	-0.011177205
234	0xbbd722f3	-0.0065654456
235	0xbd6440f8	-0.05572602
236	0x3d42394f	0.047417935
237	0x3dd62864	0.10456923
238	0x3df13e8c	0.11779508
239	0x3d742bc9	0.05961207
240	0xbded31a5	-0.115817346
241	0xbb6da91f	-0.0036264134
242	0x3d3a14b9	0.04542992
243	0xbdd7c2fe	-0.10535239
244	0xba008353	-0.00049023813
245	0x3dea8c73	0.1145257
246	0x3d8e9d90	0.069636464
247	0xbd5d8682	-0.054083355
248	0x3c9d2646	0.01918329
249	0x3dd06a0c	0.10176477
250	0xbddefa5a	-0.108875945
251	0x3daf5710	0.08561528
252	0xbde36896	-0.111039326
253	0x3e1c2943	0.15250115
254	0xbd449dd3	-0.048002075
255	0x3e2af2e1	0.16694213

encoder.encoder_net.2.weight f4 [100, 500]
0	0xbb017fa5	-0.001975992
1	0x3b633c97	0.0034673566
2	0xbce05bb1	-0.027387472
3	0xbaf63cee	-0.0018786469
4	0xbb42e0c8	-0.002973603
5	0x3ca19413	0.019723928
6	0xbb973fda	-0.004615766
7	0x3c657e37	0.014007143
8	0x3c03f7cf	0.008054688
9	0x3c236be8	0.009974457
10	0x3c8feeef	0.017569987
11	0xbc09594a	-0.008383105
12	0x3c2abbb8	0.010420732
13	0x3d22d1b3	0.039750766
14	0x3caf503b	0.021400562
15	0x3c939ae2	0.01801819
16	0xbc283072	-0.0102654565
17	0x38070f87	3.220097e-05
18	0xbb41ce82	-0.002957255
19	0xbd2945af	-0.04132622
20	0x3b1383d2	0.002250899
21	0xbd29386c	-0.041313574
22	0xbc3b0be3	-0.011416408
23	0xbb7ef975	-0.0038906012
24	0x3c30c179	0.010788315
25	0x3c387abc	0.011259731
26	0xb812c5c0	-3.499328e-05
27	0xbaa3ce4d	-0.0012497396
28	0x3ca9382e	0.020656671
29	0x3cb693d1	0.022287281
30	0xbc66a871	-0.0140782455
31	0xbcb4d333	-0.022073364
32	0x3c09600c	0.008384716
33	0xbc01de4a	-0.007926533
34	0x3ca2d5b6	0.019877296
35	0xbbed12fe	-0.00723493
36	0x3c79602f	0.015220686
37	0x3c48ab28	0.012247838
38	0xbb02dbff	-0.0019967554
39	0x3b952f90	0.004552789
40	0x3bcb4417	0.0062031853
41	0xbaf593be	-0.0018736047
42	0x3c0e0fd0	0.008670762
43	0x3a749ab6	0.0009330915
44	0xb88b7f9a	-6.651804e-05
45	0x3d859b57	0.06523769
46	0x3ad98516	0.0016595449
47	0xbaa6586d	-0.0012691148
48	0xbb68e673	-0.003553775
49	0x3a8ba337	0.00106535
50	0x3c435f89	0.011924633
51	0x3bb8157e	0.0056177964
52	0xbc5e050d	-0.013551009
53	0x3b15bc32	0.002284777
54	0x3cdb2a1d	0.02675348
55	0xbdb4e975	-0.08833591
56	0xbb6d2abf	-0.0036188809
57	0xbc8d6266	-0.017258834
58	0xbd546fa2	-0.051864274
59	0x3b7a2e88	0.0038174707
60	0xbb96c926	-0.0046016155
61	0x3c569635	0.013097336
62	0x3c30a3a5	0.010781203
63	0xbc56da75	-0.013113608
64	0xbc8ada98	-0.016949937
65	0x3bc8b249	0.006124769
66	0x3baeec59	0.0053382334
67	0x3b4be60b	0.0031112458
68	0x3c467e27	0.012115038
69	0x3bf7858a	0.007553761
70	0xbbdde40a	-0.006771569
71	0x3abe60b0	0.0014524665
72	0xbbd437de	-0.0064763865
73	0xbb91a09f	-0.0044441964
74	0xbca39dda	-0.01997273
75	0xbc94021c	-0.018067412
76	0x3b028a4f	0.0019918864
77	0xbbf204a1	-0.0073858057
78	0xbc011ab0	-0.007879898
79	0x3c27d1e2	0.010242911
80	0x3c53002e	0.012878461
81	0x3bd5f62a	0.006529589
82	0xbb1d7775	-0.00240275
83	0xbb061bfe	-0.0020463462
84	0xbd0138ab	-0.031548183
85	0x3d17643d	0.03696083
86	0x3b9cdaec	0.0047868397
87	0x3b026915	0.001989906
88	0x3c25110f	0.010074868
89	0x3b806575	0.0039183446
90	0x3bd34798	0.0064477436
91	0x3c893f22	0.016753737
92	0xbc9b1399	-0.018930243
93	0x3c0bf701	0.008542777
94	0x3a9aa973	0.0011799767
95	0x3c18fd1f	0.0093376925
96	0x3bb2f9c4	0.0054619033
97	0xbaca129a	-0.0015416921
98	0x3aacc596	0.0013181444
99	0x3986ddb4	0.00025723653
100	0xbc00eca6	-0.007868921
101	0x3ce61fdb	0.028091362
102	0x3be316ce	0.0069302088
103	0x3c655710	0.013997808
104	0x3ba73f56	0.005103986
105	0xbb27dcae	-0.0025613713
106	0xbbe95049	-0.0071201664
107	0xbc5a7187	-0.013332731
108	0xbd56fdf7	-0.052488293
109	0xbbdc2480	-0.0067182183
110	0xbd5ef369	-0.054431353
111	0x3b5c4f7d	0.0033616715
112	0xbbe63c9b	-0.0070262677
113	0xbc06314a	-0.008190462
114	0x3c4617fc	0.012090679
115	0x3bb38e36	0.0054795993
116	0x3a912fbd	0.0011076849
117	0x3b9f68fe	0.004864811
118	0x3c21650e	0.0098507535
119	0xbb808deb	-0.003923168
120	0x3c954f1c	0.018226199
121	0xbcc9622c	-0.024582945
122	0x3c553ab5	0.013014485
123	0x3c91802b	0.01776131
124	0xbc42541d	-0.0118608745
125	0x3c4f6bb2	0.012659954
126	0xbc510a48	-0.012758799
127	0xbaccdeef	-0.0015630404
128	0xbb83dafd	-0.004023908
129	0x3d0987e7	0.033576872
130	0xbcfdf7a7	-0.031001879
131	0xbb6b222c	-0.0035878522
132	0x3b218263	0.0024644367
133	0xba6b50b8	-0.00089765666
134	0xbb9fdfb0	-0.0048789605
135	0x3b6b89c7	0.0035940276
136	0x3b20c8fa	0.0024533854
137	0x3c1da55c	0.009621944
138	0xbc51c0d3	-0.0128023205
139	0x3b06a5ea	0.002054567
140	0xbc68a4ae	-0.014199419
141	0x3b4a65a0	0.0030883327
142	0xbb36a112	-0.0027867001
143	0x39e07e5c	0.00042818754
144	0x3bd091c7	0.0063650343
145	0x3b931338	0.004488375
146	0x3d774862	0.060371764
147	0xbb1f2501	-0.002428353
148	0xba70b27f	-0.00091818714
149	0x3b78d48f	0.0037968492
150	0x3be2b922	0.006919042
151	0xbde1e679	-0.11030287
152	0xbc19dd00	-0.009391069
153	0xbbad91b9	-0.0052969125
154	0x3bbb44ee	0.005715004
155	0xbc2fdc8b	-0.010733734
156	0x3bc14cc3	0.0058990433
157	0xbc1e8ffd	-0.009677884
158	0x3c1ca31b	0.009560372
159	0x3c59ada9	0.013286033
160	0xbb22b98b	-0.002482983
161	0xbbef0690	-0.0072944835
162	0x3b5eb2e9	0.003398115
163	0xbb8be282	-0.004268945
164	0xba8ec2ab	-0.0010891756
165	0x3c63840a	0.013886461
166	0xbae3dd11	-0.0017384609
167	0xbc15faf7	-0.009154073
168	0x3ced48c8	0.028965369
169	0xbbb306f7	-0.0054634768
170	0x3c649d77	0.013953558
171	0xbc4c1ed8	-0.012458526
172	0xbc05d47b	-0.008168335
173	0x3c2ded86	0.010615712
174	0x3b396e7f	0.002829462
175	0xbb8ce479	-0.004299697
176	0x3baeb363	0.005331443
177	0x3a848bc7	0.0010112458
178	0xbc8c65b7	-0.017138345
179	0xbca4d074	-0.02011893
180	0x3c8ad86b	0.0169489
181	0xba3e40b1	-0.00072575646
182	0xbb6bb37d	-0.0035965138
183	0xbc78288b	-0.015146385
184	0x396a8826	0.00022366698
185	0xbc2d5fb0	-0.010581896
186	0xbbba1dac	-0.0056798067
187	0x3ad5dbe1	0.0016316139
188	0x3c89731a	0.016778518
189	0x3acb4ad8	0.0015509976
190	0x3c05a4ce	0.008156968
191	0x3af57841	0.0018727855
192	0xbbe63a59	-0.0070259986
193	0x3c02fce2	0.007994862
194	0xbcb7f12e	-0.02245387
195	0x3bd17867	0.006392527
196	0x3aea3012	0.0017867109
197	0xbd0f4313	-0.034976076
198	0xbc2410eb	-0.010013799
199	0xbc005ccf	-0.007834627
200	0xbb5a064c	-0.0033267913
201	0x3bb28853	0.00544838
202	0x3c5bcdfa	0.013415808
203	0xbc0f6c9f	-0.008753925
204	0xbc022807	-0.007944114
205	0x3aec048c	0.0018006726
206	0xbb7f30c5	-0.003893898
207	0x3c36a6fe	0.0111482125
208	0xbba61d95	-0.0050694444
209	0xba5ec83c	-0.0008498465
210	0x3a2cf574	0.00065978547
211	0xb96ee041	-0.0002278099
212	0x398920f3	0.00026155225
213	0x3c557717	0.0130288815
214	0xbb03353f	-0.002002075
215	0x3c550365	0.013001298
216	0x3ccd26b4	0.02504287
217	0xbbfc5e8a	-0.0077016996
218	0x3bfa91d2	0.0076467777
219	0x3a751714	0.0009349447
220	0xbc9c6d97	-0.019095225
221	0x3cfca2f9	0.03083943
222	0x3bdfb0d2	0.0068264985
223	0x3917caf8	0.00014476094
224	0x3bda718e	0.006666369
225	0x3b29da8d	0.002591762
226	0x3c6ad5b1	0.014333175
227	0x3bc55516	0.006022106
228	0xbc3b6378	-0.011437289
229	0xbc13b6e2	-0.009015771
230	0x3c19f911	0.009397761
231	0xbb33d3d8	-0.00274395
232	0xbc095ca0	-0.0083839
233	0xbc3d1fb4	-0.011543203
234	0xbbbf43ed	-0.005836955
235	0x3c27ef78	0.010249965
236	0xbd7787ca	-0.060432233
237	0xb9d62724	-0.00040846423
238	0x3b0352cf	0.0020038371
239	0xba25818c	-0.00063135545
240	0x3ce666e0	0.028125226
241	0x3c1316e1	0.008977623
242	0x3b846740	0.0040406287
243	0x3b7333ac	0.0037109656
244	0x3bec53e8	0.007212151
245	0xbc55a2fb	-0.013039346
246	0xbb811918	-0.003939759
247	0x3c703523	0.014661106
248	0xbad5a765	-0.0016300498
249	0x3c9acf4f	0.01889768
250	0x3cc49d89	0.0240009
251	0x3c10b092	0.00883116
252	0x3b67fbf5	0.003539798
253	0x3c324089	0.010879644
254	0xbc0befff	-0.008541106
255	0x3bffb713	0.0078038066

encoder.encoder_net.2.bias f4 [100]
0	0xbd6cef48	-0.057845384
1	0x3ca51088	0.020149484
2	0x3b3278a1	0.0027232545
3	0x3bcaff07	0.0061949524
4	0x3d2fd362	0.0429262
5	0xbddb8d2f	-0.10720288
6	0x3c81fb60	0.015866935
7	0x3c4e550f	0.012593522
8	0xbad811b7	-0.0016484772
9	0xbbb929bc	-0.005650727
10	0x3c37a2f8	0.011208288
11	0x3bb464a0	0.0055051595
12	0xbcb73a39	-0.02236663
13	0xbe19b2d6	-0.15009627
14	0xbca1c9c8	-0.019749537
15	0xbd42b14a	-0.047532357
16	0x3cda0cce	0.026617434
17	0xbe753101	-0.23944475
18	0xb9dd477c	-0.00042205665
19	0x3ac5bebc	0.001508675
20	0x3b74cf7b	0.0037355113
21	0xbd81ad57	-0.0633189
22	0xbe1a459f	-0.15065621
23	0xbcb8133f	-0.022470115
24	0xbcb8d5f0	-0.02256295
25	0xbd01ec22	-0.031719334
26	0xbd79bc73	-0.060970735
27	0xbe97ad27	-0.29624292
28	0xbbd23205	-0.006414654
29	0xbd61c422	-0.055118687
30	0xbd1a6f74	-0.037703946
31	0x3c286564	0.01027808
32	0x3c274ef8	0.010211699
33	0xbc607118	-0.013698839
34	0xbcc6b7c3	-0.024257546
35	0xbd3dd3f0	-0.046344697
36	0x3c2b10b9	0.010440999
37	0xbd48bb9e	-0.04900705
38	0x3a9c9af6	0.0011948037
39	0xbce8c963	-0.028416341
40	0x3c2bb26b	0.01047955
41	0xbc0f8af2	-0.0087611545
42	0xbd7b26b2	-0.0613162
43	0xbebeec84	-0.37289822
44	0x3ce6b52c	0.028162561
45	0xbc6ccebb	-0.014453585
46	0xbcfeac37	-0.031087978
47	0x3aeb0699	0.0017931043
48	0xbd231ca7	-0.039822247
49	0xbeb1f1fc	-0.34754932
50	0xbcd181b1	-0.025574537
51	0x3d60bdc7	0.054868486
52	0xbca10706	-0.01965667
53	0xbe90d37b	-0.28286347
54	0xbd615f4c	-0.055022523
55	0xbd6c0b76	-0.057628118
56	0xbeaaee05	-0.3338472
57	0xbc7c0a0f	-0.0153832575
58	0xbc2c9688	-0.010533936
59	0xbef4de17	-0.4782569
60	0xbe04c1a2	-0.1296449
61	0xbcf166f5	-0.029468039
62	0xbd3933df	-0.045215484
63	0xbbbd4cd9	-0.005776983
64	0xbee1d172	-0.44105107
65	0xbe4fcab3	-0.20292167
66	0xbd0685cd	-0.032842446
67	0xbceeb90e	-0.029140975
68	0x3c194ca0	0.009356648
69	0xbd199ad9	-0.03750119
70	0xbd9da804	-0.07698062
71	0x3cd5ae89	0.026084201
72	0xbe13eb31	-0.14445187
73	0xbd6589df	-0.056039687
74	0x3cabfbf6	0.020994168
75	0xbd22ff70	-0.039794385
76	0xbc9142b4	-0.017732002
77	0xbeb30a72	-0.34968907
78	0xbd1b9a54	-0.037988976
79	0xbd01da61	-0.031702403
80	0xbe91ec96	-0.28500813
81	0xbd6e638a	-0.058200397
82	0xbe38b77e	-0.18038747
83	0x3c9c41ae	0.019074287
84	0xbd33b61c	-0.043874845
85	0xbd88c97c	-0.06679055
86	0xbcbedeb5	-0.023299554
87	0xbc332117	-0.010933182
88	0x3b35afe6	0.0027723252
89	0xbe4b8da6	-0.19878253
90	0x3b0a0d9e	0.0021065245
91	0x3ccfd5f8	0.025370583
92	0xbd8853c1	-0.066566
93	0xbc98f915	-0.018673459
94	0x3ce6dadf	0.028180538
95	0xbd150012	-0.03637702
96	0xbeed2c60	-0.46322918
97	0xbd0b040e	-0.033939414
98	0xbd39f79f	-0.045402166
99	0xbbc80f67	-0.0061053517

encoder.mu_net.weight f4 [1, 100]
0	0x3a062613	0.0005117368
1	0xba21f619	-0.0006178334
2	0x38e4aaa4	0.000109036715
3	0xb8c97674	-9.6064905e-05
4	0x37db52d0	2.6145397e-05
5	0xb9d9b7d7	-0.00041526437
6	0xb8a171c4	-7.698269e-05
7	0x398963f1	0.00026205138
8	0xb98033e7	-0.00024452733
9	0xb91f398e	-0.00015184862
10	0x3a0e8449	0.0005436582
11	0xb9273c98	-0.00015948934
12	0xb90bfb7b	-0.00013349757
13	0x3c701d73	0.014655459
14	0xb9313d8c	-0.00016902963
15	0xb95e7f3e	-0.00021218971
16	0x384389b8	4.6619884e-05
17	0x3c98f1eb	0.018670043
18	0xb81c526c	-3.727006e-05
19	0xb7db193c	-2.6118585e-05
20	0x38f41a84	0.000116397656
21	0xb77f7e88	-1.5228645e-05
22	0x3c07cf6c	0.008289199
23	0xb92a5e0a	-0.00016247496
24	0xb9da7b77	-0.0004167219
25	0x3901f4c5	0.00012393582
26	0x369db83c	4.7004123e-06
27	0xbd25cd72	-0.04047913
28	0xb74eb1fe	-1.2319999e-05
29	0x389424c0	7.064035e-05
30	0x386741e5	5.513606e-05
31	0x37a106c0	1.9195839e-05
32	0x390a88cf	0.00013211671
33	0x388c1a38	6.680604e-05
34	0x399fa00c	0.00030446087
35	0xbd37853d	-0.0448048
36	0xb9493d6c	-0.00019191735
37	0xb9c5db0b	-0.00037737968
38	0xb8c868fc	-9.556298e-05
39	0x399bd800	0.00029724836
40	0x37e2db22	2.7043341e-05
41	0x39ae6ae6	0.00033267512
42	0xb750dcc0	-1.24491635e-05
43	0xbd6549e0	-0.055978656
44	0xb88b326d	-6.637429e-05
45	0x39b4b917	0.00034470178
46	0xb8e79bf0	-0.00011043984
47	0xba25a281	-0.00063184655
48	0x390b2b9a	0.00013272316
49	0xbd311ed0	-0.043242276
50	0x3845020c	4.6970366e-05
51	0xb8b9f0d0	-8.866342e-05
52	0x3997e4c7	0.00028971417
53	0xbd236f40	-0.03990102
54	0x3909dd25	0.00013147721
55	0xb9063712	-0.00012799751
56	0x3cbfdc9e	0.023420628
57	0x391bfdb7	0.00014876468
58	0xba24dcf8	-0.00062890304
59	0x3d605572	0.054768987
60	0x3c179bde	0.00925347
61	0x3980a5db	0.00024537634
62	0x3973a7a9	0.00023236744
63	0xba88db7c	-0.0010441388
64	0x3d689a91	0.05678803
65	0x3c8daff3	0.017295813
66	0x3759c9e0	1.2981211e-05
67	0x3a311c47	0.0006756228
68	0xba0075b6	-0.0004900353
69	0x39a6f48f	0.00031844198
70	0xb955bec1	-0.00020384324
71	0x3985640a	0.00025442272
72	0x3c38cfc1	0.011280001
73	0xb9820eaa	-0.00024806458
74	0xb9acc03e	-0.00032949628
75	0xb8f2771a	-0.000115616436
76	0x39da33af	0.00041618707
77	0xbd32fcd6	-0.043698154
78	0x3a51de93	0.00080058834
79	0xb98a8e94	-0.0002642764
80	0xbd8e23e2	-0.06940438
81	0x3927002a	0.00015926422
82	0x3c98b25d	0.018639738
83	0x3810d612	3.4531644e-05
84	0xb89c8fab	-7.46542e-05
85	0xb8faadc2	-0.00011953294
86	0x38c2b2aa	9.28392e-05
87	0xb99f453c	-0.00030378427
88	0xb7179580	-9.0351095e-06
89	0x3c460c7c	0.012087937
90	0x39406a50	0.00018350151
91	0x39e9d584	0.00044600305
92	0xb8a32104	-7.778595e-05
93	0x39864d45	0.00025616042
94	0xb7711b60	-1.4371093e-05
95	0x3a1c88f2	0.0005971334
96	0x3d0dad68	0.0345892
97	0xb997212d	-0.00028825682
98	0x3d15c88e	0.036568217
99	0xb994e051	-0.00028395889

encoder.log_var_net.weight f4 [1, 100]
0	0x3d5d909d	0.054092992
1	0xbd42384a	-0.047416963
2	0xbc849267	-0.016183091
3	0xbb222177	-0.0024739185
4	0xbc2cce05	-0.010547166
5	0xbc5e5c13	-0.013571757
6	0xbc6dcf50	-0.014514759
7	0xbc52c6df	-0.012864797
8	0xbc7cce01	-0.0154299745
9	0xbb230eb6	-0.0024880595
10	0x3c9322bf	0.017960904
11	0xbc86e9ac	-0.016468845
12	0x3a0a0dd5	0.00052663434
13	0x3c79812d	0.015228552
14	0xbcf643fa	-0.03006171
15	0xbd56b0b3	-0.052414607
16	0xbb12997c	-0.0022369316
17	0x3d2910db	0.04127584
18	0xbb997f22	-0.004684345
19	0x3d22b292	0.03972108
20	0x3cd305e4	0.025759645
21	0x3b5dd1e3	0.0033847026
22	0x3d323e40	0.043516397
23	0xbe12a93c	-0.1432237
24	0xbdb334f3	-0.08750334
25	0xbc5a5f43	-0.013328376
26	0xbc78ee0c	-0.015193474
27	0x3f250a1d	0.64468557
28	0x3bca342f	0.0061707716
29	0x3d2731b6	0.040818892
30	0x3b198d76	0.0023430265
31	0xbc24e61e	-0.01006463
32	0xbc89bce5	-0.016813705
33	0x3ab95536	0.0014139775
34	0xbb5b8f18	-0.0033502039
35	0x3d88bb4e	0.066763505
36	0xbc959555	-0.018259684
37	0xbd1f6f86	-0.038924716
38	0xbd64e114	-0.055878714
39	0x3c91b240	0.017785192
40	0xbc9078d4	-0.01763574
41	0xbc6e5f01	-0.014549018
42	0xbcdf6322	-0.02726895
43	0x3f24c17a	0.6435772
44	0xbd03988c	-0.032127902
45	0x3c7a89d6	0.015291652
46	0xbae9e0ac	-0.0017843447
47	0xbc5a945e	-0.013341038
48	0x3b21d4fc	0.00246936
49	0x3f3a0a16	0.7267164
50	0xbc33433a	-0.010941321
51	0xbdbbe8ec	-0.09175286
52	0x3a1236e1	0.00055776356
53	0x3ecfedb5	0.40611044
54	0x3b571e40	0.0032824427
55	0x3c47f1fa	0.012203688
56	0x3f236fd5	0.6384252
57	0x3ba9d0b4	0.00518235
58	0xbd1bd341	-0.038043264
59	0x3ee209ab	0.44148
60	0x3d99300c	0.07479867
61	0x3c36f90b	0.011167775
62	0x3bb93666	0.0056522368
63	0xbe78fbd6	-0.24314818
64	0x3f02ace9	0.5104509
65	0x3d28bd23	0.041196
66	0xbcbc4365	-0.022981355
67	0x3e204747	0.1565219
68	0xbba24556	-0.004952113
69	0xbc0f27b6	-0.008737495
70	0x3c793c6f	0.015212162
71	0xbc8d75f1	-0.017268153
72	0x3c55b6f9	0.013044112
73	0x3c928798	0.017886922
74	0xbd146474	-0.036228612
75	0xbc57ed2f	-0.013179108
76	0xbb81cab5	-0.003960932
77	0x3f15d238	0.58523893
78	0x3e6a5f49	0.22887911
79	0x3bc64fa2	0.0060519734
80	0x3f0405da	0.5157143
81	0x3d340128	0.043946415
82	0x3c7e1ccd	0.015509796
83	0xbca6e525	-0.020372937
84	0x3cf60455	0.030031363
85	0xbd08aeb0	-0.03336972
86	0x3c3ffe53	0.01171835
87	0x3d5cdee5	0.053923506
88	0xbbf04a42	-0.007333071
89	0x3c6b925e	0.014378158
90	0x3d20d6b0	0.039267242
91	0x3c20010f	0.009765877
92	0x3b0ff3f8	0.0021965485
93	0xbc0ec8ca	-0.008714864
94	0xbc908bce	-0.01764479
95	0xbaa29833	-0.0012404978
96	0x3f1b2494	0.6060269
97	0xbda4bea4	-0.08044174
98	0x3e94af4f	0.2904
99	0xbba0dc0b	-0.0049090437

nn_model.net.0.weight f4 [10, 3]
0	0xbf4efe3a	-0.8085667
1	0xbe1ca737	-0.15298162
2	0xc01528f3	-2.3306243
3	0x3c9b692e	0.018971052
4	0x3efe95a7	0.4972355
5	0xbf679ddd	-0.90475255
6	0xbe0d5ecf	-0.13805698
7	0x3c156d5a	0.00912031
8	0x3ff9e6f5	1.9523607
9	0xbeb0e4a9	-0.34549454
10	0x3f165e65	0.58737785
11	0xbd80cedb	-0.062894545
12	0x3d32c067	0.04364052
13	0x3f15351d	0.5828417
14	0x3fcd83c5	1.6055838
15	0x3d5e832f	0.054324325
16	0x3ff3c0c5	1.9043204
17	0xbfdce0c3	-1.7256092
18	0x3ed85307	0.42250845
19	0x3f3a7b54	0.72844434
20	0x3f056483	0.52106494
21	0x3dcd3867	0.100205235
22	0x3eb425b0	0.35185003
23	0x3f682a18	0.9068923
24	0xbe27f4fe	-0.16402051
25	0x3fbf63dd	1.4952351
26	0x3f606a4e	0.8766221
27	0xbd6de163	-0.058076274
28	0x3c235f90	0.009971514
29	0x3ed57124	0.41687882

nn_model.net.0.bias f4 [10]
0	0x3fd9c648	1.7013636
1	0x3e15ae91	0.14617373
2	0xbeda0eb2	-0.42589337
3	0xbd99adde	-0.07503866
4	0x3f14b323	0.5808584
5	0xbf49844f	-0.7871751
6	0x3e1af6fb	0.15133278
7	0x3e945731	0.28972772
8	0x3edbfd19	0.42966536
9	0xbde1b851	-0.11021484

nn_model.net.2.weight f4 [10, 10]
0	0x3dea1892	0.11430468
1	0xbeb9691e	-0.3621301
2	0xbdc3b2de	-0.095556006
3	0xbf2defe1	-0.6794415
4	0xbfb9809f	-1.4492377
5	0xbf55d3f7	-0.8352656
6	0xbe0aaa94	-0.13541633
7	0xbfc92ac5	-1.5716177
8	0xbf32a12c	-0.6977718
9	0x3ebb3251	0.36561826
10	0xbea58437	-0.32327434
11	0xbee3fc77	-0.44528553
12	0xbe3306ad	-0.17483015
13	0x3f5a3de3	0.8525068
14	0x3f01faa6	0.50773084
15	0x3f8f22c8	1.1182489
16	0x3ed8b919	0.42328718
17	0x3f5ca57c	0.8619001
18	0x3f5a3f2d	0.8525265
19	0xbe8d0df2	-0.27549702
20	0x3f36573a	0.7122685
21	0xbf073c4b	-0.52826375
22	0x3dd8244d	0.10553799
23	0xbf9a390b	-1.2048658
24	0xbe55dd11	-0.20885111
25	0xbf84b064	-1.036633
26	0xbf1369f5	-0.5758355
27	0xbeb62115	-0.35572115
28	0xbecd380e	-0.4008183
29	0x3f1bde63	0.6088621
30	0xbd1991c3	-0.037492525
31	0x3f1c3f8e	0.61034477
32	0xbe56a3d4	-0.20960933
33	0x3f0927ba	0.5357624
34	0x3e2d970a	0.16952148
35	0x3f8b13d9	1.0865432
36	0x3e8cc74c	0.274958
37	0x3df2e2a1	0.11859632
38	0x3f34b769	0.7059236
39	0xbf6d9d47	-0.9281811
40	0x3f169f39	0.58836704
41	0x3efe9eac	0.49730432
42	0xbea4cd80	-0.32188034
43	0x3dd282e8	0.10278875
44	0x3f2c714e	0.6736039
45	0x3eb1c084	0.3471719
46	0x3f2ae959	0.6676231
47	0x3f78ccd3	0.97187537
48	0x3f409a69	0.7523561
49	0xbd8b8320	-0.068121195
50	0xbef815c7	-0.48454115
51	0xbef20f5f	-0.47277352
52	0xbe390af7	-0.18070589
53	0x3f30f201	0.6911927
54	0x3f262f6c	0.6491611
55	0xbdfdccd0	-0.123925805
56	0xbf6c44e8	-0.9229264
57	0x3f504c21	0.81366163
58	0xbe5a4b60	-0.21317816
59	0x3f0023de	0.5005473
60	0xbecf7d8c	-0.40525472
61	0xbf1db85e	-0.61609447
62	0x3fd3dc1b	1.6551546
63	0x3ee6783a	0.450136
64	0xbe9e8946	-0.30964106
65	0x3e97d9d0	0.29658365
66	0xbdb5146f	-0.08841788
67	0x3f31c3ba	0.6943928
68	0xbe3b8444	-0.18312174
69	0xbebc9484	-0.36832058
70	0xbfe8d359	-1.8189498
71	0x3dae151d	0.08500121
72	0xbfef20ef	-1.8681926
73	0x3e6c9c74	0.23106557
74	0x3f8367e6	1.0266082
75	0x3ef0b207	0.47010824
76	0x3ea2aa47	0.31770536
77	0x3f9b75dc	1.2145343
78	0xbfa4bf50	-1.2870884
79	0xbe87d3cc	-0.26528776
80	0xbeda0e20	-0.42588902
81	0xbeb2ea56	-0.3494441
82	0xbdab412b	-0.08362039
83	0xbf4b63d4	-0.794492
84	0xbf8c4082	-1.0957186
85	0xbfad874c	-1.3556914
86	0xbf67a2d6	-0.9048284
87	0xbe9d0e55	-0.30674997
88	0xbf473679	-0.77817494
89	0xbdb1f240	-0.08688784
90	0x3e35669f	0.17714928
91	0xbf801a96	-1.0008113
92	0x3f0a9441	0.5413247
93	0xbf1ebcca	-0.6200682
94	0x3ec99184	0.39368832
95	0xbf92449a	-1.1427186
96	0xbee1abd0	-0.44076395
97	0x3eb643b1	0.3559852
98	0xbf32d3c1	-0.6985436
99	0x3ee76cce	0.452002

nn_model.net.2.bias f4 [10]
0	0x3ea4b1bc	0.3216685
1	0xbe5d01fb	-0.21582787
2	0x3e8932f2	0.2679668
3	0x3dc51d4d	0.09624729
4	0x3e018ea2	0.12652066
5	0xbdc0d3d2	-0.094154015
6	0xbcf29479	-0.029611813
7	0x3f3c28dc	0.73499846
8	0xbead6f84	-0.33874142
9	0x3e3a25a6	0.18178424

nn_model.net.4.weight f4 [1, 10]
0	0xbfb083f4	-1.3790269
1	0x3fa8babc	1.3181987
2	0xbf74ffd4	-0.9570286
3	0xbfc2b410	-1.5211201
4	0xbf27ac59	-0.65497357
5	0x3fb49e62	1.4110835
6	0x4054928f	3.3214452
7	0x3f8f5bc8	1.1199884
8	0x3f90f4ba	1.1324685
9	0x3f4830bc	0.7819936

hnn.differentiable_model.net.0.weight f4 [10, 3]
0	0xbf4efe3a	-0.8085667
1	0xbe1ca737	-0.15298162
2	0xc01528f3	-2.3306243
3	0x3c9b692e	0.018971052
4	0x3efe95a7	0.4972355
5	0xbf679ddd	-0.90475255
6	0xbe0d5ecf	-0.13805698
7	0x3c156d5a	0.00912031
8	0x3ff9e6f5	1.9523607
9	0xbeb0e4a9	-0.34549454
10	0x3f165e65	0.58737785
11	0xbd80cedb	-0.062894545
12	0x3d32c067	0.04364052
13	0x3f15351d	0.5828417
14	0x3fcd83c5	1.6055838
15	0x3d5e832f	0.054324325
16	0x3ff3c0c5	1.9043204
17	0xbfdce0c3	-1.7256092
18	0x3ed85307	0.42250845
19	0x3f3a7b54	0.72844434
20	0x3f056483	0.52106494
21	0x3dcd3867	0.100205235
22	0x3eb425b0	0.35185003
23	0x3f682a18	0.9068923
24	0xbe27f4fe	-0.16402051
25	0x3fbf63dd	1.4952351
26	0x3f606a4e	0.8766221
27	0xbd6de163	-0.058076274
28	0x3c235f90	0.009971514
29	0x3ed57124	0.41687882

hnn.differentiable_model.net.0.bias f4 [10]
0	0x3fd9c648	1.7013636
1	0x3e15ae91	0.14617373
2	0xbeda0eb2	-0.42589337
3	0xbd99adde	-0.07503866
4	0x3f14b323	0.5808584
5	0xbf49844f	-0.7871751
6	0x3e1af6fb	0.15133278
7	0x3e945731	0.28972772
8	0x3edbfd19	0.42966536
9	0xbde1b851	-0.11021484

hnn.differentiable_model.net.2.weight f4 [10, 10]
0	0x3dea1892	0.11430468
1	0xbeb9691e	-0.3621301
2	0xbdc3b2de	-0.095556006
3	0xbf2defe1	-0.6794415
4	0xbfb9809f	-1.4492377
5	0xbf55d3f7	-0.8352656
6	0xbe0aaa94	-0.13541633
7	0xbfc92ac5	-1.5716177
8	0xbf32a12c	-0.6977718
9	0x3ebb3251	0.36561826
10	0xbea58437	-0.32327434
11	0xbee3fc77	-0.44528553
12	0xbe3306ad	-0.17483015
13	0x3f5a3de3	0.8525068
14	0x3f01faa6	0.50773084
15	0x3f8f22c8	1.1182489
16	0x3ed8b919	0.42328718
17	0x3f5ca57c	0.8619001
18	0x3f5a3f2d	0.8525265
19	0xbe8d0df2	-0.27549702
20	0x3f36573a	0.7122685
21	0xbf073c4b	-0.52826375
22	0x3dd8244d	0.10553799
23	0xbf9a390b	-1.2048658
24	0xbe55dd11	-0.20885111
25	0xbf84b064	-1.036633
26	0xbf1369f5	-0.5758355
27	0xbeb62115	-0.35572115
28	0xbecd380e	-0.4008183
29	0x3f1bde63	0.6088621
30	0xbd1991c3	-0.037492525
31	0x3f1c3f8e	0.61034477
32	0xbe56a3d4	-0.20960933
33	0x3f0927ba	0.5357624
34	0x3e2d970a	0.16952148
35	0x3f8b13d9	1.0865432
36	0x3e8cc74c	0.274958
37	0x3df2e2a1	0.11859632
38	0x3f34b769	0.7059236
39	0xbf6d9d47	-0.9281811
40	0x3f169f39	0.58836704
41	0x3efe9eac	0.49730432
42	0xbea4cd80	-0.32188034
43	0x3dd282e8	0.10278875
44	0x3f2c714e	0.6736039
45	0x3eb1c084	0.3471719
46	0x3f2ae959	0.6676231
47	0x3f78ccd3	0.97187537
48	0x3f409a69	0.7523561
49	0xbd8b8320	-0.068121195
50	0xbef815c7	-0.48454115
51	0xbef20f5f	-0.47277352
52	0xbe390af7	-0.18070589
53	0x3f30f201	0.6911927
54	0x3f262f6c	0.6491611
55	0xbdfdccd0	-0.123925805
56	0xbf6c44e8	-0.9229264
57	0x3f504c21	0.81366163
58	0xbe5a4b60	-0.21317816
59	0x3f0023de	0.5005473
60	0xbecf7d8c	-0.40525472
61	0xbf1db85e	-0.61609447
62	0x3fd3dc1b	1.6551546
63	0x3ee6783a	0.450136
64	0xbe9e8946	-0.30964106
65	0x3e97d9d0	0.29658365
66	0xbdb5146f	-0.08841788
67	0x3f31c3ba	0.6943928
68	0xbe3b8444	-0.18312174
69	0xbebc9484	-0.36832058
70	0xbfe8d359	-1.8189498
71	0x3dae151d	0.08500121
72	0xbfef20ef	-1.8681926
73	0x3e6c9c74	0.23106557
74	0x3f8367e6	1.0266082
75	0x3ef0b207	0.47010824
76	0x3ea2aa47	0.31770536
77	0x3f9b75dc	1.2145343
78	0xbfa4bf50	-1.2870884
79	0xbe87d3cc	-0.26528776
80	0xbeda0e20	-0.42588902
81	0xbeb2ea56	-0.3494441
82	0xbdab412b	-0.08362039
83	0xbf4b63d4	-0.794492
84	0xbf8c4082	-1.0957186
85	0xbfad874c	-1.3556914
86	0xbf67a2d6	-0.9048284
87	0xbe9d0e55	-0.30674997
88	0xbf473679	-0.77817494
89	0xbdb1f240	-0.08688784
90	0x3e35669f	0.17714928
91	0xbf801a96	-1.0008113
92	0x3f0a9441	0.5413247
93	0xbf1ebcca	-0.6200682
94	0x3ec99184	0.39368832
95	0xbf92449a	-1.1427186
96	0xbee1abd0	-0.44076395
97	0x3eb643b1	0.3559852
98	0xbf32d3c1	-0.6985436
99	0x3ee76cce	0.452002

hnn.differentiable_model.net.2.bias f4 [10]
0	0x3ea4b1bc	0.3216685
1	0xbe5d01fb	-0.21582787
2	0x3e8932f2	0.2679668
3	0x3dc51d4d	0.09624729
4	0x3e018ea2	0.12652066
5	0xbdc0d3d2	-0.094154015
6	0xbcf29479	-0.029611813
7	0x3f3c28dc	0.73499846
8	0xbead6f84	-0.33874142
9	0x3e3a25a6	0.18178424

hnn.differentiable_model.net.4.weight f4 [1, 10]
0	0xbfb083f4	-1.3790269
1	0x3fa8babc	1.3181987
2	0xbf74ffd4	-0.9570286
3	0xbfc2b410	-1.5211201
4	0xbf27ac59	-0.65497357
5	0x3fb49e62	1.4110835
6	0x4054928f	3.3214452
7	0x3f8f5bc8	1.1199884
8	0x3f90f4ba	1.1324685
9	0x3f4830bc	0.7819936
