ConSciNet/models/ConSciNet_weights50k_lv3.pt (torch, 310819 bytes, 18 tensors)

encoder.encoder_net.0.weight f4 [500, 50]
0	0xbc9a0b04	-0.01880408
1	0xbd8c6293	-0.06854739
2	0xbcad3588	-0.02114369
3	0x3dc5b9dc	0.096545905
4	0x3cdee407	0.027208341
5	0xbd9f27f4	-0.07771292
6	0xbd447b62	-0.04796923
7	0xbdf449bf	-0.119281285
8	0xbc107c54	-0.008818705
9	0x3c2e2a94	0.010630269
10	0x3df05a4d	0.117359735
11	0x3d7d9795	0.061912138
12	0x39f03532	0.00045816
13	0xbdbc364b	-0.09190043
14	0xbd0f81c6	-0.03503587
15	0xbcfd46fd	-0.030917639
16	0xbe1c8f61	-0.1528907
17	0xbdaed526	-0.085367486
18	0x3d4f56a5	0.05061974
19	0xbd1b853f	-0.03796887
20	0xbcb64da3	-0.022253817
21	0xbdb6fb5b	-0.08934661
22	0xbdd85d9c	-0.105647296
23	0x3cd2dbb1	0.025739523
24	0x3e22000a	0.15820327
25	0xbd96d37e	-0.07364558
26	0xbabeed9d	-0.0014566664
27	0x3c845293	0.016152656
28	0xbc886084	-0.016647585
29	0xbdaa30d1	-0.08310092
30	0x3cb8c321	0.022553982
31	0x3d810c7e	0.06301211
32	0x3d9c2523	0.07624271
33	0x3be1843b	0.006882218
34	0xbe18929f	-0.14899682
35	0xbdf7fc12	-0.121086255
36	0x3c0915ba	0.008366996
37	0xbdbec789	-0.09315402
38	0x3c4f6ffd	0.012660977
39	0xbc9b6c0f	-0.018972425
40	0x3e19c326	0.1501585
41	0xbcdb5c3e	-0.026777383
42	0x3d3e0cc1	0.04639888
43	0xbd5fef7a	-0.054671742
44	0xbe0f8079	-0.14013852
45	0x3d8c2d82	0.068446174
46	0x3c714a25	0.01472715
47	0xbd8c60d3	-0.06854405
48	0x3d013f44	0.031554475
49	0xbccdccbd	-0.02512204
50	0x3daca42a	0.08429749
51	0xbabde0a6	-0.0014486506
52	0xbe151322	-0.1455808
53	0xbdd771ea	-0.10519774
54	0xbd2d5f6c	-0.04232733
55	0x3e33050c	0.17482394
56	0x3c7903f8	0.0151987
57	0xbd98cf5a	-0.07461424
58	0x3e147f2c	0.14501637
59	0x3c18e768	0.009332515
60	0x3d2a7f5e	0.041625373
61	0xbd53e4b7	-0.05173179
62	0xbe136944	-0.14395624
63	0x3db7ea5d	0.08980248
64	0xbd4e1c59	-0.050320003
65	0xbd892f9b	-0.06698533
66	0x3d3505b6	0.0441949
67	0xbe1eebdd	-0.15519662
68	0xbda8f91b	-0.08250638
69	0xbc9c5051	-0.019081267
70	0x3debad08	0.115076125
71	0xbc458283	-0.012055042
72	0x3da3c526	0.079965875
73	0x3dfcb650	0.12339461
74	0xbdd9c8d9	-0.10634012
75	0xbd9f6dd1	-0.07784618
76	0xbd8bbf4f	-0.068235986
77	0xbddeb618	-0.108745754
78	0x3d0b5648	0.03401783
79	0x3dac1b5f	0.08403658
80	0xbd8c93d0	-0.068641305
81	0x3d894f63	0.06704595
82	0xbc90881e	-0.01764303
83	0x3c84ce52	0.016211662
84	0x3b84b441	0.0040498083
85	0xbdff3f29	-0.12463219
86	0xbde84f71	-0.11343277
87	0x3dd96ba9	0.10616238
88	0xbd980544	-0.07422879
89	0x3d778589	0.060430083
90	0x3e10771c	0.14107937
91	0xbd7fe98b	-0.062478583
92	0xbd9ce983	-0.07661726
93	0x3d66e15e	0.05636727
94	0xba0c16fa	-0.0005344
95	0xbdb5b778	-0.088728845
96	0x3d020ec6	0.03175237
97	0x3dd6f45b	0.10495826
98	0xbc145228	-0.009052791
99	0xbb83b274	-0.004019076
100	0xbdcb95af	-0.09940659
101	0x3e12d96e	0.14340755
102	0x3db67faa	0.08911069
103	0x3c7ef3b0	0.015561029
104	0x3d90a5e2	0.0706289
105	0xbde0962a	-0.109661415
106	0xbdf18673	-0.11793222
107	0x3bb8080a	0.0056161927
108	0x3cbe9772	0.023265574
109	0x3e0a8a44	0.13529307
110	0xbdcaf180	-0.09909344
111	0x3d940924	0.07228306
112	0x3db45fe7	0.088073544
113	0xbe1215f6	-0.1426619
114	0x3db2fb7b	0.08739372
115	0x3cdc2118	0.02687125
116	0x3e07c9fa	0.13260642
117	0xbce694aa	-0.02814706
118	0xbcc0f130	-0.023552507
119	0x3dda4124	0.10656956
120	0xbd92f90f	-0.071764104
121	0x3cbfc901	0.023411276
122	0xbd512a34	-0.05106564
123	0x3e05ff4f	0.13085674
124	0x3d1da6aa	0.03848902
125	0x3d863ee1	0.06554962
126	0xbd14aabe	-0.036295645
127	0xbdcdd6f0	-0.10050762
128	0xbd4e3c88	-0.050350696
129	0x3ded6a0d	0.11592493
130	0xbce29d3a	-0.027662862
131	0x3cfc418e	0.030792978
132	0xbd4f7991	-0.050653044
133	0x3dcf8dfc	0.10134503
134	0x3cb5ac98	0.022177026
135	0xbcb2f9c8	-0.02184762
136	0xbd25d21d	-0.040483583
137	0xbd2b4703	-0.04181577
138	0xbd57fc8a	-0.052731074
139	0x3d80b70a	0.06284912
140	0x3d3108e8	0.043221384
141	0xbd9063b4	-0.07050267
142	0x3c8a850a	0.016909141
143	0xbc8738a4	-0.0165065
144	0x3cccf24c	0.02501788
145	0xbdb9ccf0	-0.09072292
146	0x3ddce227	0.10785323
147	0xbcc18886	-0.02362467
148	0xbd98e079	-0.0746469
149	0x3c0b8417	0.008515379
150	0xbd93e460	-0.072212934
151	0x3c79ddde	0.015250651
152	0x3d5a2949	0.05326203
153	0x3da32189	0.07965381
154	0xbe2159ed	-0.1575696
155	0xbad506a7	-0.0016252593
156	0xbe1b130c	-0.15143985
157	0xbdb59942	-0.08867122
158	0xbd5365b6	-0.05161067
159	0xbc6b658f	-0.014367475
160	0x3da3424f	0.07971632
161	0x3e1da7aa	0.1539599
162	0x3d34b229	0.04411522
163	0xbdae732b	-0.0851806
164	0xbe2b80b4	-0.16748315
165	0x3c185084	0.00929654
166	0xbd9e313b	-0.07724234
167	0x3d5cc2df	0.05389678
168	0xbdf5229d	-0.119694926
169	0x3db62efc	0.0889568
170	0xbd4c9ddd	-0.049955238
171	0x3dc0a0b2	0.0940565
172	0xbda94eae	-0.0826696
173	0x3dec3520	0.1153357
174	0x3de21272	0.110386744
175	0xbd364173	-0.04449601
176	0x3de0956d	0.10966001
177	0x3da50e58	0.080593765
178	0xbd050acb	-0.032480996
179	0x3d8cc3d2	0.06873287
180	0xbcd47177	-0.02593301
181	0xbba6b05d	-0.005086942
182	0x3e627fb3	0.22119026
183	0x3e3e125d	0.18561693
184	0x3dac4f67	0.08413582
185	0x3de4e57d	0.11176584
186	0xbd6ac4df	-0.057316657
187	0xbcabec67	-0.020986749
188	0xbe0efc6b	-0.13963477
189	0x3d8e4c4c	0.06948146
190	0x3ddf56b1	0.10905207
191	0x3daa1673	0.08305063
192	0x3deb2a0b	0.114826284
193	0x3e12c7ab	0.1433398
194	0x3d668259	0.056276653
195	0x3d9e8e16	0.077419445
196	0xbd76841f	-0.060184594
197	0xbe1b1af5	-0.15147002
198	0x3c3c284a	0.011484215
199	0x3e33571a	0.17513695
200	0x3daa1cad	0.08306251
201	0x3d2c5d03	0.04208089
202	0xbddf2e51	-0.10897506
203	0x3d016293	0.03158815
204	0x3d85ff86	0.06542878
205	0x3dea2a39	0.114338346
206	0x3ddf25cd	0.10895882
207	0xbdb8669d	-0.09003947
208	0x3db237c8	0.08702046
209	0x3dec1d6c	0.11529049
210	0x3d02d24b	0.031938832
211	0x3c88be0b	0.016692182
212	0x3d8363a1	0.06415487
213	0x3d688607	0.056768443
214	0xbdf5f569	-0.12009699
215	0x3cc4b368	0.024011329
216	0x3dc5c714	0.09657112
217	0x3d8e1e4b	0.06939372
218	0x3d614c7c	0.05500458
219	0xbdcd2517	-0.1001684
220	0x3bc49f5e	0.0060004434
221	0xbd87fbbd	-0.06639812
222	0x3dca7d92	0.09887232
223	0x3d70eef9	0.058821652
224	0xbe03a00b	-0.1285402
225	0x3e0ed0fa	0.13946906
226	0xbdefd129	-0.11709816
227	0x3bdc97e6	0.006731975
228	0x3d9a2e71	0.07528389
229	0xbdfe006a	-0.12402423
230	0xbcd1da2e	-0.025616731
231	0xbdb4f1b4	-0.08835164
232	0x3e288139	0.16455545
233	0xbcd046bd	-0.025424356
234	0xbdf5d3c0	-0.12003279
235	0x3ddd5e9d	0.10809062
236	0xbdb4e8a0	-0.08833432
237	0x3d565045	0.052322645
238	0xbd27cf59	-0.040969227
239	0xbdb8d54c	-0.09025058
240	0xbc3e1dd8	-0.011603795
241	0x3d959076	0.07302944
242	0x3e05f9ea	0.13083616
243	0xbc635382	-0.01387489
244	0xbd894499	-0.06702537
245	0xbd48e5fc	-0.049047455
246	0xbd4c451c	-0.049870595
247	0x3e04f607	0.12984477
248	0xbcf20ef5	-0.029548148
249	0x3d1b7119	0.037949655
250	0xbd6aeb23	-0.05735315
251	0x3c100a89	0.008791574
252	0xbdcc78d1	-0.099839814
253	0x3e2213d6	0.1582788
254	0xbcde0cac	-0.027105652
255	0xbde643b8	-0.11243385

encoder.encoder_net.0.bias f4 [500]
0	0xbdaee842	-0.085403934
1	0xbd6dddcf	-0.05807286
2	0xbd8e9a1c	-0.06962988
3	0xbbcf15f2	-0.0063197548
4	0x3d5db335	0.054125983
5	0x3e16e91d	0.14737363
6	0x3d0cf67b	0.03441475
7	0xbcea8b9c	-0.028631024
8	0x3d61760b	0.055044215
9	0xbbd3ecf0	-0.006467454
10	0xbd3b769d	-0.045767415
11	0x3d070422	0.032962926
12	0xbdfba617	-0.122875385
13	0xbbe1ea6c	-0.0068944003
14	0xbdb4d71a	-0.0883009
15	0x3e06289a	0.13101426
16	0xbde2ac0f	-0.11067974
17	0xbd33b24b	-0.043871205
18	0x3c84eb09	0.016225355
19	0xbd9fd92d	-0.07805095
20	0x3b0a0689	0.0021061024
21	0xbcaf13f7	-0.021371825
22	0xbe1c9fe0	-0.15295362
23	0xbdf8c272	-0.121464625
24	0x3de24e92	0.11050142
25	0xbd949037	-0.07254069
26	0xbc2828a4	-0.010263596
27	0xbd62bb25	-0.055354256
28	0xbdbcc565	-0.092173375
29	0x3dc18b89	0.09450442
30	0x3db1b7ca	0.08677633
31	0xbd21f6aa	-0.039541878
32	0x3d2639f6	0.04058262
33	0x3e10cced	0.14140673
34	0xbdc70678	-0.09718031
35	0xbd8e003f	-0.06933641
36	0xbd1a612b	-0.037690323
37	0x3baf1d9c	0.005344106
38	0xbc12a795	-0.0089510875
39	0x3d5bf124	0.053696766
40	0x3d96c22e	0.073612556
41	0x3d0f6137	0.03500482
42	0xbd872f29	-0.06600792
43	0xbb87dbb7	-0.004146065
44	0xbe05e61a	-0.13076058
45	0xbdc12e2f	-0.09432637
46	0xbd12f137	-0.03587457
47	0xbc743cf3	-0.01490711
48	0xbd559bea	-0.052150644
49	0xbd46d178	-0.04853961
50	0xbd667c84	-0.05627109
51	0xbdce51b7	-0.100741796
52	0x3ca49e6b	0.02009507
53	0x3d57d55c	0.05269371
54	0xbc736d3f	-0.014857589
55	0xbdbd6a02	-0.09248735
56	0x3cb1850b	0.021669885
57	0x3d3a56d8	0.045492977
58	0x3deaa84f	0.114578836
59	0x3c946b13	0.018117463
60	0x3e24c8d0	0.16092229
61	0x3db840a6	0.08996706
62	0x3dbc4210	0.09192288
63	0x3c756fb4	0.014980245
64	0x3cdb54dc	0.026773863
65	0xbd085b8f	-0.033290442
66	0x3dbfdb9e	0.093680605
67	0xbde2640f	-0.11054241
68	0xbda8bde7	-0.08239346
69	0x3dd5757b	0.10422798
70	0x3cf25d9f	0.029585658
71	0xbbf364dc	-0.007427795
72	0xbdc184b4	-0.09449139
73	0xb9e87a43	-0.0004434158
74	0xbdb9b84f	-0.09068357
75	0xbcd0d417	-0.025491757
76	0x3d6d2d76	0.057904683
77	0xbd836542	-0.06415798
78	0xbcf79594	-0.030222692
79	0xbc841b59	-0.016126322
80	0xbde9cceb	-0.11416038
81	0xbd995b50	-0.074881196
82	0x3dbfd3c6	0.093665645
83	0x3dcd8e61	0.10036922
84	0xbd244a00	-0.040109634
85	0xbe202fc5	-0.15643223
86	0x39c16404	0.00036886346
87	0x3c6d009c	0.014465477
88	0x3da90332	0.082525626
89	0x3d1f1899	0.038841818
90	0x3ddb717e	0.10715006
91	0x3d416cc7	0.04722288
92	0xbd51827a	-0.051149823
93	0x3cfc7a3b	0.030820003
94	0x3daad178	0.08340734
95	0x3e34cd84	0.17656523
96	0x3d3bc6c0	0.04584384
97	0xbd31ab0f	-0.043376025
98	0x3dbbaf84	0.09164336
99	0xbcbc1f6c	-0.022964202
100	0xbd88c382	-0.06677915
101	0xbdf03e08	-0.117305815
102	0xbd0ac27b	-0.033876877
103	0xbdb2357a	-0.08701606
104	0x3e1cb497	0.15303265
105	0x3d46e126	0.048554562
106	0x3c778db5	0.015109469
107	0x3d301786	0.042991184
108	0xbc8db770	-0.017299384
109	0xbc8b5b58	-0.01701133
110	0x3d42851a	0.047490217
111	0xbba8ae69	-0.0051477444
112	0x3cc09ee9	0.023513274
113	0x3daad79d	0.08341906
114	0x3e0ee50c	0.13954562
115	0xbd972675	-0.07380382
116	0x3d0fa91f	0.035073396
117	0xbd8a0890	-0.067399144
118	0xbd86df5b	-0.065855704
119	0x3dd1a7ad	0.1023706
120	0x3d6d0bc8	0.057872564
121	0xbd274b46	-0.04084327
122	0x3da7d92b	0.081957184
123	0x3c89b2d6	0.016808908
124	0x3c1fb72c	0.009748261
125	0xbd905e9a	-0.07049294
126	0x3e015fba	0.12634173
127	0xbd14e891	-0.036354605
128	0x3c671c56	0.014105877
129	0x3b3badc6	0.0028637513
130	0x3d7a5a95	0.061121542
131	0x3ddf261c	0.10895941
132	0xbd9cdd6f	-0.076594226
133	0x3e11ad25	0.14226206
134	0x3dc83f9d	0.09777758
135	0x3d510375	0.051028688
136	0x3d160883	0.03662921
137	0x3cce8444	0.025209554
138	0xbd292029	-0.041290436
139	0xbb81cbc6	-0.0039610593
140	0x3d864884	0.065568
141	0x3e047eda	0.12939015
142	0xb9ff66b3	-0.00048713907
143	0xbd510eca	-0.051039495
144	0xbde5d0a7	-0.11221438
145	0xbb11c4ba	-0.0022242502
146	0x3cabbbda	0.020963598
147	0xbcd83d0b	-0.026396295
148	0x3b85e964	0.00408666
149	0xbc5380c4	-0.012909118
150	0x3dca6d86	0.09884171
151	0xbc827fcb	-0.015930077
152	0x3e126a2a	0.14298311
153	0xbb2c736a	-0.002631391
154	0xbd2d4030	-0.042297542
155	0xbdbf8f02	-0.093534485
156	0xbc6002b0	-0.013672516
157	0x3daad83c	0.08342025
158	0x3e18cf61	0.14922859
159	0xbe161b42	-0.14658836
160	0xbdd31eb0	-0.103085876
161	0xbdadfc30	-0.084953666
162	0x3bb56ad6	0.0055364175
163	0x3c96b312	0.018395934
164	0xbc0486a8	-0.008088745
165	0x3df0d50c	0.117593855
166	0x3d77f76e	0.0605387
167	0x3d125b86	0.035731815
168	0xbdb0d768	-0.086348355
169	0x3d81e959	0.06343336
170	0x3d2e70dc	0.0425881
171	0x3de22640	0.11042452
172	0xbdba8e70	-0.09109199
173	0xbda204f0	-0.07911098
174	0xbde0d1fd	-0.10977552
175	0xbd7fed26	-0.06248202
176	0xbde983e2	-0.11402108
177	0xbe17a222	-0.14807943
178	0xbdfd1419	-0.12357349
179	0x3c6f2024	0.014595065
180	0xbe066d7e	-0.13127705
181	0xbdc77c65	-0.09740523
182	0x3d755891	0.059898917
183	0xbd98c95f	-0.074602835
184	0xbd10e642	-0.03537584
185	0xbdd06b9a	-0.10176773
186	0xbdce5e5b	-0.100765906
187	0x3da36b33	0.07979431
188	0x3d6172d6	0.055041157
189	0xbd917b55	-0.07103602
190	0x3caa15bd	0.020762319
191	0xbd8fb913	-0.07017722
192	0x3e0a67d6	0.13516173
193	0xbe09071a	-0.13381615
194	0x3d97482d	0.07386813
195	0xbde5d44b	-0.11222132
196	0x3d049a03	0.03237344
197	0xbe13494e	-0.14383432
198	0xbc7b4685	-0.015336637
199	0xbe0aaca2	-0.13542417
200	0xbdd5a835	-0.104324736
201	0xbe01ffd9	-0.12695254
202	0x3d5815fa	0.052755333
203	0x3dda1558	0.10648602
204	0xbd86fa6d	-0.06590734
205	0x3c056476	0.008141628
206	0x3e050930	0.12991786
207	0x3d9ba15e	0.07599138
208	0xbdf18ad8	-0.117940605
209	0x3d8a335c	0.06748077
210	0xbd276ae8	-0.040873438
211	0x3ba2c610	0.0049674585
212	0xbd17d041	-0.03706384
213	0x3cd8eb92	0.026479516
214	0x3d5fa219	0.054597948
215	0x3c8028e1	0.015644493
216	0xbd13d4df	-0.03609168
217	0xbdf8b1db	-0.12143298
218	0x3e04ccdb	0.12968771
219	0x3db89469	0.09012682
220	0xbdc4d883	-0.09611609
221	0x3c6c3ff7	0.014419547
222	0x3e2f84a4	0.17140442
223	0x3d280034	0.04101582
224	0x3d24a36c	0.040194914
225	0xbe06918c	-0.13141459
226	0xbb66b284	-0.0035201618
227	0x3dc97df6	0.09838478
228	0xbdc3be31	-0.095577605
229	0x3dabb75b	0.08384582
230	0x3dbc5a43	0.091969036
231	0x3dca3f66	0.098753735
232	0xbc232594	-0.00995769
233	0xbe13b24b	-0.14423482
234	0xbde152ef	-0.110021465
235	0xbd03ef85	-0.032210846
236	0x3deb44dc	0.11487743
237	0x3de5e08a	0.11224468
238	0x3da1111a	0.0786459
239	0x3d42b950	0.04754001
240	0x3c95b518	0.018274829
241	0x3d141ef9	0.03616235
242	0x3d060942	0.032723673
243	0x3db9ab56	0.09065883
244	0x3e0b98a6	0.1363245
245	0xbda6a8d4	-0.0813767
246	0x3c81fb16	0.015866797
247	0xbe0ae9d1	-0.13565756
248	0xbcb03d20	-0.021513522
249	0xbdf4ca4f	-0.1195265
250	0xbda0c612	-0.07850279
251	0x3c572a70	0.0131326765
252	0x3dbec8cb	0.09315642
253	0x3d349ea5	0.044096608
254	0xbda4551d	-0.080240466
255	0xbdba5f09	-0.09100158

encoder.encoder_net.2.weight f4 [100, 500]
0	0xbc2ed7bf	-0.010671555
1	0x3c52f116	0.012874862
2	0x3c4206f0	0.011842474
3	0x3c8b4a08	0.017003074
4	0xbc76233c	-0.015023049
5	0x3c83fb8f	0.016111163
6	0x3c2f4900	0.010698557
7	0x3c68a436	0.014199307
8	0xbdc3d584	-0.09562209
9	0xbca5a1be	-0.020218726
10	0x3c8acda8	0.016943768
11	0xbcba1ade	-0.02271789
12	0x3c5516b4	0.013005901
13	0xbc459f99	-0.012061977
14	0x3da2f168	0.07956201
15	0x3d1b4357	0.037906017
16	0xbba3e112	-0.0050011957
17	0x3c07ae12	0.008281248
18	0xbc6189c5	-0.013765757
19	0xbc329305	-0.01089931
20	0xbc315c1c	-0.010825183
21	0xbc532818	-0.012887977
22	0x3c11ccfa	0.008898968
23	0x3bac09e6	0.0052502034
24	0xbc8d991d	-0.017284924
25	0xbc7ab537	-0.015301994
26	0x3c6f00f4	0.01458763
27	0xbc37fb8f	-0.01122941
28	0x3c3d5a41	0.011557163
29	0x3bc01812	0.0058622444
30	0x3ca069a5	0.019581625
31	0xbc5884a2	-0.013215216
32	0x3c3b263d	0.011422691
33	0x3c734017	0.014846823
34	0x3c4597ca	0.012060115
35	0xbc3ea912	-0.011636989
36	0x3c2acbe4	0.010424588
37	0xbc45daeb	-0.01207612
38	0xbc4b4278	-0.012405984
39	0x3c77730f	0.015103116
40	0x3bb677ad	0.0055684657
41	0xbc4f49fc	-0.012651917
42	0x3ba7c1c0	0.0051195323
43	0x3c78f3c4	0.015194837
44	0xbca4efd3	-0.020133888
45	0xbc687539	-0.014188104
46	0xbc8ad9c0	-0.016949534
47	0xbc67dbfc	-0.014151569
48	0x3c24b9b5	0.010054042
49	0x3c9e29ee	0.019307103
50	0x3c86bcc0	0.016447425
51	0x3c805da4	0.015669651
52	0x3c68e7df	0.014215439
53	0x3d7a8ca7	0.061169293
54	0x3c01dde1	0.007926435
55	0xbc532932	-0.01288824
56	0x3b8fab9b	0.0043844706
57	0xbc88b0d7	-0.016685886
58	0xbca54ead	-0.020179117
59	0x3c42b9f3	0.011885154
60	0xbc11d599	-0.008901023
61	0x3bd5a1de	0.00651954
62	0xbb93c1f6	-0.004509206
63	0xbb3249a3	-0.0027204535
64	0xbc6cc7c8	-0.014451928
65	0xbc3a14c2	-0.011357488
66	0xbc8bd141	-0.017067553
67	0xbc24139e	-0.010014443
68	0xbc4dba06	-0.0125565585
69	0xbc7819cc	-0.015142869
70	0x3c61ae9f	0.013774543
71	0x3c8495a9	0.016184645
72	0x3c17f125	0.009273802
73	0xbcafca7a	-0.021458853
74	0xbc5560d1	-0.013023571
75	0xbc91b2c7	-0.017785443
76	0xbc8f439a	-0.01748829
77	0x3c814a20	0.015782416
78	0x3b483b52	0.0030552936
79	0x3c43d46e	0.011952503
80	0x3c1fb03e	0.009746609
81	0x3c692c98	0.014231823
82	0xbc396c82	-0.011317374
83	0xbc96b9f1	-0.01839921
84	0xbc400d39	-0.0117219025
85	0xbc71b51c	-0.0147526525
86	0x3bfa1e72	0.007633024
87	0x3ba5b847	0.005057368
88	0x3c45b48f	0.012066974
89	0x3ccf341b	0.0252934
90	0x3c830f4e	0.015998509
91	0xbc54e662	-0.012994381
92	0xbc9719aa	-0.018444855
93	0x3bf0b05a	0.0073452415
94	0xbc75d7d6	-0.015005073
95	0x3be36ae6	0.0069402335
96	0xbc1bf9b8	-0.009519987
97	0x3d9f85c9	0.07789189
98	0x3c50c3aa	0.012741962
99	0x3c0448da	0.00807401
100	0x3c1853a1	0.009297282
101	0x3c93af2f	0.01802787
102	0x3c2cedd9	0.010554754
103	0xbcd26005	-0.025680551
104	0xbc78e63c	-0.015191611
105	0x3c141ff0	0.009040818
106	0x39c7e5e8	0.0003812753
107	0x3c102686	0.008798247
108	0x3c6c1eba	0.014411623
109	0xb95228b3	-0.00020042322
110	0x3c5e8821	0.01358226
111	0xbc7eebde	-0.015559165
112	0xbc503b7c	-0.012709495
113	0xbca44dbd	-0.0200566
114	0xbc8ef7a2	-0.017452065
115	0x3bbe38f6	0.00580513
116	0x3c09ca4d	0.008410049
117	0x3c6f1d86	0.014594441
118	0x3b9f9ab7	0.0048707384
119	0x3c382280	0.011238694
120	0x3bbe4e02	0.005807639
121	0xbc9a6c63	-0.018850511
122	0x3c707e49	0.014678546
123	0x3c434ea0	0.011920601
124	0x3c48acad	0.0122482
125	0x3c037e87	0.008025772
126	0xbc4729e9	-0.012155988
127	0xbc815fe5	-0.015792796
128	0x3c82025b	0.015870264
129	0xbc5c7269	-0.013455012
130	0x3c705c38	0.014670424
131	0xbc8fe13e	-0.017563459
132	0x3c236e14	0.009974975
133	0x3c34d1f6	0.011036387
134	0xbc86d370	-0.016458243
135	0x3c3d147b	0.011540527
136	0x3bcc27ee	0.006230346
137	0x3c860e8c	0.016364358
138	0xbc3baee5	-0.011455272
139	0xbc2d8423	-0.010590586
140	0xbbcbce46	-0.006219658
141	0xbcab5b8f	-0.020917682
142	0x3bcd64f3	0.0062681376
143	0xbc585549	-0.013203927
144	0xbb420615	-0.0029605676
145	0xbbf84c5b	-0.0075774617
146	0x3c5442a1	0.012955339
147	0x3c2c4b87	0.010516054
148	0xbc87c1f8	-0.016571984
149	0xbc5aa672	-0.013345348
150	0xbc26ad7f	-0.010173201
151	0xbc9efebb	-0.019408574
152	0x3c099ac3	0.0083987145
153	0xbca58838	-0.020206556
154	0x3c10d468	0.008839704
155	0x3c60950e	0.013707412
156	0x3bbf05bd	0.0058295415
157	0xbcc216d0	-0.023692518
158	0xbb54485b	-0.003239176
159	0xbc213c9f	-0.009841113
160	0xbc3281bb	-0.010895188
161	0x3bedbcf8	0.007255193
162	0x3ca0e55f	0.019640623
163	0x3c53ed1a	0.012934947
164	0x3c1c6538	0.009545617
165	0x3c40f1db	0.011776413
166	0x3c1413bf	0.009037911
167	0xbbe28348	-0.0069126226
168	0x3b7b51c1	0.003834829
169	0xbc41ae93	-0.011821407
170	0xbcb43c44	-0.022001393
171	0x3c52deaf	0.012870475
172	0x3c2df903	0.010618451
173	0xbc45d904	-0.012075666
174	0xbc99b755	-0.018764177
175	0x3c16d968	0.009207107
176	0xbbd44687	-0.006478134
177	0xbc8d6458	-0.017259762
178	0x3c8b7081	0.01702142
179	0xbc3c8ec5	-0.011508648
180	0xbc85627c	-0.016282313
181	0xbc9dacec	-0.019247495
182	0xbc0a7ac7	-0.008452124
183	0x3c212931	0.009836481
184	0x3ae55f0d	0.0017499641
185	0xbcbf7b39	-0.023374187
186	0x3bb7a018	0.0056038015
187	0xbca1cfb1	-0.019752355
188	0x3c801510	0.015635043
189	0xbc15c3b5	-0.0091408985
190	0xbc9f3722	-0.019435469
191	0x3c1c5e5e	0.009543983
192	0x3c839e12	0.016066585
193	0x3ca71334	0.020394899
194	0x3b4d0bee	0.0031287628
195	0xbc58bbd4	-0.013228375
196	0xbc24c837	-0.010057501
197	0x3c5198b9	0.01279276
198	0x3c716012	0.014732378
199	0xbc713417	-0.014721892
200	0xbc86c6f6	-0.016452294
201	0xbc2dccd2	-0.010607915
202	0xbc0ce578	-0.0085996315
203	0xbc96d8cb	-0.018413922
204	0x3c2332f6	0.0099608805
205	0xbc6833d5	-0.014172514
206	0x3bdad08d	0.006677693
207	0x3c6e09b7	0.014528683
208	0x3c4c7a80	0.012480378
209	0x3cf104c6	0.029421221
210	0x3cb741ef	0.022370307
211	0xbc8b81c3	-0.017029649
212	0xbc864c13	-0.016393697
213	0xbc98f609	-0.018672006
214	0xbc63d687	-0.013906128
215	0xbc329518	-0.0108998045
216	0x3c602a54	0.013681967
217	0x3c005741	0.007833303
218	0x3c784b70	0.015154704
219	0x3c898063	0.016784852
220	0xbcc28bc3	-0.023748284
221	0x3c3256cd	0.010884953
222	0x3c3c0eb8	0.011478119
223	0x3b9ad04a	0.004724537
224	0xbc432924	-0.011911664
225	0x3c3c09a6	0.01147691
226	0x3ca517bf	0.020152925
227	0xbc74b42f	-0.014935537
228	0xbc955cc2	-0.018232707
229	0x3c70d3d6	0.014698943
230	0x3c81ff6a	0.015868861
231	0xbc3fd8cf	-0.011709406
232	0xbc93a3fb	-0.018022528
233	0xbca69c2c	-0.02033814
234	0x3c55397f	0.013014196
235	0x3c443e72	0.011977779
236	0xbcb59ebb	-0.022170415
237	0xbd912519	-0.07087154
238	0x3c873819	0.016506242
239	0x3c3025ec	0.010751229
240	0x3ba4412b	0.0050126514
241	0xbc17d0ae	-0.009266062
242	0xbc96b5d1	-0.018397244
243	0x3a799a59	0.0009521596
244	0x3c451b04	0.012030367
245	0x3c021145	0.007938688
246	0xbc75db77	-0.015005938
247	0xbc551400	-0.013005257
248	0xbc63477a	-0.013872022
249	0x3c7dbc5b	0.015486802
250	0x3b0e91f3	0.0021754473
251	0x3d14d68f	0.03633743
252	0xbc976f9c	-0.018485837
253	0x3b2b1eea	0.0026110956
254	0xbc70c750	-0.014695957
255	0xbc482e51	-0.012218074

encoder.encoder_net.2.bias f4 [100]
0	0xbd905c79	-0.07048888
1	0xbd373072	-0.044723935
2	0xbcd9e7be	-0.026599761
3	0x3c53fc88	0.012938626
4	0xbd943ca5	-0.072381295
5	0xbc8f684b	-0.017505785
6	0xbdc63310	-0.09677708
7	0xbdaeeb60	-0.08540988
8	0x3d34ef7f	0.044173714
9	0xbd781531	-0.060567085
10	0xbdf5a5e8	-0.11994535
11	0x3e6719aa	0.22568384
12	0x3c7bd9cb	0.01537175
13	0x3cbb2623	0.022845333
14	0xbdd4edc9	-0.103969164
15	0x3d534042	0.051574953
16	0x3ce5fd69	0.028074937
17	0xbd9599eb	-0.07304748
18	0x3e635bf4	0.22203046
19	0xbd550e1f	-0.05201542
20	0xbda8008d	-0.0820323
21	0xbd825d72	-0.063654795
22	0x3c174964	0.009233806
23	0x3e01c158	0.12671411
24	0xb9e077ae	-0.00042813778
25	0x3cdfb5dd	0.027308399
26	0xbd9f308c	-0.077729315
27	0x3d9a6ebb	0.075406514
28	0x3cc57617	0.024104161
29	0xbd24d335	-0.040240485
30	0x3cf347a9	0.029697256
31	0xbe0b38eb	-0.13595931
32	0x3e2743eb	0.16334502
33	0x3ca3c8c9	0.019993203
34	0x3b6e57bc	0.0036368212
35	0xbd2ebde3	-0.04266156
36	0xbe09583e	-0.13412568
37	0xbdac5044	-0.08413747
38	0xbdb45d64	-0.08806875
39	0x3bf80431	0.007568859
40	0x3df6c182	0.120486274
41	0xbae25cd4	-0.0017270097
42	0xbd9b4fbf	-0.0758357
43	0xbe496d61	-0.19670631
44	0xbddaadf4	-0.1067771
45	0x3cd6b8e5	0.026211211
46	0x3e824d73	0.25449714
47	0x3c8debaf	0.017324297
48	0xbb41af8c	-0.0029554097
49	0x3d90c86e	0.07069479
50	0xbd9b8bde	-0.07595037
51	0xbd972c6b	-0.07381519
52	0xbc9045a2	-0.017611329
53	0xbd5cfea6	-0.05395379
54	0xbdda43ca	-0.10657461
55	0x3da155d8	0.078777015
56	0xbc577bbb	-0.013152058
57	0xbd14cdbd	-0.03632902
58	0xbdefebae	-0.11714874
59	0xbd5cd363	-0.05391253
60	0x3d3fc3bd	0.04681753
61	0xbd87a90e	-0.066240415
62	0x3c0bcac9	0.0085322345
63	0xbd3898d7	-0.045067634
64	0xbd7f4082	-0.06231738
65	0xbd08ec5e	-0.033428542
66	0xbdd0acd3	-0.101892136
67	0xbd99505e	-0.07486032
68	0xbdd231a8	-0.102633774
69	0x3b75912c	0.0037470562
70	0xbcd5ffeb	-0.026123008
71	0xbc9abd6d	-0.018889153
72	0x3be9717d	0.0071241246
73	0xbe4aded6	-0.19811568
74	0xbd1630e8	-0.036667734
75	0xbe5d9072	-0.21637133
76	0x3d4f12e6	0.050555132
77	0xbdbd57db	-0.09245273
78	0x3e483aba	0.19553652
79	0xbdbb5cc7	-0.09148555
80	0xbd968750	-0.073500276
81	0xbda85e59	-0.082211204
82	0x3d9e5fd2	0.0773312
83	0xbd9fbb5b	-0.07799407
84	0xbdbd9ab9	-0.09258027
85	0x3c3b381e	0.011426954
86	0x3d854fde	0.06509374
87	0xbd5d29ef	-0.05399507
88	0xbd5db515	-0.05412777
89	0xbd51b13a	-0.051194407
90	0xbdb6cbee	-0.08925615
91	0xbdb6826c	-0.08911595
92	0xbd0a970f	-0.033835467
93	0xbcd016b7	-0.025401456
94	0x3d7b7c79	0.061398003
95	0xbdf5d553	-0.12003579
96	0xbeca2856	-0.394839
97	0x3b60cc5d	0.0034301498
98	0xbe029d43	-0.12755303
99	0xbc8fb210	-0.017540962

encoder.mu_net.weight f4 [3, 100]
0	0xbbbe4eb3	-0.0058077215
1	0x3c7074bf	0.014676272
2	0xbc9871cf	-0.018608956
3	0xbc314e8b	-0.010821949
4	0x3bd1344f	0.0063844095
5	0xbc12d3ed	-0.00896166
6	0xbc472dec	-0.012156945
7	0xbb87505b	-0.004129452
8	0xbaa5a46e	-0.0012637505
9	0xbc9dd7cb	-0.019267937
10	0xbd0828b2	-0.033241935
11	0x3bc74448	0.006081138
12	0x3bf8ea4a	0.007596289
13	0xbb125a0b	-0.0022331502
14	0x3d876f01	0.06612969
15	0xbc0b0528	-0.008485116
16	0xbbc84e13	-0.006112823
17	0xbc1b7345	-0.009487932
18	0xbd49331d	-0.04912101
19	0xbcbf7a1b	-0.023373654
20	0xbb113ce4	-0.0022161538
21	0xbc03f97f	-0.00805509
22	0x3c0f7c39	0.008757644
23	0x3c44b308	0.012005575
24	0x3c4be9a1	0.012445838
25	0x3c2abdad	0.010421199
26	0xbcdcd3b9	-0.026956426
27	0x3b82093d	0.0039683864
28	0xbbf0c495	-0.007347653
29	0xbc9002ae	-0.017579403
30	0x3a99a6e4	0.0011722711
31	0xba9071d4	-0.0011020252
32	0x3a720865	0.0009232818
33	0x3bb9dd1c	0.0056721102
34	0x3bc96262	0.0061457613
35	0x3a5525fc	0.0008130965
36	0x3c09b34c	0.008404564
37	0xbc4ea673	-0.012612927
38	0x3c6a87eb	0.014314632
39	0xbcef08a2	-0.029178921
40	0x3d652901	0.055947307
41	0x3b8947fd	0.00418949
42	0xbbc1ecad	-0.0059181065
43	0xbc0ae2bc	-0.008476909
44	0x3c950770	0.018192023
45	0xbc3fe682	-0.011712672
46	0x3c113df6	0.00886487
47	0x3c65ecd0	0.014033511
48	0x3cedc13b	0.029022804
49	0xbc231600	-0.009953976
50	0x3b753994	0.0037418352
51	0x3acac8ed	0.0015471258
52	0xbc0fb921	-0.0087721655
53	0x3c23a0f8	0.009987108
54	0x3a5311ee	0.0008051683
55	0xbb59d633	-0.0033239245
56	0x3a346669	0.00068817154
57	0x3a8ee717	0.001090261
58	0xbba2b990	-0.0049659684
59	0x3bae2a5d	0.0053151087
60	0xbab2856d	-0.0013620086
61	0xbb56fa5e	-0.003280304
62	0x3b4df474	0.0031426223
63	0x3bd8908a	0.0066090273
64	0xbc350503	-0.011048558
65	0x3bc10b14	0.005891213
66	0xbc8e000e	-0.01733401
67	0xbc2ed9e8	-0.01067207
68	0xbbe6f8ac	-0.007048687
69	0xbc9b157b	-0.018931141
70	0xbc9ec4da	-0.019380976
71	0x3b8a157b	0.0042139865
72	0xba47d145	-0.0007622431
73	0x3a8eb0c1	0.0010886417
74	0x3c8f73a4	0.017511196
75	0x3b0c8260	0.0021440014
76	0x3ca7e700	0.020495892
77	0xbd2b7027	-0.041855004
78	0xbce15f02	-0.027511124
79	0x3c2aadda	0.010417426
80	0xbc57c92b	-0.013170521
81	0x3bbbd99d	0.0057327286
82	0x3c208c17	0.009799025
83	0x3a8e08ff	0.0010836421
84	0xbc0f7282	-0.008755328
85	0xbccf6b90	-0.025319844
86	0xbca17b73	-0.019712185
87	0xbbe28808	-0.006913189
88	0xbae5bcd1	-0.0017527585
89	0x3be0185b	0.006838841
90	0x3ac1b1d1	0.0014777725
91	0xbb103de8	-0.0022009555
92	0x3c1c7b9b	0.009550954
93	0xbc903455	-0.017603079
94	0x3bc4c37c	0.006004749
95	0x3d01bd83	0.031674873
96	0x3dd01733	0.10160675
97	0x3c0b94d7	0.008519373
98	0xbc823614	-0.015894927
99	0xbaeb61fe	-0.0017958281
100	0x3b09b60d	0.0021013052
101	0x39557c93	0.0002035967
102	0x3b1f95f8	0.0024350863
103	0x396bb538	0.00022478856
104	0x39acd841	0.00032967518
105	0x392b3d56	0.0001633068
106	0x3bc187d0	0.0059060827
107	0x3af41993	0.0018623344
108	0x39a155ab	0.0003077214
109	0x3ba1f864	0.0049429405
110	0x3ba9c7d7	0.0051812935
111	0x38444154	4.6790883e-05
112	0x399f07c4	0.0003033263
113	0xb78fa229	-1.712244e-05
114	0x39997bde	0.00029274722
115	0xb89a2f14	-7.352061e-05
116	0x399578e5	0.00028509568
117	0x3b3f2442	0.0029165898
118	0x394631c0	0.00018901285
119	0x3ab9e998	0.0014183996
120	0x3b70a424	0.003671893
121	0x3b2b99ca	0.0026184195
122	0x39cb13a2	0.00038733805
123	0x3a382cbe	0.000702571
124	0x39345fc4	0.00017201813
125	0x38099193	3.2798922e-05
126	0x3985ac0d	0.00025495925
127	0x38d751a7	0.00010267208
128	0x390b7a4d	0.00013301634
129	0xbd34ceb0	-0.044142425
130	0x38a3c1fe	7.8085795e-05
131	0x3bbc9ba8	0.0057558604
132	0x3bcea9a1	0.0063068424
133	0x38c0c6ff	9.192339e-05
134	0x39d7e4e2	0.00041178527
135	0x3954816b	0.00020266107
136	0x3976fe77	0.00023555184
137	0x39262e9c	0.00015848357
138	0x3c9d744e	0.019220497
139	0xb906a510	-0.00012840726
140	0x39a752b6	0.00031914347
141	0x3962b331	0.00021619794
142	0x395d2448	0.00021089718
143	0x3b769dda	0.0037630708
144	0x3a3a0071	0.00070954027
145	0x3a15a7e8	0.0005708919
146	0x3c4a332e	0.012341304
147	0x38d6c456	0.000102408856
148	0x399ab32f	0.0002950667
149	0xb81edf6f	-3.7878224e-05
150	0x39a25649	0.00030963335
151	0x3b9f247a	0.0048566433
152	0xb67bb5c8	-3.7507725e-06
153	0x396c3cd3	0.00022529373
154	0x3b3f8999	0.0029226302
155	0xb6544238	-3.1629006e-06
156	0x3b131013	0.002244
157	0x3934f634	0.00017257856
158	0x3c96d12d	0.01841029
159	0x3905ed90	0.00012772367
160	0x38cb25d7	9.6868425e-05
161	0x39078acb	0.00012926308
162	0x39f36d5f	0.0004643006
163	0x39a27859	0.00030988714
164	0x395db18e	0.00021142347
165	0x3986b6d4	0.0002569469
166	0x39a5f3d9	0.00031652933
167	0x39e6c9d6	0.00044019398
168	0x3b91987d	0.004443227
169	0x3970c6e2	0.00022962273
170	0x394a30fd	0.00019282471
171	0x3914e3f4	0.00014199299
172	0x39a03114	0.00030554144
173	0x3ba3c686	0.004998031
174	0x398cc4c1	0.00026849474
175	0x3a2d6577	0.0006614546
176	0x39ebe7cf	0.00044995404
177	0x391f7727	0.0001520781
178	0xbb81a8b2	-0.0039568776
179	0x3b8f7833	0.0043783425
180	0x3b403d98	0.0029333588
181	0x392e9942	0.00016651026
182	0x38d55cd8	0.00010173925
183	0x3b4a6e2b	0.003088842
184	0x39280ec7	0.00016027234
185	0xba9b83d3	-0.0011864848
186	0xb92ab7f0	-0.00016280985
187	0x3923ba71	0.00015614346
188	0x399ef62c	0.0003031952
189	0x3b589aeb	0.0033051323
190	0x3b274a9f	0.0025526655
191	0x3b8166dd	0.00394903
192	0x394cc687	0.00019528913
193	0x370f275a	8.532626e-06
194	0x3994e34f	0.00028398118
195	0x3ab9f9b5	0.0014188798
196	0xbba5833f	-0.005051046
197	0x39ae985f	0.00033301392
198	0x3b68a9fa	0.0035501705
199	0x390fda1b	0.00013718793
200	0xbb0287e6	-0.0019917428
201	0x3c4ce317	0.012505314
202	0xbc076958	-0.008264862
203	0x3d067cea	0.03283397
204	0x3cc72862	0.024311248
205	0x3cc57749	0.024104731
206	0xbb13a73a	-0.0022530095
207	0xbc244071	-0.01002513
208	0x3c11db93	0.008902448
209	0x3bc1833c	0.005905537
210	0x3b24bab4	0.0025135698
211	0x3c245de6	0.010032153
212	0x3c4282d4	0.011872012
213	0xbbc958d1	-0.006144621
214	0x3d68405c	0.056702003
215	0xbc55aec4	-0.013042156
216	0x3c3fa2f3	0.011696565
217	0xbbf40136	-0.0074464334
218	0x3c926660	0.017871082
219	0xbb78fbfb	-0.003799199
220	0x3c8a6e16	0.016898196
221	0xbbdb8234	-0.006698871
222	0x3a9e7b23	0.0012091141
223	0xbc72f054	-0.0148278065
224	0xbb938847	-0.0045023295
225	0xbc0f3de0	-0.0087427795
226	0xbc7ca426	-0.015419995
227	0x3b7b6b14	0.0038363384
228	0x3cfab906	0.030605804
229	0xbc62495e	-0.013811437
230	0xbc87bab7	-0.016568525
231	0x3c19532e	0.0093582105
232	0x3bf086c8	0.007340286
233	0xbc7ce7cf	-0.015436127
234	0xb98f48f1	-0.0002732943
235	0x3c4182d6	0.011810979
236	0x3b0f1305	0.0021831405
237	0xbc2e091b	-0.010622288
238	0xbd224024	-0.03961195
239	0xbc7244f4	-0.0147869475
240	0x3d236dc1	0.03989959
241	0x3c34f9fd	0.01104593
242	0xba86c7f9	-0.0010282985
243	0xbc174e3b	-0.00923496
244	0x3ca649eb	0.020298919
245	0x3cf46569	0.029833512
246	0x3c8a00ce	0.016846087
247	0xbc62d1d2	-0.01384397
248	0xbb87b1fe	-0.0041410914
249	0xbc9e6955	-0.019337336
250	0xbb613af4	-0.0034367414
251	0x3bab2d60	0.005223915
252	0x3d15de4b	0.03658895
253	0x3c753692	0.014966624
254	0x3c0f142c	0.008732837
255	0xbca4f79f	-0.020137606

encoder.mu_net.bias f4 [3]
0	0x3d71326d	0.05888598
1	0xbcd4af2f	-0.02596244
2	0x3cecfd46	0.028929364

encoder.log_var_net.weight f4 [3, 100]
0	0xbcfd0f9b	-0.03089123
1	0xbda2d7c1	-0.07951308
2	0x3d053cc2	0.032528646
3	0x3d907aba	0.07054658
4	0x3d0e5091	0.034744803
5	0x3d490a49	0.049082074
6	0x3d4a2a11	0.049356524
7	0xbd0fbbe4	-0.035091296
8	0xbcdf984a	-0.027294297
9	0xbab97373	-0.0014148786
10	0x3c310d42	0.010806384
11	0x3d184ad9	0.037180755
12	0xbc43ab07	-0.011942632
13	0xbace492b	-0.0015738358
14	0xbd8fe559	-0.070261665
15	0xbcf9c23f	-0.030488132
16	0xbcd6ed3d	-0.02623617
17	0xbc3b051b	-0.011414791
18	0xbeb7f7d2	-0.3593126
19	0x3cf6f919	0.030148076
20	0x3dbb83c1	0.091559894
21	0x3d2b3b89	0.041804824
22	0x3ca69a07	0.020337118
23	0xbcfc29ef	-0.030781714
24	0x3deec909	0.11659438
25	0xbda36bae	-0.07979523
26	0x3c9c4524	0.019075938
27	0x3d470f40	0.048598528
28	0xbbd2612e	-0.006420276
29	0xbd2b3748	-0.041800767
30	0x3c9d3c07	0.019193662
31	0x3c41da76	0.01183187
32	0xbd8b7375	-0.06809131
33	0xbc84c537	-0.01620732
34	0x3dc4e714	0.09614387
35	0xbc41bd91	-0.011824981
36	0xbdb7e32d	-0.08978877
37	0x3cc710cd	0.024300003
38	0x3b57c54c	0.0032923995
39	0xbd973c51	-0.07384551
40	0x3d62ebdd	0.055400718
41	0x3c98e5fa	0.018664349
42	0x3dc8c7a1	0.09803701
43	0xbbdf535f	-0.0068153585
44	0x3d9ec328	0.07752067
45	0xbb0a2d14	-0.0021083998
46	0xbd579f17	-0.052641954
47	0xbd3cdec2	-0.046110876
48	0x3d890aa8	0.06691486
49	0x3cd6a83e	0.026203271
50	0x3d3e49ae	0.046456985
51	0x3c985101	0.018593313
52	0x3bb15f4d	0.005412972
53	0x3cd682d4	0.02618543
54	0x3dca0a05	0.09865192
55	0xbc11c5ba	-0.008897239
56	0x3dcfbcc7	0.10143428
57	0x3dc78575	0.09742252
58	0xbdde3384	-0.108496696
59	0x3aa982ed	0.0012932696
60	0x3d2f62e6	0.042818926
61	0xbdb39407	-0.08768468
62	0x3d513b3a	0.051081873
63	0x3c3e9797	0.0116328215
64	0xbd7785b8	-0.06043026
65	0x3c38fa82	0.0112901945
66	0xbc36c520	-0.011155397
67	0x3c92cb6b	0.017919263
68	0x3cc2434c	0.02371373
69	0x3c006b6f	0.007838114
70	0x3cabd69d	0.020976359
71	0xbd0efbf2	-0.034908243
72	0xbda9c5de	-0.08289693
73	0x3c41c76a	0.011827329
74	0xbd50501b	-0.050857645
75	0xbd2418b3	-0.040062618
76	0x3db20bd4	0.08693662
77	0x3dc2c5c1	0.09510375
78	0x3d8b9b3c	0.06816718
79	0x3cf43510	0.029810458
80	0x3d93f710	0.07224858
81	0xbdde743e	-0.10862015
82	0xbb2cc42c	-0.0026362045
83	0x398c1103	0.00026715556
84	0x3d01a14b	0.03164796
85	0xbc961c49	-0.018324034
86	0x3cf77c4d	0.030210638
87	0x3d6df321	0.058093194
88	0xbd841d0a	-0.06450851
89	0x3ccaed06	0.024771225
90	0xbc80bca5	-0.015714953
91	0xbd6e0bc7	-0.0581167
92	0xbd1baf37	-0.038008895
93	0xbac67723	-0.0015141707
94	0x3c294f71	0.010333882
95	0x3e08688c	0.13321131
96	0x3f236748	0.6382947
97	0x3d2483c7	0.040164735
98	0x3c91e2ef	0.017808406
99	0xbcdf1322	-0.027230803
100	0x3c3dbf21	0.011581213
101	0x3c831a2f	0.016003696
102	0x3d68561a	0.056722738
103	0x3b904bbb	0.004403559
104	0x3ce2ee80	0.027701616
105	0xbcdb408e	-0.02676418
106	0x3da1ebf5	0.07906333
107	0x3ca9cb0b	0.020726701
108	0x3d891a14	0.06694427
109	0x3ceb5e70	0.028731555
110	0x3dc039cd	0.093860246
111	0x3c87a07e	0.01655602
112	0x3d45d7b0	0.0483014
113	0xbd15731e	-0.036486737
114	0xbddfcae9	-0.10927374
115	0xbdbacb30	-0.09120786
116	0x3d10767f	0.035269257
117	0x3c1e77a0	0.0096720755
118	0xbe9bebad	-0.30453244
119	0x3d707d81	0.05871344
120	0x3d648ecc	0.055800244
121	0x3d3f1b75	0.046657044
122	0x3e0731df	0.13202618
123	0xbdc2a660	-0.0950439
124	0x3dbdd82d	0.09269748
125	0x3c98e103	0.018661981
126	0xbaac0ad8	-0.001312579
127	0x3c6a4518	0.0142987
128	0xbd82760e	-0.063701734
129	0xbddd13e1	-0.10794807
130	0x3c9102df	0.017701564
131	0x3cdf760a	0.027277965
132	0xbdb00faf	-0.085967414
133	0x3cc8395d	0.024441415
134	0x3e07edc2	0.13274291
135	0xbcf09ace	-0.029370692
136	0x3ac9e9a3	0.0015404712
137	0xbcaaedf4	-0.020865418
138	0x3ea59cda	0.3234623
139	0xbd7ade47	-0.061247136
140	0xbe53fdb4	-0.20702249
141	0x3d0e6acb	0.034769814
142	0x3d92f6c0	0.0717597
143	0x3d7bd6c6	0.06148412
144	0x3c9d5b59	0.019208597
145	0x3dc49ea1	0.096005686
146	0xbe96155d	-0.29313174
147	0x3cc7a5d9	0.024371075
148	0x3dec95bd	0.11551998
149	0xbdc62086	-0.09674172
150	0xbd381770	-0.044944227
151	0x3d70e696	0.058813654
152	0xbdfad5b7	-0.12247794
153	0x3d5a1e2c	0.05325143
154	0x3d201af0	0.03908819
155	0xbcb0d719	-0.021586942
156	0xbc08fb4f	-0.008360698
157	0x3d119fbd	0.03555273
158	0xbe6ccf07	-0.2312585
159	0xbd5a86c1	-0.053351168
160	0x3d6e6ffd	0.05821227
161	0xbcea2a27	-0.028584553
162	0x3dba8085	0.091065444
163	0x3d8b85f5	0.0681266
164	0xbd055b6c	-0.03255789
165	0x3d0de3c2	0.034641035
166	0x3d5a2ad9	0.05326352
167	0x3d51a6e0	0.051184535
168	0x3d8ad09a	0.06778069
169	0xba9d1422	-0.001198415
170	0x3bceb82b	0.0063085756
171	0x3d6fa31c	0.058505163
172	0x3d2c577f	0.04207563
173	0x3da22f25	0.07919148
174	0x3cd77a77	0.026303513
175	0x3f17ebe9	0.59344345
176	0x3dda43f7	0.106574945
177	0xbd101f26	-0.035185955
178	0xbe7cd1fe	-0.2468948
179	0x3cdc03f6	0.026857357
180	0x3da709ff	0.081562035
181	0xbdaa861b	-0.0832636
182	0xbc044236	-0.008072427
183	0x3c27ed0a	0.010249386
184	0xbd849321	-0.06473375
185	0xbddaa83a	-0.10676618
186	0xbdabd4f9	-0.08390231
187	0xbd76af6f	-0.0602259
188	0x3d333d4a	0.04375962
189	0x3d355f9e	0.04428064
190	0x3d29a796	0.041419588
191	0x3c62ad92	0.013835328
192	0xbce3e687	-0.027819885
193	0xbd71f6e6	-0.05907335
194	0x3d9b1bfe	0.075736985
195	0x3d8777ec	0.0661467
196	0x40411e6d	3.017482
197	0x3df14487	0.11780649
198	0x3d447d03	0.047970783
199	0x3cfdf93a	0.03100263
200	0xbc92bc60	-0.01791209
201	0xbd36c498	-0.04462108
202	0xbc8fd4eb	-0.017557582
203	0x3cb0cee2	0.021583024
204	0xbc8b0b38	-0.016973123
205	0x3be6f13c	0.0070478003
206	0x3d1abcb3	0.037777614
207	0x3c1b15f8	0.009465687
208	0x3ceaa218	0.028641745
209	0x3d4280f8	0.047486275
210	0xbd6d47bd	-0.057929743
211	0x3cef83fa	0.029237736
212	0xbc682783	-0.014169577
213	0xbb283a98	-0.002566969
214	0x3d5bd837	0.053672995
215	0xbdac1c0a	-0.084037855
216	0x3c926a56	0.01787297
217	0x3b0342ff	0.0020028946
218	0xbed8edca	-0.4236892
219	0x3d01cad3	0.03168757
220	0xbb2a63cf	-0.0025999432
221	0xbb74c65e	-0.0037349681
222	0x3d88240c	0.066475004
223	0xbd20aa7d	-0.03922509
224	0x3df1b9b3	0.118029974
225	0xbdb9fd7d	-0.09081552
226	0xbd154b72	-0.036448903
227	0x3d625619	0.05525789
228	0xbcfd6e9b	-0.03093653
229	0xbd274f34	-0.04084702
230	0xbc68e07b	-0.014213677
231	0xbc6ecc01	-0.0145750055
232	0xbcd210a3	-0.025642699
233	0xbbbbfbaf	-0.00573679
234	0x3d84bf1c	0.06481764
235	0xbc6d3ef6	-0.014480343
236	0xbe0be558	-0.13661706
237	0x3de8623e	0.11346863
238	0x3c99a3d6	0.01875488
239	0xbcea8442	-0.028627519
240	0xbbaaba81	-0.0052102213
241	0xbd00717a	-0.03135822
242	0x3e212e72	0.15740374
243	0x3b9c7f65	0.004775929
244	0x3d083944	0.033257738
245	0x3ceee445	0.029161582
246	0xbcdc32c0	-0.026879668
247	0xbba8000d	-0.005126959
248	0x3dd45c55	0.103691734
249	0xbd59349e	-0.053028695
250	0x3d897af8	0.067129076
251	0x3cd68739	0.026187526
252	0xbbe187f6	-0.006882663
253	0x3aa71584	0.0012747501
254	0x3d6d2715	0.0578986
255	0xbcd1142f	-0.02552232

encoder.log_var_net.bias f4 [3]
0	0xbfe49b6f	-1.7859935
1	0xc0917f35	-4.546778
2	0xbfe597d8	-1.7936964

nn_model.net.0.weight f4 [10, 5]
0	0x3f0c5a62	0.54825413
1	0xbe998419	-0.29983595
2	0xb9a8f051	-0.00032222507
3	0x3f5f71f5	0.8728326
4	0xb9b7e1f6	-0.00035072834
5	0x3b7ab40f	0.0038254296
6	0xbfb79d6b	-1.4344915
7	0xb71d7a5c	-9.386418e-06
8	0x3f1fb2eb	0.6238238
9	0xb794a3e0	-1.7719285e-05
10	0x3d077857	0.03307375
11	0xbfbee839	-1.4914619
12	0x39d41c7a	0.00040457008
13	0x3fe7123c	1.805244
14	0x3993e8d4	0.00028211495
15	0xbe092802	-0.13394168
16	0xbf61d0dc	-0.8820932
17	0xb95df8e3	-0.0002116892
18	0x3ff0866d	1.8791023
19	0x3a6017c9	0.0008548466
20	0xbd908ba2	-0.07057883
21	0xbf2bcfec	-0.6711414
22	0xba5dec7c	-0.000846572
23	0xbfcf7800	-1.6208496
24	0xba7d2680	-0.0009656921
25	0x3ed595b0	0.41715765
26	0xbf2e7fe2	-0.68163884
27	0xba0014fb	-0.0004885939
28	0xbf06a1f6	-0.5259088
29	0x3a17c1e8	0.0005789087
30	0x3f1d0a9c	0.61344314
31	0x3e29eb2c	0.16593617
32	0x39d31aac	0.00040264928
33	0xbeb3057a	-0.34965116
34	0x39a35950	0.00031156326
35	0xbd8177a4	-0.06321648
36	0x3fa2e26f	1.2725352
37	0x3a2cceef	0.0006592115
38	0xbe8b6d9d	-0.27232066
39	0xb9f56670	-0.00046806363
40	0x39ad9f78	0.00033115945
41	0x3f9860f8	1.1904593
42	0x3a833276	0.0010009545
43	0x3fdc51f6	1.7212512
44	0x392fe3c9	0.00016774157
45	0xbec3d9df	-0.3825216
46	0xbec1acab	-0.37827048
47	0xb8392d6b	-4.4149736e-05
48	0xbf1dfc05	-0.61712676
49	0xba68fca5	-0.00088877446

nn_model.net.0.bias f4 [10]
0	0x3e3eea99	0.1864418
1	0x3ee19c59	0.44064596
2	0x3f25b96c	0.64736056
3	0x3f51a1f8	0.8188777
4	0xbf0d5577	-0.55208534
5	0xbe5bff48	-0.21484101
6	0xbecab4f3	-0.39591178
7	0xbdfcd8a4	-0.123460084
8	0x3f4185ed	0.7559498
9	0xbf1242b1	-0.57133013

nn_model.net.2.weight f4 [10, 10]
0	0x3f0d4890	0.55188847
1	0x3ec39bb7	0.38204738
2	0x3f593ff8	0.84863234
3	0xbec85e26	-0.3913433
4	0x40093fcc	2.1445189
5	0x3d8aec98	0.06783408
6	0x3db8636a	0.09003337
7	0xbbcf12b9	-0.0063193706
8	0xbf9d2b1d	-1.2278782
9	0x3ee4891c	0.44635856
10	0x3e957a3f	0.2919483
11	0x3c82fc24	0.01598937
12	0x3c96b2d5	0.01839582
13	0x3f44ec56	0.7692312
14	0xbf22e491	-0.63630015
15	0xbf62cfb9	-0.8859821
16	0xbf7dd33b	-0.9915044
17	0xbed2b3b0	-0.41152716
18	0x3e923500	0.2855606
19	0x3e831028	0.25598264
20	0x3ea2d7fb	0.31805405
21	0x3f5d1659	0.86362225
22	0x3edbe970	0.42951536
23	0x3f554f4e	0.83324134
24	0x3e99421e	0.29933256
25	0x3f264684	0.6495135
26	0xbf3e94e4	-0.7444594
27	0xbf26e9f3	-0.6520073
28	0xbec9a77b	-0.3938559
29	0xbebb3b5e	-0.3656873
30	0xbf2a620a	-0.66555846
31	0xbf67d1b2	-0.90554345
32	0xbe219042	-0.15777686
33	0xbec50876	-0.38483018
34	0xbf3b054e	-0.7305497
35	0xbf352acf	-0.70768446
36	0x3f7c25fb	0.98495454
37	0x3f07849e	0.5293673
38	0x3f5e6762	0.868765
39	0xbe35bc42	-0.17747596
40	0x3e14b869	0.14523472
41	0xbbd3948a	-0.006456916
42	0x3fb39ded	1.403257
43	0xbe45bc95	-0.1931022
44	0x3f2ac3a6	0.66704786
45	0x3f5b67da	0.8570534
46	0xbed213db	-0.41030774
47	0xbf433179	-0.76247364
48	0xbf9c3212	-1.220278
49	0x3f5fca00	0.874176
50	0xbe3ff9b8	-0.18747604
51	0xbdbe3413	-0.09287276
52	0xbf7520f4	-0.9575341
53	0xbf012b9d	-0.50457174
54	0xbf392e69	-0.7233644
55	0xbe7b9ba1	-0.24571086
56	0xbe86cecd	-0.2632965
57	0x3ec97785	0.39349
58	0x3d597559	0.053090427
59	0xbf8556a8	-1.041707
60	0xbf566cef	-0.8375997
61	0xbf850d35	-1.0394655
62	0xbf5fe417	-0.8745741
63	0xbf50b175	-0.8152078
64	0xbddef70f	-0.108869664
65	0xbf234be1	-0.6378766
66	0x3f8c19ab	1.0945333
67	0x3eb3688a	0.35040694
68	0x3faa2aef	1.3294352
69	0xbe682855	-0.22671635
70	0x3fafe143	1.374062
71	0x3cc35458	0.02384393
72	0x3d4a5f18	0.049407095
73	0x3e4c62e6	0.19959602
74	0xbe20e7ed	-0.15713473
75	0xbe376a9e	-0.17911765
76	0xbf6de64f	-0.9292955
77	0x3ef67de7	0.4814293
78	0x3bd39b34	0.0064577106
79	0xbf018f5d	-0.5060938
80	0x3e6e4afa	0.23270789
81	0xbf23fc5b	-0.6405694
82	0xbfb60cfa	-1.422271
83	0xbf050980	-0.5196762
84	0xbed5fb85	-0.41793457
85	0x3b228bbf	0.0024802533
86	0xbe1e98e7	-0.15488015
87	0x3f0bf590	0.54671574
88	0x3cb4587c	0.022014849
89	0x3e682e68	0.22673953
90	0x3f0ff8f3	0.5623924
91	0x3f6a8619	0.91610867
92	0xbd45b377	-0.048266854
93	0xbda361fd	-0.07977674
94	0x3f518077	0.81836647
95	0x3f10a951	0.56508356
96	0xbf3f978e	-0.7484063
97	0xbf1d71bc	-0.6150167
98	0xbfb5d577	-1.4205769
99	0x3eca4080	0.39502335

nn_model.net.2.bias f4 [10]
0	0xbf0c1024	-0.5471213
1	0xbff01408	-1.8756113
2	0x3e31e7d7	0.17373596
3	0xbe188f7c	-0.14898485
4	0x3d3aeb15	0.045634348
5	0x3e755207	0.23957072
6	0xbdfb446a	-0.12268908
7	0xbfd85894	-1.6902032
8	0x3f1ee905	0.6207431
9	0x3ecb7149	0.39734867

nn_model.net.4.weight f4 [1, 10]
0	0x3f5147d2	0.81750214
1	0xbf108151	-0.5644732
2	0xbf664120	-0.8994312
3	0x3f42ab8a	0.76043
4	0x3f3db1ec	0.7409961
5	0xbf906039	-1.1279365
6	0x3f327499	0.69709164
7	0xbff67688	-1.9254923
8	0xbf8c40c1	-1.0957261
9	0xbf5514e5	-0.8323501

hnn.differentiable_model.net.0.weight f4 [10, 5]
0	0x3f0c5a62	0.54825413
1	0xbe998419	-0.29983595
2	0xb9a8f051	-0.00032222507
3	0x3f5f71f5	0.8728326
4	0xb9b7e1f6	-0.00035072834
5	0x3b7ab40f	0.0038254296
6	0xbfb79d6b	-1.4344915
7	0xb71d7a5c	-9.386418e-06
8	0x3f1fb2eb	0.6238238
9	0xb794a3e0	-1.7719285e-05
10	0x3d077857	0.03307375
11	0xbfbee839	-1.4914619
12	0x39d41c7a	0.00040457008
13	0x3fe7123c	1.805244
14	0x3993e8d4	0.00028211495
15	0xbe092802	-0.13394168
16	0xbf61d0dc	-0.8820932
17	0xb95df8e3	-0.0002116892
18	0x3ff0866d	1.8791023
19	0x3a6017c9	0.0008548466
20	0xbd908ba2	-0.07057883
21	0xbf2bcfec	-0.6711414
22	0xba5dec7c	-0.000846572
23	0xbfcf7800	-1.6208496
24	0xba7d2680	-0.0009656921
25	0x3ed595b0	0.41715765
26	0xbf2e7fe2	-0.68163884
27	0xba0014fb	-0.0004885939
28	0xbf06a1f6	-0.5259088
29	0x3a17c1e8	0.0005789087
30	0x3f1d0a9c	0.61344314
31	0x3e29eb2c	0.16593617
32	0x39d31aac	0.00040264928
33	0xbeb3057a	-0.34965116
34	0x39a35950	0.00031156326
35	0xbd8177a4	-0.06321648
36	0x3fa2e26f	1.2725352
37	0x3a2cceef	0.0006592115
38	0xbe8b6d9d	-0.27232066
39	0xb9f56670	-0.00046806363
40	0x39ad9f78	0.00033115945
41	0x3f9860f8	1.1904593
42	0x3a833276	0.0010009545
43	0x3fdc51f6	1.7212512
44	0x392fe3c9	0.00016774157
45	0xbec3d9df	-0.3825216
46	0xbec1acab	-0.37827048
47	0xb8392d6b	-4.4149736e-05
48	0xbf1dfc05	-0.61712676
49	0xba68fca5	-0.00088877446

hnn.differentiable_model.net.0.bias f4 [10]
0	0x3e3eea99	0.1864418
1	0x3ee19c59	0.44064596
2	0x3f25b96c	0.64736056
3	0x3f51a1f8	0.8188777
4	0xbf0d5577	-0.55208534
5	0xbe5bff48	-0.21484101
6	0xbecab4f3	-0.39591178
7	0xbdfcd8a4	-0.123460084
8	0x3f4185ed	0.7559498
9	0xbf1242b1	-0.57133013

hnn.differentiable_model.net.2.weight f4 [10, 10]
0	0x3f0d4890	0.55188847
1	0x3ec39bb7	0.38204738
2	0x3f593ff8	0.84863234
3	0xbec85e26	-0.3913433
4	0x40093fcc	2.1445189
5	0x3d8aec98	0.06783408
6	0x3db8636a	0.09003337
7	0xbbcf12b9	-0.0063193706
8	0xbf9d2b1d	-1.2278782
9	0x3ee4891c	0.44635856
10	0x3e957a3f	0.2919483
11	0x3c82fc24	0.01598937
12	0x3c96b2d5	0.01839582
13	0x3f44ec56	0.7692312
14	0xbf22e491	-0.63630015
15	0xbf62cfb9	-0.8859821
16	0xbf7dd33b	-0.9915044
17	0xbed2b3b0	-0.41152716
18	0x3e923500	0.2855606
19	0x3e831028	0.25598264
20	0x3ea2d7fb	0.31805405
21	0x3f5d1659	0.86362225
22	0x3edbe970	0.42951536
23	0x3f554f4e	0.83324134
24	0x3e99421e	0.29933256
25	0x3f264684	0.6495135
26	0xbf3e94e4	-0.7444594
27	0xbf26e9f3	-0.6520073
28	0xbec9a77b	-0.3938559
29	0xbebb3b5e	-0.3656873
30	0xbf2a620a	-0.66555846
31	0xbf67d1b2	-0.90554345
32	0xbe219042	-0.15777686
33	0xbec50876	-0.38483018
34	0xbf3b054e	-0.7305497
35	0xbf352acf	-0.70768446
36	0x3f7c25fb	0.98495454
37	0x3f07849e	0.5293673
38	0x3f5e6762	0.868765
39	0xbe35bc42	-0.17747596
40	0x3e14b869	0.14523472
41	0xbbd3948a	-0.006456916
42	0x3fb39ded	1.403257
43	0xbe45bc95	-0.1931022
44	0x3f2ac3a6	0.66704786
45	0x3f5b67da	0.8570534
46	0xbed213db	-0.41030774
47	0xbf433179	-0.76247364
48	0xbf9c3212	-1.220278
49	0x3f5fca00	0.874176
50	0xbe3ff9b8	-0.18747604
51	0xbdbe3413	-0.09287276
52	0xbf7520f4	-0.9575341
53	0xbf012b9d	-0.50457174
54	0xbf392e69	-0.7233644
55	0xbe7b9ba1	-0.24571086
56	0xbe86cecd	-0.2632965
57	0x3ec97785	0.39349
58	0x3d597559	0.053090427
59	0xbf8556a8	-1.041707
60	0xbf566cef	-0.8375997
61	0xbf850d35	-1.0394655
62	0xbf5fe417	-0.8745741
63	0xbf50b175	-0.8152078
64	0xbddef70f	-0.108869664
65	0xbf234be1	-0.6378766
66	0x3f8c19ab	1.0945333
67	0x3eb3688a	0.35040694
68	0x3faa2aef	1.3294352
69	0xbe682855	-0.22671635
70	0x3fafe143	1.374062
71	0x3cc35458	0.02384393
72	0x3d4a5f18	0.049407095
73	0x3e4c62e6	0.19959602
74	0xbe20e7ed	-0.15713473
75	0xbe376a9e	-0.17911765
76	0xbf6de64f	-0.9292955
77	0x3ef67de7	0.4814293
78	0x3bd39b34	0.0064577106
79	0xbf018f5d	-0.5060938
80	0x3e6e4afa	0.23270789
81	0xbf23fc5b	-0.6405694
82	0xbfb60cfa	-1.422271
83	0xbf050980	-0.5196762
84	0xbed5fb85	-0.41793457
85	0x3b228bbf	0.0024802533
86	0xbe1e98e7	-0.15488015
87	0x3f0bf590	0.54671574
88	0x3cb4587c	0.022014849
89	0x3e682e68	0.22673953
90	0x3f0ff8f3	0.5623924
91	0x3f6a8619	0.91610867
92	0xbd45b377	-0.048266854
93	0xbda361fd	-0.07977674
94	0x3f518077	0.81836647
95	0x3f10a951	0.56508356
96	0xbf3f978e	-0.7484063
97	0xbf1d71bc	-0.6150167
98	0xbfb5d577	-1.4205769
99	0x3eca4080	0.39502335

hnn.differentiable_model.net.2.bias f4 [10]
0	0xbf0c1024	-0.5471213
1	0xbff01408	-1.8756113
2	0x3e31e7d7	0.17373596
3	0xbe188f7c	-0.14898485
4	0x3d3aeb15	0.045634348
5	0x3e755207	0.23957072
6	0xbdfb446a	-0.12268908
7	0xbfd85894	-1.6902032
8	0x3f1ee905	0.6207431
9	0x3ecb7149	0.39734867

hnn.differentiable_model.net.4.weight f4 [1, 10]
0	0x3f5147d2	0.81750214
1	0xbf108151	-0.5644732
2	0xbf664120	-0.8994312
3	0x3f42ab8a	0.76043
4	0x3f3db1ec	0.7409961
5	0xbf906039	-1.1279365
6	0x3f327499	0.69709164
7	0xbff67688	-1.9254923
8	0xbf8c40c1	-1.0957261
9	0xbf5514e5	-0.8323501
