scinet_hub.pt (torch_old, 51593 bytes, 13 tensors)

encoder_net.0.weight f4 [64, 50]
0.08794653 -0.08553474 0.07398272 0.0896652 -0.07342623 0.036916908 -0.034817975 0.10346632
-0.023237845 0.1500687 -0.106113136 0.021100039 0.11181153 -0.012284286 0.12297058 -0.011581639
-0.05918303 0.15430394 0.050375473 -0.11179331 0.1399293 -0.091093354 -0.10331647 -0.02867135
0.013612173 -0.016074365 -0.079276755 -0.056510855 -0.0022058852 -0.19653478 0.018030837 0.08542318
0.17061034 0.12001556 -0.06768372 0.14168258 0.1592902 0.08454714 0.00961039 -0.08867095
-0.1477931 -0.023160344 0.085452475 0.0034843772 0.07824857 0.03598931 0.032163277 0.0185802
0.04434137 0.008332017 -0.024760699 0.09504527 0.083580144 -0.1115672 0.06995728 -0.110376805
0.15823635 -0.002636442 -0.12164128 0.055887345 0.06276516 0.045476533 -0.027800184 -0.057910677
0.10076658 0.1171807 -0.06669469 -0.11856047 0.09501044 -0.07588373 0.083310954 -0.084991276
-0.09168245 0.05261693 0.057182543 -0.06405136 -0.02429449 0.026573263 0.12643771 -0.034935024
0.0014530969 0.086420484 -0.08811196 0.11275084 -0.04815336 -0.061101142 -0.016658591 -0.014858082
0.008367294 -0.034282774 -0.061166987 0.12066122 -0.11155036 0.12376457 -0.06361677 0.08987858
-0.07078537 -0.0012242302 0.043393373 0.14034456 0.10829004 -0.11365115 -0.08115227 0.10554168
-0.008316003 -0.09017206 0.07146518 -0.023228211 -0.12435507 0.1415061 -0.13421187 -0.053617414
-0.013032538 -0.024358107 0.07099703 -0.029757034 -0.07217549 0.033960972 0.13122068 0.07288871
-0.07569955 -0.0072250874 0.05586926 -0.012590312 0.06876761 -0.0044210684 0.09735387 -0.13240886
-0.102996595 0.0871737 0.030388763 -0.015145579 -0.122848146 0.059726536 -0.0765245 0.124626935
-0.020729996 -0.020106902 -0.0827769 -0.043222845 0.07425865 -0.020373363 0.10324973 -0.09535036
-0.013540213 0.12313503 0.20772542 -0.029618539 -0.026253859 -0.036427405 0.027830217 0.049225636
-0.2783979 0.11091869 0.09279049 0.03039612 -0.06667352 0.10332467 -0.063374355 0.08683278
-0.10888126 0.06479622 -0.021630162 -0.11263109 0.049798094 0.08798694 0.09843346 -0.023494558
0.146926 0.015000987 -0.0075604985 0.05465568 -0.08719766 -0.103121825 0.009475831 -0.081577234
-0.113630466 0.13154027 0.014645967 0.029843811 -0.08830502 -0.01722996 -0.16428845 0.08304624
-0.18665685 0.017620903 -0.098341785 -0.0360602 0.22450267 0.24276166 -0.014158434 0.11708782
-0.019039193 -0.08221317 -0.10014396 -0.05606018 -0.10675042 -0.1601613 -0.04790113 0.018789724
0.017629454 -0.035878923 0.07621342 -0.08109092 0.012613024 -0.037779838 -0.060619652 -0.07362537
-0.10177543 0.016593548 -0.028080048 -0.11131962 -0.09538074 0.003942163 -0.077643886 0.09884679
-0.18901198 -0.14997888 -0.06814096 0.099077776 -0.107121535 -0.0567481 -0.03288984 0.015375974
0.038284805 0.08687491 0.0736291 0.0010375833 -0.08784471 -0.0171626 -0.06448835 0.1493505
0.0016717177 0.08242108 -0.13173711 -0.058025144 0.09879088 0.0068792165 0.055702865 -0.17788827
-0.2985951 0.017595513 0.1996617 0.10988014 0.13860647 -0.08595583 0.15239947 0.22365817
0.23366536 -0.09153243 -0.14523347 0.13875498 1.7370819 0.500711 0.19101994 -0.30706316
00000000: 4f1d b43d d62c afbd 4184 973d 63a2 b73d
00000010: 7e60 96bd 2f36 173d 4b9d 0ebd 26e6 d33d
00000020: 4b5d bebc 9cab 193e d851 d9bd fdd9 ac3c
00000030: 72fd e43d 0844 49bc 00d8 fb3d eac0 3dbc
00000040: e869 72bd da01 1e3e 8356 4e3d e4f3 e4bd
00000050: a049 0f3e 278f babd 9697 d3bd 2ee0 eabc
00000060: 9705 5f3c 63ae 83bc da5b a2bd ed77 67bd
00000070: 9d90 10bb 6a40 49be 68b5 933c 59f2 ae3d
00000080: 7ab4 2e3e b8ca f53d c39d 8abd 3d15 113e
00000090: f81c 233e 0d27 ad3d e674 1d3c 1d99 b5bd
000000a0: 1357 17be c3ba bdbc b501 af3d 265a 643b
000000b0: c940 a03d 8769 133d a4bd 033d 8135 983c
000000c0: 4c9f 353d 0383 083c f3d6 cabc 18a7 c23d
000000d0: 112c ab3d 587d e4bd c345 8f3d 3c0d e2bd
000000e0: b608 223e 28c8 2cbb 101f f9bd 21ea 643d
000000f0: 058b 803d 9a45 3a3d 36bd e3bc bf33 6dbd
00000100: b55e ce3d 6ffc ef3d 3a97 88bd d5cf f2bd
00000110: d594 c23d ee68 9bbd ef9e aa3d e80f aebd
00000120: 02c4 bbbd da84 573d 3e38 6a3d 5c2d 83bd
00000130: 3d05 c7bc 2cb0 d93c e378 013e 0718 0fbd
00000140: d775 be3a 39fd b03d 0b74 b4bd eae9 e63d
00000150: 753c 45bd 3145 7abd 9977 88bc 506f 73bc
00000160: fa16 093c 186c 0cbd 3c8a 7abd 3b1d f73d
00000170: 8474 e4bd 4778 fd3d 8249 82bd 4312 b83d
00000180: ecf7 90bd 5976 a0ba 40bd 313d 7cb6 0f3e
00000190: 2bc7 dd3d efc1 e8bd 2933 a6bd 3c26 d83d
000001a0: d83f 08bc 21ac b8bd 565c 923d 1749 bebc
000001b0: dfad febd fae6 103e d66e 09be ef9d 5bbd
000001c0: 6d86 55bc a78a c7bc e466 913d 06c5 f3bc
000001d0: bed0 93bd a91a 0b3d b75e 063e ad46 953d
000001e0: 5e08 9bbd 6dc0 ecbb 2ad7 643d 9947 4ebc
000001f0: 08d6 8c3d 9cde 90bb 7761 c73d 3096 07be
00000200: e1ef d2bd 2088 b23d dbf1 f83c 2a25 78bc
00000210: cf97 fbbd d0a3 743d e1b8 9cbd 683c ff3d
00000220: f4d1 a9bc 3bb7 a4bc ef86 a9bd 700a 31bd
00000230: eb14 983d 0ae6 a6bc 9874 d33d 0d47 c3bd
00000240: c5d7 5dbc 382e fc3d f9b5 543e 94a2 f2bc
00000250: 5512 d7bc e734 15bd 32fc e33c d2a0 493d
00000260: 2b8a 8ebe 5729 e33d f108 be3d 4901 f93c
00000270: 208c 88bd e29b d33d 6aca 81bd 62d5 b13d
00000280: 23fd debd e1b3 843d bd31 b1bc 21ab e6bd
00000290: 16f9 4b3d 7f32 b43d 7b97 c93d a977 c0bc
000002a0: c573 163e b3c6 753c 0fbe f7bb a2de 5f3d
000002b0: b094 b2bd 8931 d3bd 8440 1b3c f711 a7bd
000002c0: 17b7 e8bd 7eb2 063e a3f5 6f3c 027b f43c
000002d0: 43d9 b4bd d825 8dbc 3b3b 28be 2614 aa3d
000002e0: f922 3fbe b659 903c 6b67 c9bd dcb3 13bd
000002f0: 07e4 653e 8396 783e c7f8 67bc bdcb ef3d
00000300: 15f8 9bbc 615f a8bd 4718 cdbd 5c9f 65bd
00000310: f79f dabd 5301 24be fa33 44bd e8ec 993c
00000320: a56b 903c c7f5 12bd c815 9c3d ff12 a6bd
00000330: dba6 4e3c 08bf 1abd 504c 78bd e6c8 96bd
00000340: a36f d0bd 31ef 873c 2108 e6bc 8afb e3bd
00000350: fa56 c3bd 432d 813b c203 9fbd 3070 ca3d
00000360: 5b8c 41be 1094 19be 7d8d 8bbd 4ae9 ca3d
00000370: 8962 dbbd b270 68bd 7fb7 06bd 82eb 7b3c
00000380: 87d0 1c3d 79eb b13d dbca 963d 85ff 873a
00000390: ede7 b3bd 9598 8cbc 7812 84bd 56ef 183e
000003a0: 8a1d db3a 62cc a83d 18e6 06be c6ab 6dbd
000003b0: df52 ca3d 0d6b e13b b028 643d 5828 36be
000003c0: 75e1 98be 7724 903c 1e74 4c3e d708 e13d
000003d0: dbee 0d3e 9c09 b0bd 9b0e 1c3e a606 653e
000003e0: f945 6f3e 5b75 bbbd 15b8 14be c915 0e3e
000003f0: b358 de3f 992e 003f bb9a 433e 6237 9dbe

encoder_net.0.bias f4 [64]
-0.039432608 -0.0703975 -0.007997134 0.015077264 -0.0032221056 -0.0826957 0.11691651 0.08422339
-0.12514433 -0.034867812 0.019983273 0.039457127 0.037794895 0.13919358 0.00823276 0.03728602
0.040485855 0.037132446 0.03479195 0.08640399 -0.031782657 0.0059935744 0.11494391 -0.08515719
-0.03594068 -0.04033568 0.09459854 -0.07258169 -0.08731663 0.022489056 -0.085998535 0.10041717
-0.07280401 0.009290574 0.04185271 -0.06477141 -0.0345596 0.057967167 0.1235921 -0.05317656
0.036391173 -0.030379785 0.07057216 -0.07501807 0.020769617 0.8468461 0.05563972 0.02883651
-0.018067861 0.13491088 -0.011455255 -0.009216321 0.035589695 -0.098085426 0.045970764 0.074891105
-0.044453893 0.015192262 0.09149948 -0.19012265 0.038859177 0.13141775 -0.041818645 -0.003930236
00000000: 1684 21bd 912c 90bd 6906 03bc a106 773c
00000010: f629 53bb 5d5c a9bd ec71 ef3d 507d ac3d
00000020: d625 00be 8dd1 0ebd f6b3 a33c cc9d 213d
00000030: d2ce 1a3d c388 0e3e b3e2 063c 3ab9 183d
00000040: 7fd4 253d 3118 183d 0182 0e3d 93f4 b03d
00000050: 882e 02bd bf65 c43b b667 eb3d e566 aebd
00000060: 8936 13bd 0737 25bd e1bc c13d b6a5 94bd
00000070: 10d3 b2bd f83a b83c 0020 b0bd 84a7 cd3d
00000080: 451a 95bd 7e37 183c bf6d 2b3d dfa6 84bd
00000090: 5e8e 0dbd fb6e 6d3d db1d fd3d aacf 59bd
000000a0: e90e 153d 07df f8bc 2388 903d 13a3 99bd
000000b0: 0b25 aa3c e8ca 583f 7ae6 633d 8b3a ec3c
000000c0: 0d03 94bc 1426 0a3e d2ae 3bbc 0d00 17bc
000000d0: 80c6 113d 03e1 c8bd d74b 3c3d 8260 993d
000000e0: 4915 36bd f7e8 783c 1464 bb3d 83af 42be
000000f0: cd2a 1f3d 6092 063e 074a 2bbd 36c9 80bb

encoder_net.2.weight f4 [64, 64]
0.0058463514 0.005682591 0.008899381 0.013926376 -0.0029160548 0.0062607066 0.0072627524 -0.008178875
-0.009546308 -0.0016259339 -0.0094786985 0.02425046 -0.0052442425 0.020477861 -0.018302757 -0.0044779894
-0.002594393 -0.0183514 -0.021713221 0.020270053 0.011352322 -0.014552705 -0.00754335 -0.01387973
0.0047664917 0.013262174 -0.0054716193 0.017431453 -0.01836258 -0.017215917 -0.0126319835 0.010575252
0.0010803608 -0.015183381 -0.009730554 -0.003716207 -0.018431878 0.009359684 0.001189054 0.013743227
0.013522012 0.008930021 0.016974954 0.004352141 0.0027734917 0.0066426164 0.0044141547 0.012775076
-0.0010008399 0.0066511906 -0.004699674 0.008912572 -0.015453604 -0.012492355 -0.0032875608 -0.011503502
-0.0008739445 -0.0022993193 -0.029302122 -0.0052367873 0.002061949 0.01542824 -0.009886904 -0.010086526
0.0122551555 0.0025386198 -0.0037789762 0.012754355 0.0063619814 -0.002575765 0.0069069555 -0.0008940003
-1.9624742e-05 0.002520525 0.002713147 -0.015376051 0.0122631835 0.028959345 -0.007522985 0.018171674
-0.005181914 0.0014961864 0.007340757 -0.0005663047 -0.0032367532 -0.0022483044 0.01582005 -0.0020285137
0.0004744894 -0.019869603 0.023456043 -0.011128281 0.00592702 -0.002632701 -0.004059038 -0.0034561919
-0.0036298642 0.00782213 -0.0014100317 -0.0015626529 -0.0014270898 -0.00018979619 0.0034358357 0.020452524
0.0063727233 0.004062092 -0.022069307 -0.003218854 -0.003454945 -0.0070544216 0.010571597 -0.014167794
0.0027019964 -0.0075280084 0.002068907 0.00096580427 -0.012333724 0.0052890857 0.0006933617 0.015401916
0.0021577145 -0.009252723 -0.006299202 0.010081868 -0.0048695826 0.0024583666 0.0061694016 -0.01354806
-0.0004650766 -0.014140507 0.006241853 0.017032059 0.0008399045 -0.0043655285 -0.0002777243 0.011668683
-0.001420786 -0.001473145 0.022945331 0.004763749 -0.00028523494 -0.0049493336 -0.0022124446 -0.011659114
0.0042169974 0.007862517 0.013404054 0.0038462118 -0.0042436724 0.009927008 0.013895686 -0.007808136
0.0132743 -0.022209477 -0.006544163 -0.017886342 -0.0023619172 0.011058085 0.009940854 0.014557703
0.0028689562 -0.013787793 -0.007000262 -0.011171001 -0.008847916 0.013311238 -0.0061922157 -0.0034020985
-0.0035116358 0.0017966492 0.008804337 6.7004265e-05 -0.0031484086 0.00534897 0.023686519 0.0038920585
-0.008352146 0.0041811396 0.0008049364 -0.0043818336 -0.0060675666 0.002455471 -0.0017070259 0.0078087803
0.013267079 -0.0068146656 -0.011455386 0.002568977 -0.002650242 -0.00927834 0.000973795 0.0042382698
-0.02011302 -0.0037909327 0.011874849 0.0013202216 0.0060904375 -0.0046275267 -0.009787488 -0.007345575
0.0068455427 0.011738511 0.011727604 -0.0067339847 0.015879834 -0.0017979213 0.0028833426 0.012973518
-0.012383978 -0.0010981818 -0.0018208865 -0.001798496 -0.008095609 0.01627764 0.017697249 -0.003392312
-0.024236476 -0.011590844 0.010231384 -0.030614458 0.010438209 0.01789304 -0.0032697758 -0.030641796
0.013929963 -0.0080192685 0.012275038 -0.0023406786 0.0014632557 0.024275579 0.0018297114 -0.014874598
-0.0142337065 -0.0015709857 -0.017146152 -0.001872261 -0.0063391714 -0.013384222 7.9122416e-05 -0.012992057
0.0034514328 0.00042587717 -0.0025956675 -0.00821516 -0.013824912 0.018035099 0.0037964298 -0.020052912
0.007891636 -0.001978104 -0.011169662 0.011952529 0.0012671864 -0.004853791 0.018008754 -0.019145984
00000000: c092 bf3b 0735 ba3b b6ce 113c 742b 643c
00000010: 481b 3fbb 9d26 cd3b 62fc ed3b b000 06bc
00000020: 1e68 1cbc 4a1d d5ba 8b4c 1bbc e7a8 c63c
00000030: e5d7 abbb 30c1 a73c aaef 95bc 19bc 92bb
00000040: b106 2abb ad55 96bc eddf b1bc 620d a63c
00000050: 17ff 393c 786e 6ebc 352e f7bb cf67 63bc
00000060: 3b30 9c3b 9749 593c 454b b3bb 68cc 8e3c
00000070: 1f6d 96bc 6508 8dbc 61f6 4ebc d243 2d3c
00000080: e59a 8d3a b7c3 78bc e76c 1fbc 9c8b 73bb
00000090: 73fe 96bc 5c59 193c 08da 9b3a 462b 613c
000000a0: 6e8b 5d3c 394f 123c 0f0f 8b3c 689c 8e3b
000000b0: 78c3 353b 4eaa d93b 9da4 903b 8d4e 513c
000000c0: 9d2e 83ba 3bf2 d93b b9ff 99bb 0906 123c
000000d0: 1d31 7dbc bcac 4cbc 1e74 57bb 2f79 3cbc
000000e0: 6c19 65ba 2db0 16bb 010b f0bc 5b99 abbb
000000f0: c421 073b bbc6 7c3c aefc 21bc f541 25bc
00000100: d9c9 483c f95e 263b b3a8 77bb a4f7 503c
00000110: 2b78 d03b 2ace 28bb be53 e23b 585b 6aba
00000120: d09f a4b7 642f 253b 0ecf 313b d5eb 7bbc
00000130: 85eb 483c 263c ed3c 5f83 f6bb c3dc 943c
00000140: 0ccd a9bb af1b c43a bc8a f03b 1174 14ba
00000150: b51f 54bb 4a58 13bb 0d99 813c d0f0 04bb
00000160: e4c4 f839 94c5 a2bc e326 c03c 6553 36bc
00000170: 7337 c23b 6589 2cbb ae01 85bb 4781 62bb
00000180: 04e3 6dbb 6428 003c d0d0 b8ba eed1 ccba
00000190: 300d bbba 0704 47b9 c22b 613b 0d8c a73c
000001a0: 47d2 d03b 4c1b 853b b1ca b4bc 69f3 52bb
000001b0: 5c6c 62bb c728 e7bb 7e34 2d3c 0920 68bc
000001c0: fa13 313b 83ad f6bb 8096 073b 072e 7d3a
000001d0: 6313 4abc 1150 ad3b b7c2 353a 5158 7c3c
000001e0: 7168 0d3b bc98 17bc 8969 cebb 6b2e 253c
000001f0: 0591 9fbb 8c1c 213b b128 ca3b aff8 5dbc
00000200: 86d5 f3b9 96ad 67bc 7588 cc3b d186 8b3c
00000210: 092d 5c3a b50c 8fbb 869b 91b9 012e 3f3c
00000220: ab39 baba 8b16 c1ba d9f7 bb3c 3919 9c3b
00000230: 968b 95b9 052e a2bb a9fe 10bb de05 3fbc
00000240: bd2e 8a3b c9d1 003c ad9c 5b3c ba10 7c3b
00000250: 810e 8bbb e4a4 223c bbaa 633c 64db ffbb
00000260: 737c 593c a6f0 b5bc 6b70 d6bb 6186 92bc
00000270: 65ca 1abb f82c 353c f7de 223c 6f83 6e3c
00000280: 1905 3c3b 32e6 61bc 7462 e5bb 9306 37bc
00000290: d9f6 10bc 6117 5a3c 12e8 cabb bef5 5ebb
000002a0: 7923 66bb 8b7d eb3a 1140 103c a484 8c38
000002b0: 8855 4ebb 6a46 af3b 3b0a c23c e811 7f3b
000002c0: 70d7 08bc f101 893b 5e02 533a 7c95 8fbb
000002d0: 70d2 c6bb f8eb 203b 49be dfba cce0 ff3b
000002e0: 2a5e 593c 8f4d dfbb 5faf 3bbc 485c 283b
000002f0: afaf 2dbb 2e04 18bc 4746 7f3a 2fe1 8a3b
00000300: 0fc4 a4bc 4c71 78bb ba8e 423c 490b ad3a
00000310: 4b92 c73b 82a2 97bb b35b 20bc 26b3 f0bb
00000320: 9350 e03b e252 403c 2325 403c c2a8 dcbb
00000330: 6d16 823c 3aa8 ebba 76f6 3c3b e18e 543c
00000340: 2be6 4abc def0 8fba d0aa eeba 83bb ebba
00000350: 72a3 04bc af58 853c d2f9 903c 8d51 5ebb
00000360: 938b c6bc 86e7 3dbc 89a1 273c 2ccb fabc
00000370: 0605 2b3c 6d94 923c bc49 56bb 8104 fbbc
00000380: 803a 643c 4063 03bc 3e1d 493c 1266 19bb
00000390: b7ca bf3a 94dd c63c edd2 ef3a 96b4 73bc
000003a0: 7e34 69bc 88e9 cdba 1676 8cbc a866 f5ba
000003b0: d3b8 cfbb 7f49 5bbc 86ee a538 a3dc 54bc
000003c0: 6f31 623b 4448 df39 131c 2abb e198 06bc
000003d0: e281 62bc 58be 933c 86cd 783b 0146 a4bc
000003e0: ec4b 013c 14a3 01bb f500 37bc 8ad4 433c
000003f0: b817 a63a 8d0c 9fbb 1887 933c 0ad8 9cbc

encoder_net.2.bias f4 [64]
0.0019552272 0.0020332215 0.00044861267 -0.0015556706 0.0031897065 0.007837747 -0.00029187038 0.0040288055
-0.00012392606 -0.0033822656 0.0018567629 0.004444688 0.0028360514 0.001085821 0.0039965785 0.0067079663
0.00032026714 -0.0035736565 -0.0004666602 -0.0010436297 0.0034732993 -0.0011373285 -0.0021905873 -0.00050673407
-0.0060824263 -0.0009589392 -0.003520979 0.0074483193 -0.003701237 0.004470955 -0.00020298526 -0.0038455764
0.003378553 -0.0020657578 -0.0017550273 0.00076289667 0.0026255618 -0.0053557614 0.0017314139 0.005114137
0.0023697934 -0.22811113 0.0025154478 0.0050802273 -0.0015789934 -0.0041161524 0.00016110778 0.000994695
-0.0020490922 0.00060323195 -0.30740312 0.0053702416 -0.0009958948 3.4249075e-05 -0.0031237325 -0.00014737705
-0.00067001896 -0.0038438246 0.007217517 0.0025028721 0.0058392975 -0.0028016747 0.0038638632 0.0043091797
00000000: 4523 003b cc3f 053b c633 eb39 a5e7 cbba
00000010: 650a 513b e569 003c 2e06 99b9 1204 843b
00000020: 26f2 01b9 00a9 5dbb a05e f33a bfa4 913b
00000030: 0cdd 393b 1b52 8e3a bbf5 823b 80ce db3b
00000040: 87e9 a739 0234 6abb 12aa f4b9 67ca 88ba
00000050: 4ba0 633b 6912 95ba f58f 0fbb 59d6 04ba
00000060: 174f c7bb 5261 7bba 3ac0 66bb 0811 f43b
00000070: 7490 72bb 1781 923b 71d8 54b9 1106 7cbb
00000080: b76a 5d3b aa61 07bb f208 e6ba 21fd 473a
00000090: 9e11 2c3b 627f afbb 9cf0 e23a 7e94 a73b
000000a0: 894e 1b3b f795 69be 36da 243b 0978 a63b
000000b0: 3af6 ceba cae0 86bb 0aef 2839 6d60 823a
000000c0: 104a 06bb 3622 1e3a f163 9dbe daf8 af3b
000000d0: af88 82ba aaa6 0f38 89b7 4cbb 3a89 1ab9
000000e0: 36a4 2fba ade8 7bbb ec80 ec3b 3a07 243b
000000f0: 9457 bf3b 4d9c 37bb de38 7d3b 0534 8d3b

mu_net.weight f4 [3, 64]
0.0003315953 0.0008372497 -4.6988236e-05 5.9198086e-05 6.256243e-05 -0.0005305048 -0.0008957381 0.00064376893
0.0023906121 -0.00011333933 0.0011822582 -0.00032246544 0.0008630708 -0.002125202 0.0007840325 -0.00086925266
-0.0009870708 0.0011784327 -0.000751103 -0.00036357658 8.3948886e-05 -0.00028725545 0.00018720042 -0.0007963883
0.00016240784 0.00093225704 -0.00039293247 0.00023495205 -0.00017042088 -0.00032756187 0.0007600012 0.00052606326
-7.308461e-05 0.00062997383 0.000105601845 -0.004197568 0.0023747773 0.00026729063 0.0005661646 -0.00073446013
-0.0008281999 -0.09387691 0.0004343839 -0.0008868602 -0.0018638019 0.0004370281 -0.0020242226 0.0009247608
-0.0011279604 -0.0001749002 0.111851454 -0.00063993345 -0.0032365532 0.0003309384 -0.0007722644 -0.00029913144
-0.0023052115 7.8052675e-05 -0.00024797968 0.0014532943 -0.00091990567 -0.0008863692 -3.8423488e-05 0.00031373944
-0.025903694 0.0017992533 -0.0020405634 0.012011729 0.0135611 -0.0014919159 0.0014779939 0.008126985
-0.004522967 0.0058078486 0.01055104 0.014132887 0.000973755 -0.002941681 0.0075080753 0.0035751592
-0.00056229066 -0.0041013146 -0.0076685343 0.0019484897 -0.010483395 0.015280595 -0.010772768 -0.007013992
0.012533697 -0.0100336 0.0015261762 0.007853274 -0.016913503 0.009402032 -0.01139276 -0.0029480343
-0.0027188377 -0.008269291 0.0014368802 0.0090074055 0.0042587523 -0.0022481848 0.0046292734 -0.0015966865
0.0024498021 0.00029729854 0.007399194 0.014314819 -0.0059515405 -0.00501597 -0.008122673 0.008042905
0.006200803 0.013454224 -0.0009625426 0.008244538 0.0011572822 -0.004094088 0.0016732087 -0.009171789
0.014587656 0.004472419 -0.0014621259 -0.0008060046 -0.00028421707 -0.0046710796 0.010995072 -0.0046614823
-0.009127352 -0.021675756 -0.009107956 -0.024670219 0.000620712 -0.010289072 0.0030715133 -0.022241069
-0.001768532 -0.005478618 -0.0069792126 0.0071417266 -0.014817562 0.029304806 -0.01002546 -0.021951478
0.017552799 -0.013265934 0.00779917 0.008282887 -0.012221506 0.002470814 -0.01169354 -0.009865271
0.022589765 -0.020961128 -0.0045936336 -0.010720046 0.025908066 -0.007465124 0.00076034415 8.8560744e-05
-0.004427003 -0.0069695357 -0.01613462 0.004489354 -0.035832275 -0.007973513 -0.01453185 0.001423153
-0.0023403084 -0.003388831 0.005170967 -0.008096279 0.02165912 0.010951806 0.009795476 0.0011196241
0.01620174 0.0013560967 -0.0020341785 -0.006272288 0.0034480894 -0.008556364 0.025763465 0.012368538
0.011401037 0.005780581 -0.0011879988 -0.010695322 0.0117271235 0.014513804 0.017343272 -0.01303485
00000000: f8d9 ad39 e07a 5b3a 3c15 45b8 764b 7838
00000010: f333 8338 9311 0bba f7cf 6aba 9ac2 283a
00000020: d1ab 1c3b 97b0 edb8 01f6 9a3a 9410 a9b9
00000030: b33f 623a f946 0bbb 8887 4d3a 8fde 63ba
00000040: 9a60 81ba a475 9a3a abe5 44ba 6c9e beb9
00000050: b70d b038 c69a 96b9 3b4b 4439 b7c4 50ba
00000060: 064c 2a39 b662 743a 8102 ceb9 765d 7639
00000070: 02b3 32b9 9cbc abb9 d13a 473a 82e7 093a
00000080: 0045 99b8 d424 253a 8f76 dd38 c18b 89bb
00000090: 27a2 1b3b 2423 8c39 aa6a 143a c988 40ba
000000a0: 8e1b 59ba 8a42 c0bd 05be e339 2e7c 68ba
000000b0: d04a f4ba eb20 e539 d2a8 04bb a66b 723a
000000c0: 12d8 93ba 6a65 37b9 6012 e53d 35c1 27ba
000000d0: 5a1c 54bb cd81 ad39 c971 4aba bed4 9cb9
000000e0: 0813 17bb 36b0 a338 4503 82b9 777c be3a
000000f0: d325 71ba 3b5b 68ba e828 21b8 657d a439
00000100: fc33 d4bc ecd4 eb3a f9ba 05bb d8cc 443c
00000110: 602f 5e3c 648c c3ba 3fb9 c13a 0c27 053c
00000120: 6635 94bb c44f be3b 45de 2c3c a08d 673c
00000130: 9843 7f3a 38c9 40bb 4d06 f63b 384d 6a3b
00000140: b066 13ba 5264 86bb 5448 fbbb 7764 ff3a
00000150: 8cc2 2bbc 765b 7a3c 4480 30bc a1d5 e5bb
00000160: 235a 4d3c f863 24bc fa09 c83a 05ab 003c
00000170: 308e 8abc fb0a 1a3c b3a8 3abc cf33 41bb
00000180: 872e 32bb ec7b 07bc b355 bc3a cc93 133c
00000190: 018d 8b3b 4856 13bb 29b1 973b e947 d1ba
000001a0: dc8c 203b bcde 9b39 f074 f23b b488 6a3c
000001b0: 2405 c3bb 025d a4bb f614 05bc 63c6 033c
000001c0: 1b30 cb3b 1b6f 5c3c 2453 7cba 1914 073c
000001d0: f2af 973a b327 86bb 914f db3a 4545 16bc
000001e0: 1001 6f3c 5f8d 923b cea4 bfba 0e4a 53ba
000001f0: f802 95b9 db0f 99bb ad24 343c 59bf 98bb
00000200: e48a 15bc 5b91 b1bc 8939 15bc 3319 cabc
00000210: 47b7 223a 7f93 28bc 714b 493b e732 b6bc
00000220: 16ce e7ba fb85 b3bb e1b1 e4bb 2505 ea3b
00000230: 5cc5 72bc a210 f03c d441 24bc 96d3 b3bc
00000240: e3ca 8f3c 5c59 59bc 2e90 ff3b f2b4 073c
00000250: b63c 48bc 61ed 213b 4396 3fbc f2a1 21bc
00000260: 2c0e b93c acb6 abbc 3186 96bb 22a3 2fbc
00000270: 273d d43c 009e f4bb d551 473a b0b9 b938
00000280: 6510 91bb b460 e4bb c02c 84bc 6e1b 933b
00000290: ddc4 12bd 56a3 02bc ff16 6ebc 1789 ba3a
000002a0: dc5f 19bb 2617 5ebb 3771 a93b 41a6 04bc
000002b0: 786e b13c 346f 333c 347d 203c 5ac0 923a
000002c0: 83b9 843c 0ebf b13a da4f 05bb c487 cdbb
000002d0: 57f9 613b fe2f 0cbc e70d d33c 69a5 4a3c
000002e0: 6acb 3a3c 076b bd3b a0b6 9bba 6f3b 2fbc
000002f0: 1f23 403c 4ecb 6d3c 7a13 8e3c 2090 55bc

mu_net.bias f4 [3]
0.013617814 -0.00029947158 -0.0006704416
00000000: 401d 5f3c 6502 9db9 93c0 2fba

log_var_net.weight f4 [3, 64]
0.008387318 -0.0023229462 -0.016918318 -0.009271388 -0.009632627 -0.0010231243 -0.0057557956 -0.010181346
0.0069103627 -0.01605701 -0.0046276054 0.024741873 0.0031012848 0.008074002 0.017488323 -0.00039754465
0.0003869891 0.004273454 0.011104659 0.0019767259 0.0027454486 -0.016110834 0.003309378 -0.0019094521
-0.0034465636 0.029402811 -0.0022566067 0.028390024 0.0037540991 0.005998267 -0.0005542016 0.0022596815
0.0027116556 -0.0041214055 -0.0067310245 0.0014712093 -0.008735441 -0.024728805 0.008149953 0.021305148
0.012964653 0.79888976 0.03802409 -0.0027601284 -0.0005903051 -0.003996755 0.0012157512 0.01856993
-0.03326476 0.012921871 0.99939245 0.0040569366 -0.00066573557 -0.013631977 -0.002220066 0.003372903
0.008693173 -0.0054210443 0.010163536 0.003942059 0.019187218 0.014690579 0.012128028 0.007575049
0.03752489 -0.00087976543 0.017060151 0.019640416 -0.0016577906 0.0037140846 -0.0064074984 0.018151728
1.5405065e-05 -0.008131986 -0.016292136 -0.008282712 0.001884847 -0.012107877 -0.04900008 0.008189878
-0.014340363 -0.005800892 0.02052184 -0.0019324165 0.018070482 0.014728001 0.008872605 0.030957801
-0.011621633 -0.004805641 0.0042264173 -0.024608484 0.0011588384 0.017224729 -0.009012586 0.005412187
-0.027729098 0.0057619372 -0.0013226343 -0.021882152 -0.017550673 -0.012814483 -0.0021126107 0.015565107
0.031228786 -0.00039613567 -0.0019459844 0.014926585 0.002580215 -0.011672371 -0.025418777 -0.019319234
0.0033741407 0.016586019 0.00011582677 -0.011779247 0.009223291 -0.006928218 0.018668372 -0.01651672
-0.022759354 -0.004712879 0.013647624 0.0024516552 0.0013458935 -0.0048260367 -0.00577547 -0.024656529
-0.008648858 -0.0069847964 -0.026822517 0.0064667747 -0.01365765 -0.010050671 0.009873093 -0.006556568
0.030858973 -0.009802741 0.010040932 0.019133162 -0.017797198 -0.0018938322 -0.029081805 -0.04640192
-0.009474313 0.027334038 0.021386215 0.011640786 0.022793112 -0.016974458 -0.00037119113 -0.0057699704
-0.023473257 0.0065976167 0.01095935 0.012984249 0.016156467 -0.0035276476 -0.025607307 -0.00521321
-0.014196969 0.032660242 -0.017216831 0.016141748 -0.012966564 -0.022209715 0.02282369 0.0005489573
-0.010202809 -0.00087609363 0.024755483 -0.012225771 0.0040869634 0.023005988 -0.022588518 -0.0026614508
0.0036287552 -0.007022678 0.0014213417 0.036643483 -0.018111859 -0.027588028 -0.009627476 -0.011409537
0.031755008 -0.010760482 -0.0018526249 0.010515325 -0.006113927 0.012931578 -0.009757813 0.015368043
00000000: f66a 093c 923c 18bb 4998 8abc 05e7 17bc
00000010: 2ad2 1dbc 5b1a 86ba 1d9b bcbb a9cf 26bc
00000020: 5370 e23b fe89 83bc 2ba3 97bb 78af ca3c
00000030: ed3e 4b3b d248 043c ac43 8f3c 8a6d d0b9
00000040: cce4 ca39 5508 8c3b 51f0 353c f58b 013b
00000050: fcec 333b defa 83bc 26e2 583b 9546 faba
00000060: bedf 61bb 2ade f03c 94e3 13bb 3292 e83c
00000070: 5507 763b 1c8d c43b d747 11ba 2a17 143b
00000080: 08b6 313b db0c 87bb ed8f dcbb 98d5 c03a
00000090: 181f 0fbc 1094 cabc 6187 053c 2288 ae3c
000000a0: b269 543c 0a84 4c3f 26bf 1b3d 45e3 34bb
000000b0: b4be 1aba 36f7 82bb d759 9f3a f71f 983c
000000c0: a140 08bd 41b6 533c 2fd8 7f3f 0df0 843b
000000d0: c284 2eba a858 5fbc 877e 11bb ec0b 5d3b
000000e0: cf6d 0e3c 04a3 b1bb f684 263c 632c 813b
000000f0: 832e 9d3c c1b0 703c a3b4 463c 1e38 f83b
00000100: b3b3 193d 0fa0 66ba bbc1 8b3c f0e4 a03c
00000110: 394a d9ba 0068 733b fef5 d1bb efb2 943c
00000120: 203a 8137 053c 05bc 1677 85bc 36b4 07bc
00000130: f80c f73a 1e60 46bc 4fb4 48bd d72e 063c
00000140: d8f3 6abc 6915 bebb 6b1d a83c 2349 fdba
00000150: 8c08 943c b74d 713c 675e 113c 379b fd3c
00000160: a968 3ebc a378 9dbb c27d 8a3b bb97 c9bc
00000170: 2ae4 973a e01a 8d3c 87a9 13bc b758 b13b
00000180: 2228 e3bc a2ce bc3b 3e5c adba 3342 b3bc
00000190: 6ec6 8fbc d6f3 51bc ba73 0abb ca04 7f3c
000001a0: 83d3 ff3c 6eb0 cfb9 6710 ffba a38e 743c
000001b0: d318 293b 793d 3fbc 0a3b d0bc 5f43 9ebc
000001c0: b020 5d3b 67df 873c 06e8 f238 befd 40bc
000001d0: 491d 173c 1b06 e3bb 6aee 983c 134e 87bc
000001e0: d371 babc 7f6e 9abb 499a 5f3c f3ab 203b
000001f0: b168 b03a bb23 9ebb 2740 bdbb 7dfc c9bc
00000200: f1b3 0dbc b8e0 e4bb e5ba dbbc 3de7 d33b
00000210: 56c4 5fbc 92ab 24bc c1c2 213c 7bd8 d6bb
00000220: f5cb fc3c ad9b 20bc b982 243c 26bd 9c3c
00000230: 6ecb 91bc 773a f8ba f73c eebc f10f 3ebd
00000240: 263a 1bbc a2eb df3c 2532 af3c ffb8 3e3c
00000250: 9fb8 ba3c 050e 8bbc 6e9c c2b9 0512 bdbb
00000260: fd4a c0bc d230 d83b d88e 333c e3bb 543c
00000270: 915a 843c 1b30 67bb 6ac6 d1bc 93d3 aabb
00000280: 679a 68bc bfc6 053d 500a 8dbc b33b 843c
00000290: b671 54bc 26f1 b5bc bff8 ba3c e7e7 0f3a
000002a0: af29 27bc a6a9 65ba 03cc ca3c 9a4e 48bc
000002b0: efeb 853b 0e77 bc3c 8e0b b9bc bc6b 2ebb
000002c0: 69d0 6d3b 7e1e e6bb 504c ba3a 7a17 163d
000002d0: 525f 94bc 4a00 e2bc 90bc 1dbc 11ef 3abc
000002e0: 8a11 023d bc4c 30bc c7d3 f2ba 7848 2c3c
000002f0: 5657 c8bb f8de 533c 3cdf 1fbc 3fca 7b3c

log_var_net.bias f4 [3]
-3.6920698 -2.305639 -2.302771
00000000: df4a 6cc0 978f 13c0 9a60 13c0

decoder_net.0.weight f4 [64, 4]
0.0027319724 0.027445253 0.03840089 -0.074205495 0.14299592 -18.850807 0.019456435 0.025859762
0.7078062 -5.6937633 -0.02513245 0.045182467 0.22683744 1.2821066 0.1319458 -0.0011612717
0.6687217 0.84909755 -0.052427545 -0.0030620059 0.51684713 -0.12841558 0.0041792034 0.035548408
-0.0003083336 -0.013458399 0.034205664 0.019454207 -0.14179099 0.67026 -0.118435256 -0.022604149
0.0015038656 -0.012845174 0.011996905 -0.06373671 0.00013985598 -0.003206287 0.01448175 -0.007266278
0.41550907 1.3814392 -0.018759064 -0.0021255824 0.0015133044 0.027428184 0.008190592 0.0567802
0.0005103791 -0.0019045906 0.01882508 0.027172085 0.1254007 -0.35247982 -0.15164989 0.027085347
-9.110977e-05 0.022950146 -0.0052700974 -0.010860238 -0.1387402 -0.67747 -0.022415275 -0.009791354
-0.0013124212 0.035819586 -0.027074011 0.07687435 -0.19019143 0.3201678 0.016139163 -0.025416981
-0.6473677 -0.22838064 0.008029321 -0.024445893 0.0009994179 -0.02283673 0.03861719 -0.0847769
1.1414175 -0.58533454 -0.009425201 -0.00034964213 -0.4072043 -0.8493499 -0.038172 0.00809868
-0.001975209 -0.005552321 -0.0038549488 -0.05273177 0.5423262 -0.1525817 -0.015403867 0.013277303
0.2972188 10.526839 -0.062728316 -0.039246697 -0.9662234 -2.2898781 0.052338555 -0.001797712
-0.11027703 0.68496364 -0.0010616104 0.10538356 0.18294455 11.660382 -0.05570751 -0.088882096
-0.11057223 -3.300063 0.06513152 0.1324392 0.04847676 -7.7599616 0.005012429 -0.0013125805
-0.2575448 -4.7194605 0.0021550548 0.04009774 -0.011391853 -4.015652 0.034692783 0.020752206
-0.5927687 0.24499826 0.013435136 -0.0047479393 0.009160605 -0.0020132924 0.019562367 0.005557687
-0.0011378643 0.0027694365 -0.008193516 0.08716205 -7.494262e-05 -0.019814685 0.0009747921 0.019786745
0.38522497 -0.13870731 0.0012832674 -0.048412777 0.6392878 -0.46925697 0.026488662 -0.010391388
0.30382234 1.6707333 0.007968818 0.03247891 0.00179351 -0.045365483 0.04732052 0.00040193537
-0.48754025 -0.23528664 -0.018156923 -0.0005967841 0.0029942014 0.018508753 0.036015004 -0.020524792
-0.013661219 -0.023372414 -0.04126308 0.0045251185 0.5129349 -1.0125993 0.026005931 -0.004976094
0.0037970585 -0.010501773 -0.006220126 -0.003986855 0.025952825 1.2454104 -0.032049134 -0.081671566
0.33628613 0.83777595 0.005521037 0.0080365045 -0.4692717 -15.311304 0.04492276 0.016371798
0.38308263 2.2199113 -0.023055222 -0.01461753 -0.21878912 9.020961 -0.0042996937 0.009189583
-0.046795595 -0.046633016 -0.09830603 -0.024790376 0.0019162998 0.005764005 0.099747166 -0.027621549
-0.32223698 -0.83517814 0.015356622 -0.03036999 0.00011966007 -0.009166081 -0.0074943816 9.8256576e-05
0.58433974 -1.1563572 -0.014538834 -0.054765847 0.0024147714 0.01412482 0.009467466 -0.074800335
0.1402071 0.7202226 -0.15949242 -0.038111426 0.17609109 -13.095555 0.036333438 0.0060784463
0.030644078 0.002160637 0.08610088 0.08319668 -0.0010388044 0.01112677 -0.0473691 0.0006032032
-0.27016556 -4.3056564 0.01456979 0.006865998 4.459516e-05 0.0117582595 -0.028657071 0.05366464
-0.00029329374 0.0020676698 0.0077123344 0.017367078 0.39013037 1.023269 0.024699792 0.010065633
00000000: e40a 333b ded4 e03c 404a 1d3d 0df9 97bd
00000010: 866d 123e 74ce 96c1 1a63 9f3c dad7 d33c
00000020: ca32 353f 4f33 b6c0 91e2 cdbc 4011 393d
00000030: 1348 683e 121c a43f cd1c 073e d035 98ba
00000040: 5831 2b3f 755e 593f 44be 56bd efab 48bb
00000050: 1850 043f 607f 03be b3f1 883b 359b 113d
00000060: d6a7 a1b9 9e80 5cbc 3d1b 0c3d 6e5e 9f3c
00000070: a831 11be 2996 2b3f 2f8e f2bd 562c b9bc
00000080: 5b1d c53a 9174 52bc ab8e 443c 6488 82bd
00000090: 4ea6 1239 9220 52bb dd44 6d3c f519 eebb
000000a0: 9bbd d43e 00d3 b03f 9cac 99bc 5b4d 0bbb
000000b0: 125a c63a 12b1 e03c d531 063c 5b92 683d
000000c0: f6ca 053a 75a3 f9ba 0e37 9a3c fe97 de3c
000000d0: 0b69 003e 3c78 b4be 1c4a 1bbe 17e2 dd3c
000000e0: 2f12 bfb8 f201 bc3c c8b0 acbb 24ef 31bc
000000f0: e911 0ebe ad6e 2dbf 3da0 b7bc ea6b 20bc
00000100: 8c05 acba 8fb7 123d 51ca ddbc 4d70 9d3d
00000110: 8bc1 42be 09ed a33e 4736 843c 4637 d0bc
00000120: e4b9 25bf 9ddc 69be 6a8d 033c c142 c8bc
00000130: e6fe 823a 1814 bbbc 0f2d 1e3d 839f adbd
00000140: f819 923f 7cd8 15bf 296c 1abc 2c50 b7b9
00000150: 157d d0be ff6e 59bf 3e5a 1cbd 53b0 043c
00000160: 8272 01bb 3ff0 b5bb 4fa3 7cbb 45fd 57bd
00000170: e4d5 0a3f 613e 1cbe 8060 7cbc 0c89 593c
00000180: 102d 983e ef6d 2841 b477 80bd 25c1 20bd
00000190: 6b5a 77bf 5d8d 12c0 f460 563d 34a1 ebba
000001a0: ecd8 e1bd c759 2f3f bc25 8bba 56d3 d73d
000001b0: d155 3b3e ed90 3a41 8f2d 64bd d107 b6bd
000001c0: b173 e2bd 3b34 53c0 ad63 853d 249e 073e
000001d0: 918f 463d 9b51 f8c0 4d3f a43b e50a acba
000001e0: e9dc 83be d205 97c0 d23b 0d3b 873d 243d
000001f0: e5a4 3abc 3980 80c0 051a 0e3d 8800 aa3c
00000200: b1bf 17bf d3e0 7a3e 0b1f 5c3c 9a94 9bbb
00000210: 5d16 163c 71f1 03bb 4241 a03c 421d b63b
00000220: 6424 95ba 6f7f 353b 193e 06bc 0482 b23d
00000230: 832a 9db8 6852 a2bc 3189 7f3a d017 a23c
00000240: 353c c53e 4a09 0ebe 4f33 a83a 7a4c 46bd
00000250: 5ea8 233f 7342 f0be c0fe d83c a440 2abc
00000260: 9a8e 9b3e 97da d53f a58f 023c 9b08 053d
00000270: 3614 eb3a 28d1 39bd 29d3 413d daba d239
00000280: e09e f9be fbee 70be d4bd 94bc 8171 1cba
00000290: 5d3a 443b ab9f 973c 7884 133d 9c23 a8bc
000002a0: 4ed3 5fbc 8177 bfbc 7a03 29bd 7247 943b
000002b0: b44f 033f db9c 81bf 640a d53c 800e a3bb
000002c0: 12d8 783b a10f 2cbc 33d2 cbbb 2aa4 82bb
000002d0: 059b d43c 9c69 9f3f f445 03bd 6c43 a7bd
000002e0: b22d ac3e 7c78 563f d1e9 b43b 8bab 033c
000002f0: 6144 f0be 1afb 74c1 ee00 383d 261e 863c
00000300: 6823 c43e 0713 0e40 4ede bcbc 5d7e 6fbc
00000310: 410a 60be db55 1041 72e4 8cbb e88f 163c
00000320: bdac 3fbd 4302 3fbd ac54 c9bd 3015 cbbc
00000330: 5a2c fb3a fadf bc3b 3e48 cc3d 9646 e2bc
00000340: 3ffc a4be 3cce 55bf 579a 7b3c 7cca f8bc
00000350: 03f2 fa38 552d 16bc 6e93 f5bb 190f ce38
00000360: 4a97 153f 8303 94bf 4a34 6ebc 2752 60bd
00000370: 2441 1e3b ca6b 673c 6e1d 1b3c eb30 99bd
00000380: 7392 0f3e 8260 383f fb51 23be ba1a 1cbd
00000390: 3951 343e 6587 51c1 5fd2 143d b42d c73b
000003a0: 4a09 fb3c 7999 0d3b a855 b03d 0563 aa3d
000003b0: 7e28 88ba 0e4d 363c 1a06 42bd 4820 1e3a
000003c0: 2453 8abe f0c7 89c0 21b6 6e3c 2afc e03b
000003d0: b00b 3b38 b7a5 403c 3cc2 eabc 74cf 5b3d
000003e0: 38c5 99b9 be81 073b c0b7 fc3b 6745 8e3c
000003f0: 2bbf c73e 7bfa 823f 3857 ca3c 53ea 243c

decoder_net.0.bias f4 [64]
-0.0020026322 0.94644797 -4.0989714 -3.761196 -3.3700502 -1.5861113 0.0062226746 2.5637648
0.00059698557 -0.0014797783 -1.0110382 -0.0087235365 0.005119635 -2.0772562 -0.0077334507 0.3682273
0.00014562087 3.213903 0.7074447 -0.00092592835 -0.9483744 1.4270452 0.0108624445 -1.5253145
-0.7908507 1.9297414 1.7118694 -0.3086877 0.67728764 0.8292945 1.6983318 0.34551373
1.4580864 -0.0007229094 0.00031177473 -0.003162492 -2.0004082 -1.7706922 -1.8857256 -0.004570952
1.5932791 -0.01068536 -0.005202854 -3.8128114 0.0018122238 -0.14589812 -1.2691827 3.5017014
-1.434068 1.7333511 0.44699192 0.0009591786 1.3772256 0.0013584569 -2.6837096 0.0007175945
-2.3857906 -0.4826587 -0.26830333 0.00029616422 0.96408194 -3.8292907e-05 0.00012610645 -1.3765073
00000000: 983e 03bb 6a4a 723f c62a 83c0 6fb7 70c0
00000010: e7ae 57c0 b205 cbbf 94e7 cb3b b914 2440
00000020: 067f 1c3a 1ff5 c1ba b369 81bf 2aed 0ebc
00000030: 9cc2 a73b c4f1 04c0 e368 fdbb 4a88 bc3e
00000040: ceb1 1839 96b0 4d40 191b 353f 00ba 72ba
00000050: aac8 72bf 6ba9 b63f 65f8 313c 813d c3bf
00000060: 3175 4abf c401 f73f 891e db3f 500c 9ebe
00000070: b962 2d3f a54c 543f f062 d93f 2de7 b03e
00000080: 93a2 ba3f a181 3dba b275 a339 d041 4fbb
00000090: b006 00c0 0ba6 e2bf 755f f1bf edc7 95bb
000000a0: 92f0 cb3f a611 2fbc b47c aabb 1a05 74c0
000000b0: 2488 ed3a 5166 15be 9474 a2bf e01b 6040
000000c0: 8a8f b7bf 73de dd3f 20dc e43e 6371 7b3a
000000d0: ee48 b03f 400e b23a e6c1 2bc0 f41c 3c3a
000000e0: cbb0 18c0 0b1f f7be 0e5f 89be 7d46 9b39
000000f0: 13ce 763f b29c 20b8 713b 0439 6431 b0bf

decoder_net.1.weight f4 [64, 64]
-0.050999742 -0.054463103 -0.06259103 -0.09554111 -0.11671943 -0.071271464 -0.020558828 0.00860227
-0.20631446 0.0354286 0.0727342 0.044245575 -0.038943823 0.03801352 -0.07662893 0.024704134
-0.049499158 -0.049021065 0.04735763 0.058967605 -0.037382893 -0.00047034348 -0.0051067425 0.09035016
0.10655635 0.042532746 0.11807205 -0.11331516 -0.019679893 0.119586684 0.07942285 0.15328035
-0.124046445 -0.09111942 -0.058543645 -0.046804853 0.1517495 -0.10038727 -0.06569595 0.039803013
-0.08320931 0.08576012 -0.047888275 -0.019706322 0.15219212 -0.015261271 0.033237416 -0.010019123
-0.06938042 -0.015303812 -0.008476197 0.10333213 0.17033064 -0.08792748 0.1645299 -0.067186706
0.1242028 0.12123359 0.12708475 -0.052878655 -0.08623817 -0.10109093 0.065301165 0.16878802
-0.058098253 -0.7847337 0.40671894 0.09282448 0.29581362 -0.12373343 0.5638339 0.094842315
-0.27117562 0.40703797 -1.1863425 -0.0711557 -0.18720879 -0.060077988 0.5443363 -2.4252074
-0.1436013 0.11793006 -10.838984 0.6681284 -8.913657 0.3205992 0.29655546 -0.33927387
0.15781604 -3.12625 -0.04139277 1.5742159 -0.0013699664 -0.69150597 -0.050489727 -0.32127905
-0.45044267 0.15238635 0.29247928 0.019095542 0.08164476 -0.29286775 -0.38658231 1.0548803
0.012483338 0.035136048 -0.08226085 -0.052301403 -6.959756 0.31910744 -0.05543031 0.27846235
0.5555965 0.44078326 -0.04739145 -1.295301 0.10590826 0.54666865 -0.13960561 -0.08910421
0.030015977 0.22079791 -0.18904969 0.48863462 0.78020424 0.17809065 0.5976747 0.18159148
0.018974079 0.12406606 0.0126249865 0.16381192 0.19911021 0.089875534 -0.01136401 0.13679214
0.00096010254 0.054876313 0.12859441 0.044382732 0.060218774 0.242838 0.09002663 -0.09376307
0.0043088105 0.043488737 -0.20009962 0.024621312 -0.22844332 -0.13056953 -0.15546675 0.0478907
0.3673489 0.12815681 -0.04825503 0.05196886 -0.058781296 -0.22678107 -0.004795446 -0.60019106
0.017745076 -0.07398137 0.031117838 0.020712497 -0.022765841 0.2037202 -0.25955006 0.185254
-0.1878512 -0.047548614 0.29413033 -0.8168792 0.30353576 0.21927854 -0.02967934 0.17504561
0.31635854 0.038071822 0.27572572 -0.07685888 -0.022165673 0.11571298 0.106549025 0.015404052
0.006590848 -0.10406528 0.3100357 0.07584575 0.3365673 -0.029525196 -0.08980171 -0.07271063
0.10658556 -0.027013393 -0.014999307 -0.04427328 0.053499375 -0.08505557 -0.088141695 0.05876301
0.09068978 -0.026303738 -0.015915848 0.03960968 0.04967733 0.12095005 -0.055213854 0.07739307
-0.14114779 -0.0669508 -0.014294553 0.001549404 -0.0018589388 -0.070521444 -0.08905258 0.014453254
-0.020562707 0.061710093 0.017788557 -0.00022927776 -0.10530821 -0.0068941195 -0.042008583 0.09756392
-0.005665415 0.032227863 -0.016572649 0.00850632 0.08987954 -0.0145333465 -0.0011708526 0.024191499
-0.01772158 0.15138735 -0.10451812 0.0021236343 0.2614738 0.02646104 -0.090485 0.02192889
-0.053493988 -0.020651996 -0.037899297 0.08474494 -0.067174435 -0.03747143 0.009730153 -0.042883422
-0.026728014 0.0039551957 0.064593114 -0.052769627 -0.0017623297 0.04366578 -0.041495036 0.09528072
00000000: 1be5 50bd b414 5fbd ba2f 80bd 0fab c3bd
00000010: 990a efbd c6f6 91bd fd6a a8bc 89f0 0c3c
00000020: 1944 53be 941d 113d abf5 943d d93a 353d
00000030: 8f83 1fbd 11b4 1b3d a1ef 9cbd 5360 ca3c
00000040: a1bf 4abd 50ca 48bd 13fa 413d 0488 713d
00000050: ce1e 19bd 6f98 f6b9 7656 a7bb 8109 b93d
00000060: 373a da3d d136 2e3d c2cf f13d c711 e8bd
00000070: ba37 a1bc dde9 f43d 72a8 a23d 86f5 1c3e
00000080: 100c febd d29c babd 76cb 6fbd 72b6 3fbd
00000090: 3964 1b3e d797 cdbd 998b 86bd 7c08 233d
000000a0: a569 aabd 00a3 af3d 7f26 44bd 276f a1bc
000000b0: 40d8 1b3e 690a 7abc f523 083d 3f27 24bc
000000c0: 5217 8ebd d7bc 7abc bfdf 0abc cc9f d33d
000000d0: 286b 2e3e 5313 b4bd 877a 283e 2f99 89bd
000000e0: 0a5e fe3d 5149 f83d 8122 023e 4a97 58bd
000000f0: a39d b0bd c308 cfbd 9ebc 853d c4d6 2c3e
00000100: 6ff8 6dbd 4fe4 48bf 773d d03e c31a be3d
00000110: e274 973e f467 fdbd 6b57 103f b03c c23d
00000120: 88d7 8abe 4867 d03e 12da 97bf 14ba 91bd
00000130: a9b3 3fbe 5614 76bd a059 0b3f 9936 1bc0
00000140: 380c 13be 5185 f13d 7a6c 2dc1 760a 2b3f
00000150: 579e 0ec1 9425 a43e 1ed6 973e 4eb5 adbe
00000160: 879a 213e 7b14 48c0 778b 29bd e87f c93f
00000170: 7290 b3ba 8906 31bf 51ce 4ebd b07e a4be
00000180: 6ca0 e6be 2b0b 1c3e d8bf 953e 416e 9c3c
00000190: 5e35 a73d c3f2 95be 1eee c5be 5106 873f
000001a0: ea86 4c3c d1ea 0f3d 6078 a8bd ff39 56bd
000001b0: 52b6 dec0 0d62 a33e e50a 63bd 9e92 8e3e
000001c0: 923b 0e3f 58ae e13e 891d 42bd 6ccc a5bf
000001d0: 6ee6 d83d 7af2 0b3f c6f4 0ebe 457c b6bd
000001e0: 11e4 f53c d918 623e 3e96 41be 512e fa3e
000001f0: 77bb 473f 655d 363e 3601 193f 1ef3 393e
00000200: 876f 9b3c 5916 fe3d 08d9 4e3c 50be 273e
00000210: 8ce3 4b3e aa10 b83d 1d30 3abc 3d13 0c3e
00000220: 64af 7b3a fcc5 603d 41ae 033e abca 353d
00000230: f6a7 763d 86aa 783e e25f b83d da06 c0bd
00000240: ec30 8d3b 3f21 323d eae6 4cbe a2b2 c93c
00000250: 0ced 69be 05b4 05be ad32 1fbe 0a29 443d
00000260: 2815 bc3e 8a3b 033e 11a7 45bd 4ddd 543d
00000270: a8c4 70bd 4c39 68be 1e23 9dbb 1fa6 19bf
00000280: 1f5e 913c 8b83 97bd d6ea fe3c 41ad a93c
00000290: 6e7f babc 079c 503e bfe3 84be 39b3 3d3e
000002a0: 115c 40be 56c2 42bd 4098 963e ff1e 51bf
000002b0: 0a69 9b3e 8e8a 603e 1622 f3bc 283f 333e
000002c0: bff9 a13e 33f1 1b3d ec2b 8d3e 3068 9dbd
000002d0: c994 b5bc edfa ec3d 6036 da3d 4761 7c3c
000002e0: 0af8 d73b 2d20 d5bd 00bd 9e3e 0455 9b3d
000002f0: 8d52 ac3e d3de f1bc f5e9 b7bd 50e9 94bd
00000300: 8849 da3d 314b ddbc a7bf 75bc e657 35bd
00000310: 2922 5b3d 9d31 aebd a283 b4bd 7bb1 703d
00000320: 90bb b93d f07a d7bc f461 82bc c33d 223d
00000330: 757a 4b3d a9b4 f73d ec27 62bd 4280 9e3d
00000340: 0c89 10be 801d 89bd b333 6abc 5f15 cb3a
00000350: a3a7 f3ba 8c6d 90bd 3361 b6bd 57cd 6c3c
00000360: 1f73 a8bc b9c3 7c3d 4fb9 913c 486a 70b9
00000370: d5ab d7bd 11e8 e1bb 3111 2cbd 98cf c73d
00000380: f2a4 b9bb 5d01 043d 5dc3 87bc 185e 0b3c
00000390: c412 b83d 461d 6ebc 4b77 99ba 402d c63c
000003a0: d92c 91bc 4905 1b3e 990d d6bd ac2c 0b3b
000003b0: e5df 853e d3c4 d83c 3350 b9bd 37a4 b33c
000003c0: 831c 5bbd 602e a9bc 4b3c 1bbd c18e ad3d
000003d0: c092 89bd a47b 19bd 386b 1f3c 87a6 2fbd
000003e0: b5f4 dabc 969a 813b 6549 843d f724 58bd
000003f0: f9fd e6ba e4da 323d b3f6 29bd 8a22 c33d

decoder_net.1.bias f4 [64]
0.051858116 0.48809686 0.08102783 -0.0019493365 0.09070448 0.56803465 0.31055465 0.08050501
-0.8679796 0.15848951 -0.022920826 0.06802532 0.069436185 0.26768616 0.0025095968 0.9343175
-0.03735687 0.73708296 -0.14542572 -0.04815695 0.005326951 0.41285506 -0.01703756 0.04309289
0.51356983 0.028607009 0.100954376 -0.04143419 -0.000894729 0.019514563 1.5500579 0.6731503
0.37871897 0.087687716 -0.10204571 -0.07131776 -0.0032290642 0.0013389807 0.104682885 0.039992332
0.06666947 0.00097424793 0.1099674 0.02598997 -0.038345166 0.029320447 1.1565286 0.375545
0.35465604 -0.074806735 1.4798008 1.0507443 0.007985164 -0.08051582 0.022337453 0.9367396
0.39098606 0.082569085 -0.019872336 -0.054640055 0.18216945 0.09554565 0.024522139 0.11324071
00000000: 2d69 543d d5e7 f93e ebf1 a53d e180 ffba
00000010: 45c3 b93d b86a 113f 0501 9f3e d0df a43d
00000020: e933 5ebf 134b 223e 75c4 bbbc dc50 8b3d
00000030: 8f34 8e3d 290e 893e 0c78 243b 6f2f 6f3f
00000040: 8403 19bd 78b1 3c3f 7bea 14be 3940 45bd
00000050: b48d ae3b bd61 d33e 5a92 8bbc 2c82 303d
00000060: 5079 033f 3f59 ea3c 2bc1 ce3d e6b6 29bd
00000070: 3f8c 6aba 01dd 9f3c 4c68 c63f 9453 2c3f
00000080: 74e7 c13e 9e95 b33d 57fd d0bd 0c0f 92bd
00000090: b59e 53bb bd80 af3a fb63 d63d 00cf 233d
000000a0: 018a 883d ac64 7f3a 9736 e13d ebe8 d43c
000000b0: d20f 1dbd 6f31 f03c 2109 943f 6f47 c03e
000000c0: 7a95 b53e 4634 99bd 1d6a bd3f ca7e 863f
000000d0: 35d4 023c 7ae5 a4bd 09fd b63c 2bce 6f3f
000000e0: 532f c83e fb19 a93d 4fcb a2bc 40ce 5fbd
000000f0: a18a 3a3e 70ad c33d a7e2 c83c bfea e73d

decoder_net.3.weight f4 [1, 64]
-0.0024172806 -0.19942309 0.0052071153 0.00096119696 -0.0017282838 0.4486318 -0.34464577 -0.00018052774
0.20314793 0.0011656908 -0.0005839756 0.00056312635 -0.0014322778 0.29983988 -0.2500914 -0.17701145
0.0008131472 -0.10931367 -0.0007613385 0.0011157645 -0.0014672929 0.18024547 -0.0009231345 -0.00052536285
0.076721326 -0.0030510118 0.00011940494 -0.00061019906 0.0014091369 -0.0018851104 -0.10507367 0.3617192
-0.05077712 0.1755516 0.0018242225 0.0022559396 0.0015610034 0.000821014 0.047628835 0.0029814795
0.00017013599 -0.0010979518 0.00062522077 -0.0013948635 0.0011118462 0.0010477862 -0.26757473 0.24783258
0.058849923 0.00089423 -0.39881936 -0.22302656 0.003232588 -0.0010397707 0.0027978676 0.42738923
-0.1384689 -8.7036926e-05 -0.0008753247 -0.0006337242 0.0014982122 -0.2315596 0.000652959 0.0029684496
00000000: 3d6b 1ebb 9135 4cbe 73a0 aa3b d6f8 7b3a
00000010: 9587 e2ba 11b3 e53e 6975 b0be 0c4c 3db9
00000020: 0306 503e 18ca 983a f015 19ba c59e 133a
00000030: 45bb bbba 9d84 993e fb0b 80be 7d42 35be
00000040: 6329 553a d8df dfbd 9094 47ba d83e 923a
00000050: 2e52 c0ba 4592 383e 82fe 71ba 81b8 09ba
00000060: 1220 9d3d 7cf3 47bb 0a69 fa38 c4f5 1fba
00000070: cab2 b83a cf15 f7ba dd30 d7bd 4233 b93e
00000080: abfb 4fbd ccc3 333e c01a ef3a 63d8 133b
00000090: 959a cc3a 5139 573a 7416 433d ed64 433b
000000a0: 8866 3239 26e9 8fba dbe5 233a dad3 b6ba
000000b0: 5ebb 913a df55 893a 8eff 88be d3c7 7d3e
000000c0: 9e0c 713d c26a 6a3a 0d32 ccbe 1361 64be
000000d0: d4d9 533b ea48 88ba 6e5c 373b c3d2 da3e
000000e0: cbca 0dbe 9887 b6b8 0c76 65ba 8320 26ba
000000f0: a95f c43a f61d 6dbe 562b 2b3a 528a 423b
