scinet3_1k.pt (torch, 352231 bytes, 13 tensors)

encoder_net.0.weight f4 [500, 50]
0	0xbdc2c695	-0.09510533
1	0x3df3d8fa	0.11906619
2	0x3d0f259c	0.034947976
3	0x3d036816	0.032081686
4	0xbdc6ed10	-0.09713185
5	0xbdb246f3	-0.08704939
6	0x3c91122e	0.017708864
7	0xbacc8593	-0.0015603773
8	0x3dd0e474	0.10199824
9	0xbda9e72d	-0.082960464
10	0xbbcfcba0	-0.0063414127
11	0x3c7e0830	0.015504882
12	0xbcb5455f	-0.022127805
13	0xbdb738c3	-0.08946373
14	0x3dcea69d	0.10090373
15	0xbb60de5f	-0.003431223
16	0xbd18c788	-0.037299663
17	0x3d2293bd	0.039691675
18	0xbdc8f0f2	-0.09811582
19	0x3d95f4a5	0.07322053
20	0xbd8aef0d	-0.067838766
21	0xbdddee48	-0.10836464
22	0x3d93649b	0.07196923
23	0xbcc88a69	-0.024480062
24	0x3cffd8cd	0.031231308
25	0x3dd49491	0.10379899
26	0x3ca93427	0.020654751
27	0xbd8e62bd	-0.069524266
28	0xbe03b1ed	-0.12860842
29	0xbd16cf74	-0.036818936
30	0xbcbc0db6	-0.022955757
31	0x3d8a460e	0.06751643
32	0x3d5bde59	0.053678844
33	0x3d9ed3ca	0.07755239
34	0xbd9b03da	-0.07569094
35	0xbdfb1902	-0.12260629
36	0x3e003a8b	0.12522332
37	0xbd879c44	-0.06621602
38	0x3df2e7a5	0.11860589
39	0xbd5ed042	-0.05439783
40	0xbdbd03c2	-0.09229232
41	0xbda19590	-0.07889855
42	0x3dd2eef3	0.10299482
43	0x3dae2e4b	0.085049234
44	0x3cb99ea3	0.022658652
45	0x3cdfb7f7	0.027309401
46	0xbcd7acff	-0.026327608
47	0xbdd675b6	-0.1047167
48	0xbd76bf57	-0.06024107
49	0x3de0dd28	0.10979682
50	0xbd9467de	-0.072463736
51	0x3d401047	0.046890523
52	0xbe0e595f	-0.1390128
53	0xbd4b1a4e	-0.049585633
54	0x3d32f50d	0.04369073
55	0x3be30999	0.0069286344
56	0xbb3e4c00	-0.0029036999
57	0x3d066033	0.032806586
58	0xbe148d74	-0.14507085
59	0xbe098132	-0.1342819
60	0xbb3012a9	-0.002686659
61	0xbb3f316f	-0.0029173752
62	0x3ded2ac5	0.11580423
63	0xbd6947f2	-0.056953378
64	0x3d8b7efc	0.0681133
65	0xbdef1035	-0.11673013
66	0x3d11bbf0	0.03557962
67	0xbdee17f3	-0.11625662
68	0xbdc0f227	-0.09421187
69	0xbe148552	-0.14503983
70	0x3d38671d	0.04502021
71	0x3dd387b0	0.10328615
72	0xbdec975b	-0.11552306
73	0x3dd0dc29	0.10198242
74	0xbdd58709	-0.104261465
75	0xbdb0f7c4	-0.086410075
76	0xbde6a370	-0.11261642
77	0x3e17a3e4	0.14808613
78	0xbd8e49b8	-0.069476545
79	0xbd84dd47	-0.06487518
80	0xbd991265	-0.074742116
81	0xbc796339	-0.01522141
82	0xbd3fd19a	-0.04683075
83	0x3db14a22	0.08656718
84	0xbdaa0a8e	-0.083027944
85	0xbd0d2945	-0.034463186
86	0xbdce6d5f	-0.10079455
87	0xbdb0732d	-0.08615718
88	0x3d9fd0e9	0.07803518
89	0x3d127c6b	0.035763185
90	0x3b074c9a	0.0020645023
91	0x3d8ccb3e	0.06874703
92	0xbdce9b1d	-0.10088179
93	0xbdc9c170	-0.098513484
94	0x3d81dfe0	0.06341529
95	0xbda211e7	-0.07913571
96	0xbc921567	-0.017832471
97	0x3da3cc5c	0.07997963
98	0xbd8a4e0f	-0.0675317
99	0x3c6fea61	0.014643283
100	0xbce64cc7	-0.028112782
101	0x3ded4dbf	0.115870945
102	0x3c267091	0.010158674
103	0xbdae6a5e	-0.08516382
104	0xbdce04c8	-0.10059506
105	0x3e272992	0.16324452
106	0x3d44635f	0.04794633
107	0x3d495685	0.049154777
108	0xbd80b9fc	-0.06285474
109	0xbdb48878	-0.08815092
110	0xbda68452	-0.08130707
111	0x3c80e933	0.015736198
112	0x3dbfb3c1	0.09360457
113	0x3dcffca8	0.10155612
114	0xbe032173	-0.12805729
115	0x3d02fc40	0.031978846
116	0xbdc055ed	-0.09391389
117	0x3d616294	0.055025652
118	0x3cb04ad6	0.02152006
119	0x3d9187c4	0.07105973
120	0xbda84cbd	-0.08217762
121	0xbd3fb940	-0.046807528
122	0x3d92e4d4	0.07172552
123	0xbdf07959	-0.11741895
124	0xbd73b3c9	-0.05949763
125	0x3d349b3b	0.04409335
126	0x3b2025cd	0.0024436594
127	0x3d49731c	0.049182042
128	0xbd992b3a	-0.07478948
129	0x3c9898e0	0.018627584
130	0xbdbf2060	-0.09332347
131	0x3cc29f09	0.023757474
132	0x3caccf88	0.021095052
133	0x3d74e221	0.059785966
134	0x3c480014	0.01220705
135	0xbd3276a2	-0.04357017
136	0xbdd229e4	-0.10261896
137	0xbd736048	-0.059417993
138	0x3caec079	0.021332012
139	0xbd8961ba	-0.06708093
140	0xbd0b2aa1	-0.0339762
141	0x3ddd3d06	0.10802655
142	0x3d4f8efe	0.050673477
143	0xbb17c499	-0.0023157953
144	0xbd28e2e2	-0.041231997
145	0xbd89619c	-0.06708071
146	0xbd57d31f	-0.052691575
147	0x3d1194b9	0.035542224
148	0x3dc15d34	0.09441605
149	0xbda1f458	-0.07907933
150	0x3d65570c	0.055991217
151	0xbd0ea0da	-0.03482137
152	0xbd18df56	-0.037322365
153	0xbd6b6eee	-0.057478838
154	0x3ddfbd3c	0.109247655
155	0x3ddc97ce	0.10771142
156	0xbd81103b	-0.06301924
157	0xbd95f995	-0.073229946
158	0x3dd30e95	0.10305516
159	0xbd8f5ed0	-0.07000506
160	0xbd80426c	-0.06262669
161	0xbdec6417	-0.11542528
162	0x3dd7d5b8	0.105388105
163	0x3e0b3f25	0.13598306
164	0xbe115a11	-0.14194514
165	0x3d815dc9	0.06316716
166	0x3d92ba2d	0.071644165
167	0xbdb98e8d	-0.090603925
168	0xbd325502	-0.0435381
169	0x3ca877de	0.02056497
170	0x3e2298b4	0.15878564
171	0xbdc00c03	-0.09377291
172	0xbd91830b	-0.071050726
173	0xbd1584c1	-0.036503557
174	0xbd95aac5	-0.07307962
175	0x3d2fb1bb	0.042894106
176	0x3d654780	0.05597639
177	0x3d5863e4	0.052829638
178	0xbdabeab4	-0.083943754
179	0x3d2e00cb	0.042481225
180	0x3d61ca37	0.055124488
181	0x3d421e82	0.047392376
182	0x3cb4039d	0.02197438
183	0xbd051661	-0.032492045
184	0xbddada2b	-0.106861435
185	0xbe23332e	-0.15937492
186	0x3d4aefed	0.049545217
187	0x3e1a5123	0.15070014
188	0x3c30a795	0.010782142
189	0xbc962515	-0.018328229
190	0xbd82991d	-0.0637686
191	0x3e0a42ac	0.13501996
192	0x3b2d1e8a	0.0026415908
193	0x3de3f471	0.11130608
194	0xbe04deb7	-0.12975584
195	0xbdfd11d6	-0.123569176
196	0x3db6b775	0.089217104
197	0xbdb61676	-0.08891003
198	0x3d919a50	0.07109511
199	0x3d4b2895	0.04959925
200	0x3d4211bd	0.047380198
201	0x3c5a88c9	0.013338276
202	0x3d55e29d	0.05221807
203	0xbd7ffc3b	-0.062496405
204	0xbdac483f	-0.08412217
205	0x3e0c0085	0.13672073
206	0xbcfc2b3b	-0.030782333
207	0xbccd4ef8	-0.02506207
208	0x3d4a6727	0.04941478
209	0x3d9df000	0.07711792
210	0xbd373f09	-0.04473785
211	0x3d702bdc	0.058635578
212	0xbdffc124	-0.124880105
213	0x3dc72e8a	0.097256735
214	0x3b41f905	0.002959789
215	0xbd924cfe	-0.07143591
216	0xbab8e111	-0.0014105161
217	0x3e09d812	0.1346133
218	0xbb3b64ab	-0.0028593938
219	0xbdb34878	-0.08754057
220	0x3d226ff4	0.039657548
221	0x3dd1f1b7	0.102511816
222	0xbdb3e158	-0.08783215
223	0x3da18526	0.07886724
224	0x3d38494b	0.044991773
225	0xbd872a85	-0.06599907
226	0xbcf0b53b	-0.029383292
227	0x3e2703b4	0.16310006
228	0xbd93d0c3	-0.072175525
229	0xbddd4021	-0.10803247
230	0x3ce8ecd8	0.028433248
231	0x3de6ffe1	0.11279274
232	0x3d900af1	0.07033337
233	0xbdc2a1d5	-0.09503523
234	0x3d8c9e52	0.06866135
235	0x3e0a183f	0.13485812
236	0xbe044769	-0.12917866
237	0xbcbd860a	-0.023135204
238	0xbd18d990	-0.03731686
239	0x3dd22f45	0.10262922
240	0x3beee84a	0.0072908746
241	0x3bec1a3f	0.007205277
242	0xbcc55f5f	-0.024093328
243	0x3c9bc27a	0.019013632
244	0x3dd69a28	0.10478622
245	0xbd94c3a4	-0.07263878
246	0xbd952822	-0.07283045
247	0x3d81d100	0.06338692
248	0x3d222137	0.039582457
249	0xbbbc9172	-0.005754643
250	0xbd9cf621	-0.07664133
251	0x3dd915b0	0.1059984
252	0x3db91f3e	0.09039162
253	0xbd9da504	-0.0769749
254	0xba955b02	-0.001139492
255	0x3cfa6909	0.030567663

encoder_net.0.bias f4 [500]
0	0xbc857a41	-0.016293647
1	0x3db8c53e	0.09021996
2	0xbd2c06b7	-0.04199859
3	0xbd22fa0e	-0.039789252
4	0xbd19c1e3	-0.03753842
5	0x3bf6c58b	0.007530873
6	0xbe9e3a3f	-0.30903813
7	0x3d8dfd02	0.06933023
8	0x3ef9cfbd	0.48791304
9	0x3d348ce9	0.044079695
10	0xbdd0f94d	-0.102038
11	0x3c040f5e	0.008060304
12	0x3d9b859b	0.075938426
13	0x3d028b9e	0.03187143
14	0xbdd5ef9f	-0.10446095
15	0xbd168465	-0.036747355
16	0xbcdc1bf2	-0.026868794
17	0xbcf77398	-0.030206487
18	0x3c8df4ec	0.017328702
19	0x3d8f7ce6	0.07006244
20	0x3d851114	0.06497398
21	0x3d126041	0.035736326
22	0x3d7b2c6f	0.061321672
23	0x3dc5a7cd	0.09651146
24	0xbdbd297d	-0.09236429
25	0x3cdc0089	0.026855724
26	0xbd882413	-0.066475056
27	0x3cce50c0	0.025184989
28	0xbd7f0087	-0.062256362
29	0x3dc3148f	0.095254056
30	0x3dba4d31	0.09096754
31	0xbc6a506b	-0.0143014
32	0x3d31231b	0.04324637
33	0xbd08b68d	-0.03337722
34	0xbd8316da	-0.06400843
35	0xbdbe345d	-0.09287331
36	0xbd8096d6	-0.0627877
37	0xbae23e4c	-0.0017260998
38	0x3d775c20	0.06039059
39	0xbcea8967	-0.028629972
40	0x3d1e382f	0.0386278
41	0xbcdaefe2	-0.026725713
42	0x3d9296ec	0.07157692
43	0xbd41decf	-0.047331627
44	0x3ada3f89	0.0016651015
45	0xbe003b65	-0.12522657
46	0xbd0c932c	-0.03432004
47	0xbde5dec1	-0.112241276
48	0xbdfc4881	-0.123185165
49	0x3d30a6c4	0.04312779
50	0xbd54e00e	-0.051971488
51	0x3d711496	0.058857523
52	0xbd7a0982	-0.061044224
53	0x3b045a8d	0.0020195574
54	0xbd1f4f16	-0.03889378
55	0xbd90d760	-0.070723295
56	0x3d2a6be5	0.041606802
57	0xbddcd09c	-0.107819766
58	0xbdd61cd5	-0.10454718
59	0xbd28bd3d	-0.041196097
60	0x3c72c82a	0.014818231
61	0x3da53dca	0.08068426
62	0xbda4a976	-0.080401346
63	0xbdb94e43	-0.0904813
64	0x3be6dcd3	0.0070453673
65	0x3d174d29	0.03693882
66	0x3d6df21d	0.058092225
67	0x3d628760	0.055304885
68	0x3e2902b2	0.16504934
69	0x3ddbe49c	0.10736963
70	0xbd83c6e0	-0.06434417
71	0xbeaf1f7d	-0.3420371
72	0xbc936be8	-0.01799579
73	0xbd9bbcaf	-0.07604348
74	0xbdaf14fa	-0.08548923
75	0x3cb0342e	0.021509256
76	0xbd9a44c5	-0.07532648
77	0x3db60b92	0.088889256
78	0xbc91886b	-0.017765244
79	0x3d473f60	0.048644423
80	0x3ded416b	0.11584743
81	0x3c72422c	0.014786284
82	0x3da14cdd	0.07875989
83	0x3d412589	0.047154937
84	0x3cb5439b	0.022126963
85	0x3c95c89e	0.018284138
86	0xbc6bd49f	-0.014393955
87	0xbd191186	-0.037370227
88	0x3d1baf93	0.038009237
89	0xbbffd2fc	-0.0078071337
90	0x3d08370e	0.03325563
91	0xbdbdb852	-0.09263672
92	0xbca2ccde	-0.019873079
93	0xbe003272	-0.12519243
94	0x3cc43c32	0.023954485
95	0x3dd471c7	0.10373264
96	0x3d27b563	0.04094447
97	0x3da772de	0.08176206
98	0xbe832d58	-0.25620532
99	0xbde8f7d4	-0.113753945
100	0xbda6edc5	-0.0815082
101	0xbe08d26f	-0.13361524
102	0x3d83a4f6	0.06427948
103	0x3d8e61a0	0.06952214
104	0xbdb90511	-0.090341695
105	0x3df80a13	0.121112965
106	0x3d277529	0.040883217
107	0xbcc5a422	-0.024126116
108	0x3d02c3a1	0.031924848
109	0xbe23c21a	-0.15992013
110	0x3d997ab0	0.07494104
111	0x3d88d60b	0.066814505
112	0x3d1469c8	0.036233693
113	0xbddde2eb	-0.10834297
114	0xbdbbab84	-0.091635734
115	0xbda39b0c	-0.07988557
116	0xbc72f3f5	-0.014828672
117	0x3dd9471d	0.10609267
118	0xbddb6657	-0.10712879
119	0xbd6f9327	-0.058489945
120	0x3e0cbd9d	0.13744207
121	0xbd93dd09	-0.072198935
122	0x3c01ebad	0.007929725
123	0x3da11994	0.07866207
124	0x3ddadab3	0.10686245
125	0x3dd5eecb	0.10445937
126	0xbde0a0b1	-0.109681495
127	0x3be19d79	0.0068852273
128	0x3d4ae0b9	0.04953072
129	0x3cb256c2	0.021769885
130	0x3ddff678	0.10935682
131	0xbda6765b	-0.08128043
132	0xbd9827d9	-0.07429475
133	0x3d5c95f9	0.053853963
134	0xbd9ecf99	-0.0775444
135	0x3daccb6b	0.084372364
136	0xbdb5867c	-0.088635415
137	0xbc392875	-0.01130115
138	0xbaad753e	-0.0013233793
139	0xbd0377f7	-0.03209683
140	0x3d1c4c8c	0.03815894
141	0xbd4bc51e	-0.049748532
142	0xbd967d66	-0.073481366
143	0xbde56e8a	-0.11202724
144	0x3d0f743e	0.035022967
145	0xbd381d9a	-0.044950105
146	0xbd8bb189	-0.068209715
147	0x3d08087e	0.033211224
148	0x3c630354	0.013855774
149	0x3d8483da	0.06470461
150	0x3cab3784	0.020900495
151	0x3c930db5	0.017950872
152	0x3ccf4798	0.025302693
153	0xbd2021a7	-0.039094593
154	0xba773241	-0.00094297907
155	0xbda6a05e	-0.08136056
156	0x3d96bbcd	0.07360039
157	0x3dd08b93	0.10182872
158	0x3e220e5d	0.15825792
159	0xbe108dde	-0.14116618
160	0x3dc992d9	0.09842462
161	0x3d4adf0d	0.049529124
162	0x3d211c33	0.039333533
163	0x3da470e6	0.08029346
164	0xbc908709	-0.017642515
165	0xbd4e1176	-0.05030962
166	0x3d97849a	0.073983386
167	0x3dc61ad1	0.096730836
168	0x3da82b92	0.082114354
169	0x3d1b6dda	0.03794656
170	0xbd84a24a	-0.06476267
171	0xbc348728	-0.011018552
172	0x3c992322	0.01869351
173	0x3dd5f2fd	0.10446737
174	0x3d342cf4	0.043988183
175	0xbda23000	-0.079193115
176	0xbdfca019	-0.12335224
177	0xbcda583c	-0.026653402
178	0xbbe8867d	-0.0070961104
179	0x3e070793	0.13186483
180	0x3cbbeff2	0.022941563
181	0x3ccb039d	0.024781996
182	0x3dd5ec0e	0.104454145
183	0x3dc1517a	0.094393685
184	0x3ced0352	0.028932247
185	0x3d331253	0.043718647
186	0x3cb0c799	0.02157955
187	0xbd8c6510	-0.06855214
188	0x3d9b0fd1	0.07571376
189	0xbf2743d0	-0.6533785
190	0x3d452c3b	0.048137885
191	0x3cb01ac3	0.021497136
192	0x3cea50dd	0.028603012
193	0xbdc160d7	-0.09442299
194	0xbd08fe4c	-0.03344564
195	0xbc0605c4	-0.008180086
196	0xbc88674d	-0.01665082
197	0x3d951566	0.07279472
198	0xbd56e20e	-0.052461676
199	0x3d15b180	0.03654623
200	0x3e6c6dcf	0.23088764
201	0x3eb4e73e	0.35332674
202	0x3cf3080c	0.029666923
203	0x3de6ae00	0.112636566
204	0x3c700e45	0.01465184
205	0x3db7b230	0.089695334
206	0x3cf3f196	0.029778283
207	0xbd434b62	-0.047679313
208	0x3db5bf0c	0.0887433
209	0xbd229f4f	-0.03970271
210	0xbdf6f4ee	-0.120584354
211	0xbd5a9637	-0.053365912
212	0xbcc7897e	-0.024357554
213	0xbc9bb17d	-0.019005531
214	0x3cbfa981	0.023396255
215	0x3cfd1761	0.030894937
216	0xbdbfefb3	-0.09371891
217	0x3e1d713e	0.1537523
218	0xbde9951c	-0.114053935
219	0x3d11031c	0.035403356
220	0x3dda6fd2	0.10665859
221	0x3e1aa1cd	0.15100785
222	0x3d2843bb	0.041080218
223	0x3d433747	0.04766014
224	0xbda986e5	-0.08277682
225	0xbde02a89	-0.10945613
226	0x3d051ee0	0.032500148
227	0x3d9677e2	0.073470846
228	0xbd18cc17	-0.03730401
229	0xbb7f3ce9	-0.0038946217
230	0xbd84c759	-0.06483335
231	0xbd9054fb	-0.07047459
232	0xbd9c0650	-0.076183915
233	0x3d09e23e	0.033663027
234	0x3d98f0c3	0.07467797
235	0x3caf1da1	0.021376433
236	0xb9c82a9a	-0.00038178713
237	0x3de1a552	0.110178605
238	0xbd87f288	-0.06638056
239	0x3d02ebdf	0.031963225
240	0x3d092a89	0.03348783
241	0xbd5609fc	-0.052255616
242	0xbcb8bda2	-0.022551361
243	0x3bbc4dde	0.005746587
244	0xbce3c5e8	-0.02780433
245	0x3ce0c40f	0.027437238
246	0xbd6e0e8d	-0.058119345
247	0xbd8cec01	-0.06880952
248	0x3df4eb03	0.119588874
249	0x3dd98da0	0.10622716
250	0x3d925b31	0.071463
251	0x3d9c27ec	0.07624802
252	0x3d992665	0.07478026
253	0x3ced78ca	0.02898826
254	0x3d8d124c	0.068882555
255	0xbd1f40f4	-0.038880304

encoder_net.2.weight f4 [100, 500]
0	0x3b233cea	0.0024908134
1	0xbb18f617	-0.002334004
2	0xbb4f3980	-0.0031619966
3	0x3c54bae0	0.012984008
4	0x3ac28e85	0.00148435
5	0x3bdc2d1c	0.0067192446
6	0x3bc4593d	0.0059920833
7	0xb9cadaba	-0.00038691406
8	0x3c8447e7	0.016147567
9	0xbbac26fd	-0.005253671
10	0xbb9c692a	-0.0047732787
11	0xbba3a4cc	-0.0049940106
12	0xbb053beb	-0.0020329903
13	0xbb3d07a2	-0.002884366
14	0xbbcac967	-0.00618856
15	0x3aa57871	0.0012624395
16	0x3a40b7ae	0.0007351589
17	0xbafeb3e0	-0.0019432269
18	0xbb487847	-0.003058927
19	0xbb13108e	-0.0022440287
20	0x3ba28f4a	0.004960929
21	0xbb8f8fff	-0.0043811793
22	0x3a0e19d3	0.0005420718
23	0xbbc28b9e	-0.005937054
24	0x3aa4c301	0.0012570323
25	0xbb33fcde	-0.0027463953
26	0x3bd477a8	0.0064839907
27	0xba9c311a	-0.0011916489
28	0x3a89f4ec	0.0010525263
29	0xbc1de2fb	-0.009636636
30	0xbb9a0081	-0.004699767
31	0xbb5eebe5	-0.0034015116
32	0x3bbd2b87	0.005773011
33	0x3c1dd3aa	0.009632984
34	0xba872ce3	-0.001031306
35	0xbb5637e6	-0.0032687127
36	0x3bf2c342	0.0074085305
37	0xbbfdcbeb	-0.007745256
38	0x39d28c86	0.0004015902
39	0xbc85d919	-0.016338872
40	0x3b9f38ba	0.0048590573
41	0x3b6d7286	0.0036231591
42	0x3b4dea71	0.0031420256
43	0xbb1b4365	-0.0023691293
44	0x3bacfc02	0.005279065
45	0xbb17b594	-0.0023149
46	0x3aafb56a	0.0013405506
47	0xba10c6e9	-0.0005522804
48	0xbb2f2fe3	-0.0026731424
49	0xbc3a47de	-0.011369674
50	0xbb9c70a7	-0.0047741714
51	0x3c1361fd	0.00899553
52	0xbc7e0cf0	-0.015506014
53	0x3c2157df	0.00984761
54	0x3bea1e40	0.0071447194
55	0xb9fa333e	-0.00047721894
56	0xbb91a284	-0.004444422
57	0x3b1094bb	0.0022061307
58	0xba140e35	-0.0005647869
59	0xbaa07d3f	-0.0012244357
60	0xbb55b4a8	-0.00326089
61	0xbb0dc5e9	-0.0021632856
62	0xbbfa39ec	-0.0076362994
63	0xbbd6178e	-0.0065335697
64	0xbb669e99	-0.0035189746
65	0x3a8eb5ee	0.001088796
66	0xbbf0abca	-0.0073446976
67	0x3c77aa99	0.015116357
68	0x3c079598	0.008275412
69	0x3b864c8c	0.0040984806
70	0x3ad42ba1	0.0016187319
71	0x3bfb5b52	0.0076707983
72	0xba6bf47c	-0.00090009696
73	0xbb1e5570	-0.0024159811
74	0x3c222d9e	0.009898571
75	0x3b2547f9	0.00252199
76	0xbb89663c	-0.0041930955
77	0xba0fe714	-0.00054894504
78	0x3a8209a7	0.000992109
79	0x3c10fc92	0.00884928
80	0x3bc32722	0.0059555927
81	0x3bca5998	0.006175231
82	0x3bd07df1	0.0063626696
83	0x3addc4e7	0.0016919643
84	0xba954794	-0.001138913
85	0xb8e0a356	-0.00010711576
86	0x3b52c051	0.0032158087
87	0x3b6b517a	0.0035906718
88	0xbad0c14f	-0.0015926751
89	0xbba06e3f	-0.004895955
90	0xbba0b890	-0.004904814
91	0x3b6c5fe4	0.0036067897
92	0xb9f4b7c0	-0.0004667621
93	0xbb6c5784	-0.0036062906
94	0xbb6d9243	-0.003625051
95	0xbbdfedbc	-0.00683376
96	0xbc36d3e7	-0.01115892
97	0xb97ecdab	-0.00024299945
98	0x3b054703	0.0020336516
99	0xba5bccdf	-0.0008384715
100	0xbb418aa6	-0.0029532104
101	0x3a869614	0.0010268115
102	0x3c15753c	0.009122189
103	0xbc09905f	-0.008396237
104	0xbbf8061c	-0.0075690877
105	0xbbe24a56	-0.006905834
106	0xba537872	-0.0008066959
107	0xbbe854cb	-0.0070901862
108	0x3b56c4f0	0.0032771192
109	0xbb07aa5e	-0.0020700912
110	0x3c5c5e8f	0.013450279
111	0x3b2dc853	0.0026517108
112	0x3b6d4d79	0.0036209507
113	0x3b987772	0.004652911
114	0xbaed35d5	-0.0018097708
115	0xbb3fb975	-0.0029254828
116	0x3b904402	0.0044026384
117	0x3a0aec0a	0.0005299455
118	0x3baad32a	0.005213161
119	0xbb8957e2	-0.0041913847
120	0x3b1c7b20	0.00238771
121	0xbbb24db5	-0.0054413923
122	0x3b10b4c7	0.0022080408
123	0x3ace18c2	0.0015723931
124	0xba8fc2cc	-0.0010968088
125	0x3b00a0ef	0.0019627174
126	0xbba4aa8e	-0.0050252145
127	0x3bfe3427	0.007757682
128	0x3a5c75ab	0.0008409868
129	0xbbf84b2e	-0.0075773215
130	0xb8a7c35d	-7.99957e-05
131	0x3c04db72	0.00810896
132	0xba885bc7	-0.0010403328
133	0xba02f62e	-0.000499579
134	0x3a994ce8	0.0011695893
135	0x3b3d565e	0.002889059
136	0xbbfedd80	-0.0077778697
137	0x3b40f107	0.0029440538
138	0xbad378a8	-0.0016133981
139	0x3b2428ef	0.0025048812
140	0xbbd1f6d5	-0.0064075985
141	0xbc18ba38	-0.009321742
142	0x3bb5bc93	0.0055461614
143	0xbb828f7d	-0.0039843903
144	0x3a8cd942	0.00107459
145	0x3c38b08c	0.011272561
146	0xbb03a3df	-0.0020086688
147	0x3b569147	0.00327404
148	0xbb7aa051	-0.0038242529
149	0x3b26ece4	0.0025470788
150	0xbb230dc2	-0.0024880026
151	0xbc0b43aa	-0.008500019
152	0x3a11fa6e	0.0005568628
153	0x3c7f2bdc	0.015574422
154	0xba842a4a	-0.0010083404
155	0x3b261f19	0.0025348125
156	0x3c08ef14	0.008357782
157	0xbbe44caa	-0.006967147
158	0xbbc3d015	-0.005975733
159	0x398e3634	0.00027124735
160	0xbb81302e	-0.003942511
161	0x3bc33bfb	0.005958078
162	0xbc30c206	-0.010788446
163	0xbbc11fdc	-0.0058936905
164	0x3b3a5491	0.0028431753
165	0xbb1251b4	-0.002232653
166	0x3b5ce73b	0.003370716
167	0xba915692	-0.0011088422
168	0xbaaf35b2	-0.0013367443
169	0xbc6a44f3	-0.014298665
170	0xbb844e8d	-0.0040376843
171	0xbb1b26dd	-0.0023674287
172	0x3ae72934	0.0017636181
173	0x3b70d67e	0.003674894
174	0xbb0a2637	-0.0021079907
175	0xbb507461	-0.0031807648
176	0xba593d68	-0.00082870433
177	0x3b4ab533	0.0030930757
178	0x3b2e8b00	0.0026633143
179	0x3a9393ad	0.0011259221
180	0xb9cdb7b4	-0.00039237516
181	0xbb481afd	-0.0030533664
182	0x3b374e97	0.0027970427
183	0x3c2b7cca	0.010466764
184	0xba9152fc	-0.0011087353
185	0xbb4c04ff	-0.0031130908
186	0x3c08d147	0.008350677
187	0x3a625177	0.0008633355
188	0xba476e0e	-0.0007607647
189	0xbc29da8b	-0.010367046
190	0xbc36299d	-0.01111832
191	0xbb0aa218	-0.0021153744
192	0xbacf227a	-0.0015803121
193	0xbbbdfb5f	-0.005797788
194	0xbbb3bb7b	-0.005484996
195	0x3c07e52e	0.008294387
196	0x3aa05c37	0.0012234513
197	0xbc22b21d	-0.009930161
198	0xbaec21b9	-0.0018015421
199	0xbb373c72	-0.0027959612
200	0xbcb29c2d	-0.021802986
201	0x3b8aa8cb	0.0042315475
202	0x3b92a643	0.0044753863
203	0xbb15e09e	-0.0022869478
204	0xb9a50abe	-0.00031479256
205	0x3b9ba293	0.004749605
206	0x38add234	8.288436e-05
207	0x3b442f1a	0.0029935301
208	0x3aa227c3	0.0012371469
209	0xbb0cdbb9	-0.002149327
210	0xbb9492b3	-0.0045340895
211	0x3b60dc7f	0.0034311113
212	0x3b675170	0.0035296343
213	0xbbe52249	-0.0069926125
214	0xbb8ee7ae	-0.0043611145
215	0x3b961cda	0.004581076
216	0x3a0986a0	0.0005246196
217	0x3a596178	0.0008292417
218	0xbb84a879	-0.004048404
219	0xbb8cf7de	-0.004302009
220	0xbbef6725	-0.007305997
221	0x3bbfff44	0.0058592875
222	0xbc70f1af	-0.014706059
223	0x3ae52a08	0.001748384
224	0x3c06dc00	0.008231163
225	0x3b885a73	0.004161173
226	0xbbba5e27	-0.0056874934
227	0x3bbf05a4	0.00582953
228	0x3c21bc16	0.009871503
229	0xbb3327a9	-0.0027336872
230	0x3a0a6c80	0.000528045
231	0x3abcf09e	0.0014414971
232	0x3baa3b05	0.005195024
233	0x3ba0fa10	0.0049126223
234	0x3c059e0e	0.008155359
235	0xbad301bb	-0.0016098538
236	0xb893451d	-7.0223796e-05
237	0xbbd6539d	-0.006540729
238	0xba7e83fa	-0.0009708997
239	0x3bd4f4f3	0.006498927
240	0xbbf77775	-0.007552082
241	0xbc194733	-0.009355354
242	0xbbdbc64d	-0.006706989
243	0x3c041aa2	0.00806299
244	0x3b64d010	0.0034914054
245	0xbbefb5d9	-0.007315379
246	0x3b829d42	0.0039860317
247	0x3b3f09a4	0.0029150033
248	0x3a58be33	0.0008268088
249	0x3b1694d8	0.0022976901
250	0x3b4fd7ea	0.0031714388
251	0xbae22ba7	-0.0017255441
252	0x3be86e6b	0.007093241
253	0x3bcbaf1d	0.0062159435
254	0xbba96852	-0.0051699067
255	0x3bd9685f	0.0066347565

encoder_net.2.bias f4 [100]
0	0xbc6dd94d	-0.014517141
1	0xbd12effa	-0.03587339
2	0xbc47eb10	-0.012202039
3	0xbf655e84	-0.89597344
4	0xbc0ee11e	-0.008720664
5	0x3d85769b	0.06516763
6	0x3d3e8e66	0.04652252
7	0x3c61d16e	0.013782842
8	0xbb9b19a4	-0.004733281
9	0xbc80cbdd	-0.01572221
10	0x3c277620	0.010221034
11	0x3b56c682	0.0032772128
12	0x3cb0f8af	0.021602957
13	0xbd5142db	-0.05108915
14	0xbe23d78a	-0.1600019
15	0xbd088521	-0.033330087
16	0xbdfd6d82	-0.123744026
17	0xb7eac8e0	-2.7988513e-05
18	0xbbb67cc3	-0.005569072
19	0xbe8e5cf7	-0.27805302
20	0xbcb1384b	-0.021633288
21	0xbc9dde68	-0.01927109
22	0xbc3d1b6f	-0.011542185
23	0x3c46453c	0.012101468
24	0xbd0a8484	-0.033817783
25	0xbbcb490e	-0.006203777
26	0x3bec909e	0.007219388
27	0xbc8cb8c3	-0.017177945
28	0xbd89f852	-0.067368165
29	0x3bc6d9ac	0.006068429
30	0x3cff6336	0.031175237
31	0x3c1c378e	0.00953473
32	0xbc294b75	-0.010332932
33	0x3cdbf0b0	0.026848167
34	0xbc2825c6	-0.010262912
35	0x3bf3ad19	0.0074364063
36	0xbe0c0b49	-0.1367618
37	0xbc85ea66	-0.016347121
38	0x3d0b5745	0.034018774
39	0xbca67b10	-0.020322353
40	0xbca15363	-0.019693082
41	0x3cc7665d	0.024340803
42	0xb9f83346	-0.00047340448
43	0xbd02fe0a	-0.03198055
44	0xbc792028	-0.015205421
45	0xbc8f735e	-0.017511066
46	0xbd8bb054	-0.06820741
47	0x3c105308	0.008808859
48	0x3cb0afd7	0.021568222
49	0xbca9b2d3	-0.020715153
50	0xbe65fe87	-0.22460376
51	0xbc7945ff	-0.015214442
52	0xbd19fd17	-0.03759488
53	0xbb633f2e	-0.003467511
54	0x3c9e9c65	0.019361684
55	0x3bb59e80	0.0055425763
56	0x3c46f9a6	0.012144482
57	0x3b813d00	0.0039440393
58	0x3ce8968b	0.028392097
59	0xbc8a06ae	-0.016848888
60	0xbe4967d2	-0.1966851
61	0xbc1d7500	-0.0096104145
62	0x3c25216b	0.010078768
63	0x3a4f695a	0.0007912122
64	0xbcb86ebd	-0.022513742
65	0x3c878720	0.016543925
66	0xbd1a577f	-0.0376811
67	0x3c77e9aa	0.015131393
68	0x3b50a296	0.003183519
69	0x3cc1f522	0.023676459
70	0x3a31b13f	0.0006778426
71	0x3a79f933	0.000953573
72	0xbbebfecc	-0.007202005
73	0x3ba204ad	0.004944405
74	0xbcaa7dfe	-0.02081203
75	0xbd2659fd	-0.040613163
76	0x3cb35cc5	0.021894822
77	0xbd965f3a	-0.07342382
78	0xbc09da1e	-0.00841382
79	0x3d2197d9	0.039451454
80	0x3c0c80b3	0.008575606
81	0xbda05f72	-0.07830705
82	0xbc8e985b	-0.017406633
83	0x3a0315f4	0.00050005247
84	0x3ca05908	0.019573703
85	0xbc999d26	-0.018751692
86	0xbeef17a8	-0.46697736
87	0x3be052a9	0.0068457914
88	0x3b1c4128	0.0023842547
89	0x3ca0d54d	0.01963296
90	0xbd8a4fb9	-0.06753487
91	0xbc10c3cc	-0.008835744
92	0xbd6f1149	-0.058366094
93	0xbcffc760	-0.031223
94	0x3c7521f5	0.014961709
95	0xbdc0e6bc	-0.09419009
96	0xbb62d610	-0.0034612454
97	0x3d4943ee	0.04913705
98	0x3ca04fc0	0.019569278
99	0xbc84cc81	-0.016210796

mu_net.weight f4 [3, 100]
0	0xbb51a0cc	-0.0031986712
1	0xbb38a2c5	-0.002817319
2	0xbba0a81b	-0.0049028522
3	0xb9d1d74f	-0.00040024004
4	0x3b91f4ee	0.0044542467
5	0x3b6dd1a6	0.003628829
6	0xbb2bcf62	-0.002621614
7	0xbb978297	-0.004623722
8	0xbb985f92	-0.0046500647
9	0x3b84b009	0.0040493053
10	0xba8c61d8	-0.0010710312
11	0x3b940ff9	0.0045185057
12	0xbb9f28a3	-0.004857139
13	0x3bf5e5d6	0.007504205
14	0x39992f44	0.0002921765
15	0x3ab4b574	0.0013786987
16	0x3b0ffe35	0.0021971588
17	0xbbc3024e	-0.0059512025
18	0xbb6a8059	-0.0035782068
19	0xb9fb3cf9	-0.0004791988
20	0x3b8353b1	0.0040077795
21	0xba02ba97	-0.00049869105
22	0xbc16fa3f	-0.009214937
23	0xbb3a1913	-0.0028396293
24	0x3b799f9a	0.0038089515
25	0xbb989b48	-0.004657183
26	0x3bb03692	0.005377599
27	0xbc0b3a88	-0.008497842
28	0x3a7fe3fd	0.0009761451
29	0x3b3578c2	0.0027690385
30	0xbaae3170	-0.001328988
31	0x3a8d4a96	0.0010779675
32	0xb9e80056	-0.0004425074
33	0xbb35cff4	-0.0027742358
34	0xbb849c86	-0.0040469794
35	0xbad279df	-0.0016058049
36	0xbb57158e	-0.0032819244
37	0x3c1c6f37	0.009548
38	0x3922bf64	0.00015520822
39	0x3c4ff648	0.012692995
40	0x3a93fefa	0.0011291199
41	0xbaae4746	-0.0013296388
42	0xbb805797	-0.0039166915
43	0xbc145943	-0.009054485
44	0xbbd682b8	-0.0065463446
45	0xbbe50886	-0.0069895415
46	0xbbe0badb	-0.0068582124
47	0x3c7cad0e	0.015422119
48	0xbbebedee	-0.0071999943
49	0xbb868f1d	-0.004106416
50	0xb99b8bf0	-0.00029668165
51	0x38b746ee	8.739332e-05
52	0x3b13a40a	0.0022528195
53	0xbbbf4483	-0.0058370247
54	0x3b07cd31	0.002072167
55	0x3bda5d44	0.00666395
56	0x3b6a22df	0.0035726351
57	0x3b6ae5cf	0.0035842543
58	0xbadd146e	-0.001686705
59	0xbb8d8628	-0.004318971
60	0x39962c70	0.00028643338
61	0xbacce0e2	-0.0015630985
62	0x3914f1ae	0.00014204413
63	0x397ef980	0.00024316274
64	0x3a283b0d	0.00064174907
65	0xbb98be73	-0.004661375
66	0x3a6ad1d9	0.00089576613
67	0xbbc84097	-0.0061112153
68	0x3bd17d2b	0.006393095
69	0xbbbfe9e2	-0.0058567384
70	0xbb1016e3	-0.0021986298
71	0x3bcced85	0.0062539005
72	0x3b83a881	0.00401789
73	0xbb80b3dc	-0.003927691
74	0x3bd0b697	0.0063694227
75	0xbb70d57e	-0.0036748345
76	0xbb7d9705	-0.003869475
77	0x3bccea5e	0.0062535247
78	0x3b818777	0.0039529162
79	0x3bb1735f	0.0054153646
80	0x3b708724	0.0036701644
81	0x3b03259a	0.0020011426
82	0xb9d8b82a	-0.00041335943
83	0xba0cb948	-0.0005368185
84	0x3bbf5cf9	0.0058399406
85	0xbad2ac7b	-0.0016073132
86	0xba3a205d	-0.00071001594
87	0xbb3b45dc	-0.0028575575
88	0x3c4dbc68	0.012557127
89	0x3ba3d5d5	0.004999856
90	0x3b4e2250	0.0031453557
91	0x3af07a62	0.001834702
92	0xbc08d94f	-0.008352592
93	0xbabe0ec2	-0.0014500248
94	0x3aa42326	0.0012522682
95	0xba3dd255	-0.000724112
96	0x3a007dd7	0.0004901564
97	0xb9a83cce	-0.0003208876
98	0xba8d355c	-0.0010773349
99	0x3b11e735	0.0022263054
100	0x3a1a79a0	0.00058927573
101	0x3a3dfba8	0.00072472775
102	0x3a898aee	0.0010493675
103	0x3c7e27d7	0.015512428
104	0x3a3566d7	0.00069199264
105	0xb8cf615d	-9.8886645e-05
106	0x3b045b73	0.002019611
107	0x395624ec	0.00020422385
108	0x3a3f5118	0.00072981557
109	0xba8b85e0	-0.0010644756
110	0x3abdb019	0.0014472037
111	0x3a104ce3	0.0005504621
112	0xba622543	-0.0008626768
113	0x391e13c2	0.00015075415
114	0xbe0191fc	-0.12653345
115	0x3a386545	0.00070341333
116	0xbb40ebeb	-0.0029437493
117	0x39ec9856	0.00045126927
118	0x3acf637a	0.0015822493
119	0x3db9ee00	0.09078598
120	0x3ad187d5	0.0015985916
121	0xba7856c3	-0.0009473378
122	0xb9103b40	-0.00013754983
123	0x3a62a5fa	0.0008645948
124	0x3a2cfecb	0.00065992464
125	0x3aa0eb00	0.0012277067
126	0xb961ca8d	-0.00021533128
127	0xb9cbafc4	-0.00038850133
128	0xbcd41636	-0.025889497
129	0xba173b6c	-0.00057690474
130	0xb964875a	-0.00021794197
131	0xbac6bf1d	-0.0015163157
132	0xba4d9458	-0.00078422343
133	0xb8df5d8c	-0.00010650893
134	0xba9fc6fe	-0.0012190042
135	0xb9a4bf89	-0.00031423222
136	0xbb29cad3	-0.0025908246
137	0xbae09f99	-0.0017137408
138	0xb8a724f6	-7.970065e-05
139	0xba308fdb	-0.00067353033
140	0x381faec2	3.807131e-05
141	0x3aa9b615	0.0012947941
142	0xbb00cf43	-0.0019654788
143	0x3947b67a	0.00019046097
144	0xb95f890a	-0.00021317988
145	0x3a21e85e	0.0006176288
146	0xb8656a90	-5.46971e-05
147	0xb7f9ec38	-2.9793111e-05
148	0x3a788da3	0.0009481555
149	0x3adc5fb5	0.0016813191
150	0xbbb296ef	-0.0054501216
151	0x39fd97ff	0.00048369166
152	0x3a401220	0.00073269196
153	0xba8902d3	-0.0010453112
154	0xba719d1a	-0.00092168304
155	0x3a32f1b4	0.00068261777
156	0x3b21220a	0.002458694
157	0x3a997046	0.0011706434
158	0x3a09ea2a	0.00052610284
159	0xb9c49e9a	-0.000375022
160	0xbbb576c6	-0.0055378405
161	0x396c40f6	0.00022530914
162	0x3ac8b731	0.0015313384
163	0xbad16ede	-0.0015978476
164	0xbb77040f	-0.0037691628
165	0xb9d7ea7a	-0.00041182694
166	0xbb8aca63	-0.004235552
167	0xbaa5c138	-0.0012646085
168	0x3a3094a6	0.00067360175
169	0x3ae00fcc	0.0017094552
170	0x3a972006	0.001152993
171	0x3ae14c23	0.0017188828
172	0x3942a541	0.00018562844
173	0x39ccfbd3	0.00039097536
174	0x3adcc9a8	0.0016844766
175	0x3ad236d8	0.0016038073
176	0xba239fc5	-0.0006241764
177	0xba1f76a6	-0.00060830486
178	0xba83c43a	-0.0010052987
179	0xb9063fb0	-0.00012802961
180	0xba59beb4	-0.000830631
181	0x3a59dfbe	0.0008311233
182	0xbb7d24d3	-0.0038626685
183	0xbb274acd	-0.0025526762
184	0x3ac5f75f	0.001510363
185	0x395276b4	0.00020071381
186	0xbd7fe158	-0.062470764
187	0x381de14c	3.764154e-05
188	0xbb0d228d	-0.0021535486
189	0x39b5b51b	0.00034657944
190	0x39a836db	0.00032084328
191	0x3b725ef3	0.0036982864
192	0xb97e9242	-0.00024277813
193	0x3a41902d	0.00073838496
194	0x3ac150ae	0.0014748776
195	0xbb0dd41c	-0.002164132
196	0x3a6f879b	0.0009137333
197	0xba268368	-0.00063519785
198	0xba20bcf7	-0.00061316736
199	0xba327223	-0.0006807169
200	0x3a70588f	0.00091684697
201	0x3a263e2d	0.00063416624
202	0x3a58e44c	0.0008273765
203	0xbaf09831	-0.0018355903
204	0xb9e4d39a	-0.00043645204
205	0xba75b27a	-0.00093726034
206	0x3a669ae8	0.00087968865
207	0xb9cce23d	-0.00039078473
208	0x3a14be49	0.00056741067
209	0xba374ba5	-0.0006992168
210	0x3a1849c2	0.00058093306
211	0xb9a76508	-0.00031927996
212	0x39143b75	0.0001413653
213	0x3967c214	0.00022102176
214	0x3c3d4648	0.011552401
215	0x3a1d67da	0.000600455
216	0x39f2fa55	0.0004634435
217	0xba012768	-0.00049268315
218	0x3a7d03e3	0.0009651763
219	0xbb0450ea	-0.002018983
220	0x3a2ef9da	0.0006674804
221	0xba3e4a7d	-0.00072590244
222	0x3a8fc33d	0.001096822
223	0x3a06b414	0.0005138528
224	0x3a01f8ea	0.00049580506
225	0x3a727031	0.0009248285
226	0xba8e60ca	-0.0010862586
227	0x3a99813c	0.0011711488
228	0x3d773fdf	0.060363647
229	0xba244740	-0.00062667206
230	0xba96db9b	-0.0011509539
231	0xba44befd	-0.0007505266
232	0xb98576f6	-0.0002545637
233	0xb9f745f6	-0.00047163636
234	0x3ad17528	0.001598035
235	0x3a4e5c90	0.0007872069
236	0xb97b026b	-0.00023938126
237	0xbade93d2	-0.001698131
238	0xba11dab5	-0.0005563901
239	0xb857845c	-5.1383264e-05
240	0x398dfa59	0.0002708014
241	0x3aabe1a7	0.0013113514
242	0xba9de264	-0.0012045619
243	0x3a40f43e	0.00073606137
244	0x3a83ab3f	0.0010045542
245	0xb997ae08	-0.00028930628
246	0x399248e6	0.00027901604
247	0x39172166	0.00014412924
248	0x3a1fffe2	0.0006103498
249	0x3a7d3b9c	0.00096600666
250	0xbb86d3a4	-0.004114585
251	0x3ac3db7a	0.0014942728
252	0xb9f7c869	-0.00047260828
253	0xba0801c8	-0.00051882537
254	0xba7531d5	-0.0009353434
255	0x38b58b1a	8.656662e-05

mu_net.bias f4 [3]
0	0xb84ea59f	-4.9268474e-05
1	0x3ce749b0	0.02823338
2	0xbc2868d5	-0.0102789

log_var_net.weight f4 [3, 100]
0	0x3c19cf42	0.009387793
1	0x3b2b3e1e	0.0026129554
2	0xbd05eb57	-0.03269514
3	0x3d894f2d	0.06704555
4	0xbbc23a2a	-0.005927344
5	0x3c42d8f1	0.011892543
6	0xbc7548da	-0.014970982
7	0xbc1a0085	-0.009399538
8	0x3d02c7ba	0.031928755
9	0xbb328097	-0.002723729
10	0xbd0345c6	-0.032048963
11	0xbcc90201	-0.024537088
12	0xbd0475f9	-0.03233907
13	0x3c188ff8	0.009311669
14	0x3b602a16	0.0034204773
15	0xbc5e0383	-0.013550642
16	0x3c7a2f4b	0.015270065
17	0xbd3e22cb	-0.0464199
18	0xbc2f448b	-0.010697494
19	0xbbba4d69	-0.0056854975
20	0xbc632796	-0.0138644185
21	0x3c3deec7	0.0115925735
22	0xbc8cf344	-0.017205842
23	0x3c54e35d	0.012993661
24	0xbc223f64	-0.009902809
25	0xb9efc956	-0.0004573564
26	0xbbf8b8bc	-0.0075903814
27	0xbc4681ee	-0.012115939
28	0x3bcde43e	0.006283312
29	0xbb9536b1	-0.004553639
30	0x3b70c37f	0.0036737619
31	0xbcb7ac3b	-0.022420993
32	0xbc22662b	-0.009912054
33	0xbb534390	-0.0032236315
34	0xbbc3d237	-0.0059759873
35	0x3c176994	0.00924148
36	0xbd45197f	-0.048120018
37	0xbb965dff	-0.004588842
38	0x3c065392	0.008198636
39	0xbbb31f76	-0.005466397
40	0xbaa03b3a	-0.0012224682
41	0xbc4b7c70	-0.012419805
42	0x3bc9b144	0.006155165
43	0xbd0bd4e0	-0.03413856
44	0xbcde1032	-0.027107332
45	0xbc413c33	-0.011794138
46	0x3cca09ac	0.024662815
47	0xbb7c6055	-0.0038509567
48	0x3a957247	0.0011401855
49	0x3bcde6c9	0.0062836153
50	0x3c7a025d	0.0152593525
51	0x3ccd43d0	0.02505675
52	0x3c953d3e	0.01821768
53	0xbbaddddc	-0.0053059887
54	0xbcc3451d	-0.023836667
55	0xbbf57fb8	-0.007492032
56	0xbd57ae01	-0.052656177
57	0x3c2835eb	0.010266761
58	0x3a8bc5b4	0.0010663779
59	0xbc41eff1	-0.011836992
60	0x3a995af5	0.0011700081
61	0xbabdc3a5	-0.0014477862
62	0xbb74697c	-0.003729432
63	0x3b1dd4ed	0.0024083212
64	0xbc88ab3f	-0.016683219
65	0x3a8843ca	0.0010396179
66	0xbc2b5f06	-0.010459667
67	0xbaba151a	-0.0014196963
68	0xbcceb215	-0.0252314
69	0xbc8271cb	-0.015923401
70	0xbb47f2cf	-0.0030509715
71	0xbd299135	-0.041398246
72	0x3b7ce474	0.0038588317
73	0xbcd59caa	-0.02607568
74	0x3ad629a7	0.0016339318
75	0xbc9673b0	-0.018365711
76	0x3cb8e5fd	0.022570604
77	0x3d08b7bb	0.033378344
78	0x3bec6b21	0.007214919
79	0xbccbe81f	-0.024890957
80	0xbc4f2c04	-0.0126447715
81	0x3d0a5d20	0.033780217
82	0xbcbe30d6	-0.023216646
83	0xbca3c739	-0.019992458
84	0xbcd2a87e	-0.025715109
85	0xbc38f234	-0.0112882145
86	0x3b569e51	0.0032748173
87	0xbce13698	-0.027491853
88	0xbc848538	-0.016176805
89	0x3b8e89bc	0.0043499153
90	0x3c5013ca	0.012700031
91	0x3ae0fc56	0.0017165046
92	0x3c2fe06d	0.01073466
93	0x3ab152e6	0.0013528734
94	0xbc6944a2	-0.014237555
95	0xba032432	-0.0005002647
96	0x3d08d7a8	0.03340879
97	0xbc042a42	-0.008066716
98	0xbca8a366	-0.020585727
99	0x3b71be03	0.0036886937
100	0xbc217a08	-0.009855755
101	0x390702f0	0.00012875698
102	0x3b4c8482	0.003120691
103	0x3f8a3f38	1.0800543
104	0xba899f97	-0.0010499832
105	0xbaabfc51	-0.0013121461
106	0xbb9780fb	-0.00462353
107	0xbb9ca839	-0.004780796
108	0x3ab2b856	0.0013635259
109	0x3c2f2540	0.010690033
110	0x3c45f491	0.012082235
111	0x3bba212b	0.0056802235
112	0xb9946780	-0.00028305873
113	0xbc4cac00	-0.01249218
114	0x3f336829	0.7008081
115	0xbafa383d	-0.0019090247
116	0x3c4b5d74	0.012412418
117	0xbc81817d	-0.015808815
118	0x3b220207	0.0024720447
119	0x3eccfbde	0.4003591
120	0x3bd3d0c3	0.0064640953
121	0xba88f072	-0.0010447635
122	0x3b013c8c	0.0019719927
123	0x3c1dd77f	0.009633898
124	0x391e3bec	0.00015090377
125	0xbbc1ae9b	-0.005910707
126	0xbc0e779a	-0.008695507
127	0xbbb07114	-0.0053845737
128	0x3ca6bfc3	0.020355111
129	0x3b12d58a	0.0022405111
130	0xbb2cae2c	-0.0026348932
131	0x3ab55bd6	0.0013836573
132	0xbc33f619	-0.010983967
133	0x3b649a98	0.0034882184
134	0x3c167a85	0.009184484
135	0x3c4a9cca	0.012366483
136	0x3ce8a218	0.028397605
137	0x3bdfa4d4	0.006825069
138	0xba3d93dd	-0.0007231811
139	0xbc05a167	-0.008156157
140	0xbc37f4f1	-0.011227832
141	0x3bcdb796	0.0062779887
142	0x3c4eb56a	0.012616495
143	0xbc2f87ca	-0.010713527
144	0xbabadde5	-0.0014256804
145	0xbb871f15	-0.0041235783
146	0xbb8b245b	-0.0042462773
147	0xbaa6824b	-0.0012703625
148	0x3b911277	0.00442725
149	0x3bb1c5a7	0.0054251733
150	0x3ebc788f	0.3681073
151	0xb7373e24	-1.0922118e-05
152	0xbc048320	-0.008087903
153	0xbb683b3e	-0.0035435702
154	0x3c17de13	0.009269255
155	0xbbd43b02	-0.006476761
156	0xbc9507cd	-0.018192196
157	0x3bc303c8	0.0059513785
158	0x3c7cabfa	0.015421862
159	0x3c16f4de	0.009213654
160	0xbd91d214	-0.07120147
161	0x3bdb0c51	0.006684818
162	0xbb42c095	-0.0029716839
163	0xbbbc02f7	-0.005737658
164	0x3c67c737	0.014146618
165	0x3c4f9c41	0.012671531
166	0x3c810177	0.015747769
167	0x3c64e6a3	0.013971004
168	0xbbd54d3d	-0.0065094517
169	0x3c90e07f	0.017685173
170	0x3c13123d	0.008976516
171	0x3bcd6e2b	0.0062692366
172	0x3c01184b	0.007879327
173	0x3956649a	0.00020446107
174	0xbc852ea5	-0.016257593
175	0xbc2f6fd8	-0.010707818
176	0x3b741a34	0.0037247064
177	0x3c2a165e	0.010381309
178	0x3c003fa2	0.007827671
179	0x3c2dd07a	0.010608787
180	0x3ac4e147	0.0015020751
181	0xbc5176b2	-0.012784647
182	0x3c5119e7	0.012762523
183	0x3b81763a	0.0039508613
184	0x3c388dc9	0.011264273
185	0xbc3efcb4	-0.011656929
186	0x3ec34d8b	0.38145098
187	0xbc367b65	-0.011137818
188	0x3bfff5de	0.007811292
189	0xbad6e612	-0.0016395471
190	0x3be503a7	0.006988961
191	0xbba2f755	-0.004973332
192	0x3bebc60a	0.007195239
193	0x3b2de013	0.0026531264
194	0x3c0de795	0.0086611705
195	0x3bb36120	0.0054742247
196	0xbc1650fd	-0.009174583
197	0x3b2a66ac	0.0026001139
198	0x3b80c463	0.003929661
199	0x3c158961	0.009126992
200	0x3c1e548c	0.009663712
201	0xbb7350cc	-0.0037127016
202	0x3b6056f9	0.0034231527
203	0x40038678	2.0550823
204	0x3c9f9351	0.019479426
205	0xbc8a0bb2	-0.01685128
206	0x3bfaf519	0.0076586124
207	0x3cc2fe67	0.02380295
208	0x3c41a1f0	0.011818394
209	0xbc8e9a99	-0.017407702
210	0x3bb2e5b7	0.005459513
211	0x3c7ba578	0.015359275
212	0xbba228ad	-0.0049486966
213	0xbc0b44a0	-0.008500248
214	0x3efeb66a	0.49748546
215	0x3c178cf0	0.009249911
216	0xbcf26bfc	-0.029592507
217	0x3c65491c	0.013994481
218	0x3c24d319	0.010060095
219	0xbefebb9e	-0.49752516
220	0xbae70896	-0.001762646
221	0xbbe38a08	-0.006943945
222	0xbcc3850c	-0.023867153
223	0xbb96f291	-0.004606553
224	0xbc8f40d6	-0.01748697
225	0x3c5dfd07	0.013549096
226	0x3bc1d1c4	0.0059148986
227	0xbca5c1f3	-0.020234084
228	0x3f3091d8	0.6897254
229	0xba66175d	-0.0008777285
230	0x3c47b85f	0.012189954
231	0xbc09c706	-0.008409267
232	0x3b18ecb9	0.0023334457
233	0x3abe6972	0.0014527275
234	0xbccff1e1	-0.025383892
235	0xbbba8942	-0.005692632
236	0x3c43b52d	0.011945051
237	0x3bcffc86	0.006347242
238	0x3c88ef67	0.016715718
239	0x3b238654	0.0024951892
240	0xbcaf27af	-0.021381227
241	0xbb4380d4	-0.0029831426
242	0xb8c884e4	-9.561496e-05
243	0xbbfb0dca	-0.007661556
244	0xbbd4f5ac	-0.006499013
245	0xbce94519	-0.028475331
246	0x3c65676c	0.0140017085
247	0xbc91f3db	-0.017816475
248	0xbb6a4634	-0.003574741
249	0x3c911bcd	0.017713452
250	0xbe060b98	-0.1309036
251	0x3cac912e	0.02106532
252	0x3c4929e0	0.01227805
253	0x3ca2d537	0.01987706
254	0xbb31849c	-0.0027087098
255	0x3d0817e3	0.033225905

log_var_net.bias f4 [3]
0	0xc010269a	-2.252356
1	0xc009fef4	-2.156186
2	0xc0424499	-3.0354369

decoder_net.0.weight f4 [100, 4]
0	0x3d2ae834	0.041725352
1	0x3c4b78ba	0.01241892
2	0x3efc3da6	0.49265784
3	0x40d4a03f	6.6445613
4	0xbf338d97	-0.70137924
5	0x3dbe551a	0.092935756
6	0x402cd450	2.7004585
7	0xbd82e5a3	-0.06391456
8	0xbd224a73	-0.03962178
9	0xbb5955b3	-0.0033162653
10	0x3fb81cfb	1.4383844
11	0x406ae470	3.6701927
12	0xbda4c50a	-0.08045395
13	0xbcef9ff0	-0.029251069
14	0xc0806e0c	-4.0134335
15	0xc08a0300	-4.312866
16	0xbddb3df2	-0.107051745
17	0x3b513058	0.0031919684
18	0xbfcde90a	-1.6086743
19	0xc0946dcc	-4.638403
20	0xbf02cda6	-0.51095045
21	0xbc7b239c	-0.015328314
22	0x3fa900a8	1.3203325
23	0x4124b577	10.294303
24	0xbfc49a32	-1.5359557
25	0xbcbbda73	-0.022931313
26	0x3e248b35	0.16068728
27	0x401cc5b0	2.449566
28	0x3a0451f0	0.000504761
29	0xbcac7f4f	-0.0210568
30	0x3bc19e2d	0.0059087486
31	0xba32f373	-0.0006826438
32	0x3c492ab6	0.0122782495
33	0x3d45bfa4	0.048278466
34	0x3ec42a3a	0.38313466
35	0xc000ba61	-2.0113757
36	0x3dc22600	0.09479904
37	0x3b8d0c2d	0.00430443
38	0xbe16dbdf	-0.14732312
39	0xbe5b0657	-0.21389137
40	0x3e8aa0a7	0.27075693
41	0x3d8a00a8	0.067384064
42	0x3fbceffe	1.476074
43	0x40394203	2.894654
44	0x3dd268b8	0.1027388
45	0xbd3cce81	-0.046095375
46	0xbed2a76b	-0.41143355
47	0x3fcf9c79	1.6219627
48	0x3ba3bfd9	0.0049972353
49	0xbd0aba67	-0.033869173
50	0x3f494335	0.78618175
51	0x3f52652c	0.82185626
52	0xbf84bbd3	-1.0369819
53	0xb92a4bc8	-0.00016240694
54	0xbf53b3ac	-0.8269603
55	0x40a22cb9	5.0679593
56	0xbf8202b6	-1.0157077
57	0x3d71baf2	0.059016176
58	0x3f1a3448	0.60236025
59	0x3e70c827	0.23513852
60	0x3eaf3536	0.34220284
61	0x3d31e9dc	0.043435916
62	0x3f227158	0.634542
63	0x3d919d32	0.07110061
64	0x3ea5cf01	0.32384494
65	0xbc84f815	-0.016231576
66	0x3f9730af	1.1811732
67	0xbe3cfdaa	-0.1845614
68	0xbf048e51	-0.5177966
69	0xb89f1db4	-7.5872435e-05
70	0x40b4d03e	5.65042
71	0x401e8f0d	2.4774811
72	0xbf236b43	-0.63835543
73	0x3c3b7abe	0.011442838
74	0x40ba82cf	5.828468
75	0x409c5171	4.8849416
76	0x3e05332d	0.13007803
77	0x3d4d087b	0.050056916
78	0x400cd974	2.2007723
79	0x407a8196	3.9141593
80	0x3e625b07	0.22105037
81	0x3cf1c000	0.029510498
82	0x4056b39a	3.354712
83	0x408d8634	4.422632
84	0xbedf4cc5	-0.43613258
85	0xbc3c9e9b	-0.011512424
86	0x402d43c4	2.707261
87	0x4085a2fd	4.176146
88	0xbd191e18	-0.037382215
89	0x3d0f20f7	0.034943547
90	0x4004ad61	2.0730822
91	0x3ebad068	0.36487126
92	0x3e351f5f	0.17687748
93	0xbc4d52b4	-0.012531925
94	0x40e9b96d	7.303885
95	0x40a709bf	5.2199397
96	0x3dce7cb4	0.10082379
97	0xbdbcabcb	-0.092124544
98	0x3fc2db73	1.522322
99	0x3e7668db	0.24063437
100	0xbf1068f1	-0.5641013
101	0xbc7aa7a9	-0.015298762
102	0x3f9933f3	1.1968979
103	0xbe532927	-0.20621167
104	0xbf4c8000	-0.7988281
105	0x3bd8d90b	0.0066176704
106	0xbf48c2ca	-0.78422225
107	0x40d7d4d0	6.744728
108	0xbececfbf	-0.40392873
109	0x3ccab767	0.024745656
110	0x402040cd	2.5039551
111	0xbf1ce8b1	-0.6129256
112	0x3dc41b70	0.09575546
113	0xbba8c1ac	-0.0051500406
114	0x400a4da0	2.1609879
115	0x400f26ca	2.2367425
116	0xbf321c4c	-0.6957443
117	0x3c93f93b	0.018063178
118	0x3fac38c8	1.3454828
119	0x413cf00f	11.808608
120	0xbf061ad3	-0.5238468
121	0x3cf1328f	0.029443054
122	0x40d472dd	6.6390214
123	0x401b6c04	2.4284678
124	0x3889fad8	6.579392e-05
125	0x3b05a307	0.0020391361
126	0xbacd4923	-0.0015662055
127	0xba377e3c	-0.00069997064
128	0x3e075784	0.13216978
129	0x3d09b83a	0.033622958
130	0xbef4f064	-0.47839653
131	0x3ef69a5f	0.4816465
132	0xbf3b0c2f	-0.73065466
133	0xbd366113	-0.04452617
134	0xba7f384c	-0.0009735867
135	0x3f731d59	0.94966656
136	0x3e86d228	0.26332211
137	0xbc828878	-0.015934214
138	0x40d13dbd	6.5387864
139	0x40cb8363	6.3597884
140	0xbdd4c6c2	-0.103894725
141	0xbcbbf91e	-0.022945937
142	0x3f80de8c	1.0067916
143	0xbfae80c9	-1.3633052
144	0xbb93cb15	-0.0045102932
145	0x3b8e6b50	0.0043462887
146	0x3efa7a08	0.48921227
147	0x3ff9b176	1.9507282
148	0xba034625	-0.0005007706
149	0x3b5738e2	0.0032840301
150	0xbb4f4e70	-0.0031632446
151	0xbb7e5f31	-0.0038814063
152	0x3e0f240e	0.13978598
153	0x3ca6092b	0.020268044
154	0xc0cb188f	-6.346748
155	0x3f506e02	0.8141786
156	0xb4da4780	-4.0657687e-07
157	0x3ca19a59	0.019726919
158	0xbba59c8d	-0.0050540627
159	0x3a2aa9fd	0.00065103156
160	0xbf9da311	-1.2315389
161	0xbcafa66d	-0.021441663
162	0x3f226949	0.634419
163	0x401677b4	2.351056
164	0xbed88f2f	-0.4229674
165	0x3d2eb76a	0.042655386
166	0x3ef668cd	0.48126832
167	0xbfb7b970	-1.4353466
168	0x39c37458	0.0003727998
169	0x3c18cb0c	0.009325754
170	0xbad09bbd	-0.0015915554
171	0xbb5cbfdd	-0.0033683695
172	0xbf611fdb	-0.8793923
173	0xbd20715a	-0.0391706
174	0x3ef8092c	0.48444498
175	0xbf18b843	-0.5965616
176	0xba00f5ae	-0.00049194216
177	0x3c2abe25	0.010421311
178	0xbc16453e	-0.009171782
179	0xbb06bf4f	-0.0020560806
180	0x3cac44b8	0.021028861
181	0xbd53c28c	-0.051699206
182	0x3f45f316	0.77324045
183	0xbb2549ef	-0.002522107
184	0x3dba4952	0.09096016
185	0x3b2ee7d9	0.0026688485
186	0x3f20d5bd	0.6282614
187	0x40bd754a	5.9205675
188	0x3e49aea0	0.1969552
189	0x3c25eb2f	0.010126873
190	0x4026d87a	2.6069627
191	0x3f8f91bb	1.1216348
192	0xbc5c35ee	-0.013440592
193	0x3d175c2d	0.03695314
194	0xbfc74589	-1.5568095
195	0xbfca3e31	-1.5800229
196	0x3917c772	0.00014474781
197	0x3c544dd5	0.01295801
198	0xbbc62b93	-0.006047675
199	0xba9ce111	-0.001196893
200	0x38128572	3.4933393e-05
201	0x3a7fd909	0.0009759819
202	0xbb637385	-0.0034706306
203	0x3a6d5f11	0.00090549985
204	0x3d8745e7	0.0660513
205	0xbd2e5c9e	-0.042568795
206	0x3fe05efa	1.7528985
207	0x4054e306	3.3263564
208	0x39b509a3	0.0003453019
209	0x3bb5ad1a	0.005544317
210	0xbacf1bca	-0.0015801128
211	0xbaaa7f26	-0.0013007864
212	0x3b43be0f	0.0029867922
213	0x3ca82f0f	0.020530252
214	0x3ebf8e0a	0.37413055
215	0xbe0d8ea5	-0.13823946
216	0xbf876c2b	-1.0579885
217	0xbcedd882	-0.029033903
218	0x3fbf723c	1.4956737
219	0x407b33de	3.9250407
220	0x3a830d75	0.0009998517
221	0xbc62eab7	-0.013849906
222	0x3ae5b52d	0.0017525308
223	0xbbc22d2e	-0.005925796
224	0x3d68d017	0.056839075
225	0x3caa21bc	0.020768039
226	0x4092d1e1	4.58812
227	0x4061fe29	3.5311377
228	0x3c28f818	0.010313056
229	0x3ccf7a31	0.02532682
230	0x3f345e96	0.70456827
231	0xc012c0aa	-2.2930093
232	0x3d1ee34b	0.038790982
233	0x3bd6015d	0.0065309242
234	0xbf9f7244	-1.2456746
235	0xbec9317e	-0.39295572
236	0x3e88c70f	0.2671437
237	0x3d0c55aa	0.034261383
238	0x4011f836	2.2807746
239	0x3fa83113	1.3139976
240	0x3ecf7d06	0.40525073
241	0x3ce631c1	0.028099896
242	0x3fec81e9	1.8477145
243	0x4029cfb9	2.6533034
244	0x3a883eb5	0.0010394665
245	0xbc2d9de0	-0.010596722
246	0x3b8ad164	0.004236387
247	0xbb4f305f	-0.0031614525
248	0xbe416afb	-0.18888466
249	0x3c8e9a30	0.017407507
250	0x3fd95414	1.6978784
251	0xbe8cac4c	-0.27475202
252	0xbf55941e	-0.83429134
253	0x3c88916c	0.016670905
254	0x4053e6ff	3.310974
255	0x410c6f63	8.777194

decoder_net.0.bias f4 [100]
0	0xbe2b03c0	-0.1670065
1	0x3f30c21b	0.6904618
2	0x3d7650b1	0.060135547
3	0x3d7abda4	0.06121601
4	0xbdb4f023	-0.08834865
5	0x3f193fcd	0.5986298
6	0x3edac956	0.42731732
7	0x3955b2cc	0.0002037987
8	0xbd98ec70	-0.07466972
9	0xbe76f43d	-0.24116607
10	0xbf543f26	-0.82908857
11	0xbe71fa4f	-0.23630641
12	0xbd19704c	-0.03746061
13	0x3eb0867e	0.3447761
14	0x3f1b4f63	0.6066801
15	0xbf776b7d	-0.9664839
16	0xbf490ea4	-0.78537965
17	0x4004ff21	2.0780718
18	0x3f298d6a	0.66231406
19	0xbf774907	-0.96595806
20	0xbfbc28ae	-1.4699914
21	0x3f746cfc	0.95478797
22	0x3d8b7834	0.06810036
23	0xc04a86f5	-3.1644871
24	0xbee9d548	-0.45670533
25	0x3f39a968	0.7252412
26	0x3e9e1fb3	0.3088356
27	0x3f208aea	0.62711966
28	0xbefe85b4	-0.49711382
29	0x3e8e4391	0.27785924
30	0x3f95e69b	1.1711
31	0xba98396a	-0.001161379
32	0xbe9af16a	-0.3026231
33	0x3eb332bf	0.34999654
34	0xc040a583	-3.010102
35	0x3f6bc8e8	0.92103434
36	0xbc67e004	-0.014152531
37	0x39d2b5ad	0.0004018968
38	0xbf00eae3	-0.5035841
39	0x39823b53	0.00024839732
40	0x3e83116e	0.25599235
41	0x3f14fa74	0.5819466
42	0xb9a5ab86	-0.00031599047
43	0x3f0323b4	0.51226354
44	0x393c5008	0.00017958891
45	0xbdc10e11	-0.09426511
46	0xbe9df569	-0.30851296
47	0xbf51501c	-0.8176286
48	0xbc164c87	-0.009173519
49	0xb9284d3c	-0.000160505
50	0xba8b308d	-0.0010619328
51	0xbf1066de	-0.5640696
52	0x3a3b398a	0.0007142058
53	0xbc6175a7	-0.013760961
54	0x3f1ea669	0.6197267
55	0xbab018d5	-0.0013435135
56	0xbfdb1ef2	-1.7118819
57	0xbde2001b	-0.11035176
58	0xbd9d3559	-0.07676191
59	0xbf5c8940	-0.86146927
60	0xbfac87a7	-1.3478898
61	0x3a51f3ba	0.00080090354
62	0x3f2d9f3e	0.6782111
63	0xbd9e1ba6	-0.07720117
64	0x401188ec	2.273982
65	0xbd40821b	-0.04699908
66	0xbea9182e	-0.3302626
67	0x3ff0bf60	1.8808403
68	0x3abe5e54	0.0014523962
69	0xc013f6d9	-2.3119414
70	0xbab708fc	-0.001396447
71	0xb954b3e0	-0.00020284904
72	0x3f119e34	0.56882024
73	0x3f6bfd68	0.9218354
74	0xbd96b18b	-0.073580824
75	0x40029c2d	2.0407822
76	0xc047321b	-3.1124332
77	0x3ecfcae1	0.40584472
78	0x3ec055d4	0.37565482
79	0xbd9a68b5	-0.075395025
80	0x3f2f9d5d	0.6859949
81	0x3f57f3b9	0.84356266
82	0xbe1a342c	-0.15058964
83	0x3f35ada5	0.70968086
84	0x3940105c	0.00018316641
85	0x3d0f838e	0.03503757
86	0x3ee83912	0.4535604
87	0xbe193b00	-0.14963913
88	0xbaa937a0	-0.0012910254
89	0x3f1bc979	0.608543
90	0x3e0ca4df	0.13734768
91	0xbe61f5ec	-0.22066468
92	0x3f116df8	0.56808424
93	0xbdab60b5	-0.08368055
94	0x3f073257	0.5281119
95	0x3b1bbf23	0.002376505
96	0x3f17c84d	0.5929001
97	0xbf54cff6	-0.83129823
98	0x39a250d1	0.0003095926
99	0xbfe076c6	-1.7536247
