scinet_state.pt (torch_old, 51613 bytes, 13 tensors)

encoder_net.0.weight f4 [64, 50]
00000000: 2b68 c6bb f197 99bd 5a19 b8bc 9c85 cd3d
00000010: 1ba9 aabd 7174 513d 300a 47bd 37e2 6abd
00000020: fb21 bf3d c0d0 bebc c355 76bd 1685 04be
00000030: 1fb7 2b3e a8b8 9abd f243 fb3a c629 013e
00000040: 9efd b1bd a55f cb3d ed41 d4bc c4f2 753d
00000050: e05c fa3d b607 7ebd 7707 b7bc 1221 64bd
00000060: f15e e63d 077a 85bd a7b2 933d d755 15be
00000070: 1364 83bd 6856 283d 9d4d 7fbc fff6 013e
00000080: 1a3d 1dbd dd81 50bd 4839 0fbe 8652 a73d
00000090: e638 4c3e c86a efbc f752 a43d 578d d6bd
000000a0: 8e80 63bc 2cff 2dbe 0ee0 da3d ff6d a73d
000000b0: d2fe 833d 9b31 1bbe 624c 683d 6e17 153e
000000c0: 0dac d63e ad02 d0bb 3c95 16bc 8f41 a8bd
000000d0: 50a2 2cbe f229 60bd 49b0 bd3d 73ab 963d
000000e0: fbdb e8bb 8f50 e53d a497 0cbd c544 083e
000000f0: 9053 bc3d 08af 853d 8da8 21bc 474e 36bd
00000100: 8ae1 e0bd 815a 92bd 72ef dcbc de08 e0bd
00000110: 0f40 01be dc9c 623b b119 3bbd f222 d9bc
00000120: 7449 4bba 8ae9 47bc b6bc cabd 4af4 5abc
00000130: 2446 91bd c41b 033e 6151 383d 5b17 a53c
00000140: 1f89 57bd 168c a93d f31d 823c c852 bd3d
00000150: 703f dabd d7ea 0c3d c4da 19be 8197 09be
00000160: 02e6 cbbc 92db d33d 88ba 3a3d 3980 2e3e
00000170: 971b d63d 42f6 eabc 9837 093e 8008 b73c
00000180: 6055 18be bb73 453d 7982 70be d86e 9e3d
00000190: 8b98 b6bd 414f 8f3d 3e10 5dbd 627b bbbd
000001a0: 3ab9 253d 42ca a13d c0ba 1dbd bed1 aa3d
000001b0: 0b9a 08bd 7226 f03d 8516 12bd a6e9 e83d
000001c0: c160 d03c 84a5 98bd d37b 0cbd 6f48 ae3b
000001d0: 6902 d03d cfea e3bd 7383 bbbc e630 e13d
000001e0: b7cf cf3c ccaa e33c 5abb 9abd 84e8 20bd
000001f0: f963 bb3d 71d7 6bbd e4b2 1fbd c903 633d
00000200: 717a a5bd 9344 8dbc 11a7 e23d 5d34 793d
00000210: a64b a0bd fa25 22bd 7e77 883c fae8 c93c
00000220: 7ec5 e33c 1e11 2dbe 3b7a 8abd 562e ffbd
00000230: dee8 103e eec9 143d cd87 8cbb 6e37 863c
00000240: 7a8d 0fbe b7bd 593d 766e caba 83ac 01bd
00000250: ba7b 1abe 3026 9fbe 3b60 7abd 9d92 6bbd
00000260: 78ae 98bd 79ef 9bbd 9e71 aebd 1c1c 863c
00000270: 507e a8bc 0954 4bbd 572d 423d 69e3 72bd
00000280: 8f50 dabc 29e6 96bc bf90 bf3d f928 1bbe
00000290: f2dd 19be eceb 0dbc 6e66 cbbc d06a 5dbd
000002a0: 6754 c93b 8e46 b2bc ff8c 04bd f115 debd
000002b0: 06e1 5a3d ea87 603d 7e79 94bc a946 d2bd
000002c0: 43f9 8ebd 8a76 973b 1781 323e 0761 60bb
000002d0: 36b7 77bd fbd3 84bd 1372 d7bd 0b59 fe3d
000002e0: 0233 a03d 97fa d53c a521 5bbe 5151 81bc
000002f0: f995 053d ea69 0a3d 5ec6 ac3d 988a 423d
00000300: 78c7 9cbd a1c7 57bc 5396 9abd fb1f 2f3e
00000310: cab0 7e3c 3d38 0cbe ce43 23be e96d 68be
00000320: f16e 173d 5a69 71bd 5aa4 aa3c a211 5d3d
00000330: 21a7 023b 9346 b4bd 7d1d 4a3d dd1b cdbb
00000340: b3bb 543c 4963 cc3b 9269 2cbd e104 283e
00000350: e099 15be 5f8f e93d 66cf 7d3d 9232 883b
00000360: 5f6f c3bc a6dd 23bb a212 263e e4bc bcbd
00000370: 3546 8b3d a3fd 04be 22a9 c23d c125 c7bc
00000380: de04 d1bd a130 ef3c e607 0dbe 18d7 cebc
00000390: 1e11 dbbd 02c2 693d 0040 0c3e 36f7 aebb
000003a0: 9a6c 9a3a d54f cdbb d60a 3a3d 514c 48bd
000003b0: 2dd7 e83d c282 5a3d 8536 59bd cadd 2fbd
000003c0: d079 6b3d 9c55 1cbd de39 063d 622b 223d
000003d0: eb2e 023c c695 eebc deb7 3e3d 6eb7 82bd
000003e0: 6a68 173e f8c5 f93d e89b d7bc c454 d43d
000003f0: 4547 c33d 3bc5 083e f420 d5bd 13a1 b3bd
-0.0060548983 -0.07499684 -0.022473026 0.100352496 -0.083330356 0.051136438 -0.0485937 -0.05734464
0.09332653 -0.0232929 -0.060140382 -0.12941393 0.16769074 -0.07554752 0.001917003 0.12613592
-0.08690952 0.09930352 -0.025910342 0.060045972 0.12224746 -0.062019072 -0.022342427 -0.0556956
0.112485774 -0.065174155 0.072118096 -0.14583527 -0.06415572 0.04109803 -0.015582469 0.12691878
-0.03838835 -0.050905097 -0.13986695 0.08170037 0.1994358 -0.029225722 0.08023637 -0.10476177
-0.01388563 -0.16991872 0.10687266 0.08175277 0.064450875 -0.15155642 0.05671347 0.14559719
0.4192814 -0.006347975 -0.009190854 -0.08215629 -0.16858792 -0.054727502 0.09262139 0.0735692
-0.007106302 0.11197006 -0.034324303 0.13307483 0.09195626 0.06527525 -0.009866846 -0.044508245
-0.10980518 -0.071461685 -0.026969645 -0.10939191 -0.12622093 0.0034578359 -0.045678798 -0.026505921
-0.0007754781 -0.012201676 -0.09899275 -0.013363907 -0.070934564 0.1280356 0.044999484 0.020152738
-0.052621003 0.082786724 0.015883422 0.09244305 -0.10656631 0.03440365 -0.15024859 -0.134367
-0.02488995 0.10344614 0.045588046 0.170411 0.10454481 -0.028681878 0.13400114 0.02234292
-0.14876318 0.048206072 -0.23487271 0.077359855 -0.08915814 0.06997538 -0.053970568 -0.09154393
0.04045985 0.07899906 -0.038508177 0.083407864 -0.03335003 0.11726083 -0.035666008 0.1137269
0.02543676 -0.074534446 -0.034297775 0.0053186934 0.1015671 -0.111287706 -0.022889828 0.10995655
0.0253676 0.027791403 -0.07555266 -0.039284244 0.09149928 -0.057578508 -0.038988963 0.05542353
-0.080799945 -0.017244613 0.11067022 0.060840953 -0.07826929 -0.039587 0.01665854 0.024647225
0.027804133 -0.16901061 -0.06761595 -0.1246001 0.14151332 0.036325388 -0.0042886497 0.016383853
-0.14018813 0.05315944 -0.0015444297 -0.03165866 -0.1508626 -0.31083822 -0.06112693 -0.05751287
-0.07455152 -0.07614035 -0.085177645 0.016370825 -0.020568043 -0.04964069 0.04740652 -0.059298906
-0.026649741 -0.018420296 0.0935378 -0.15152349 -0.15026072 -0.008662205 -0.024829116 -0.054056942
0.0061440947 -0.021762159 -0.032361027 -0.10844029 0.053437255 0.054817118 -0.018124338 -0.102673836
-0.06981137 0.0046222853 0.17432056 -0.003423752 -0.060477458 -0.064857446 -0.10519805 0.12419327
0.07822229 0.026120467 -0.21399553 -0.015785845 0.03261373 0.033792414 0.08436273 0.047495455
-0.07655233 -0.013170154 -0.07548203 0.17102043 0.0155450795 -0.13693328 -0.15943834 -0.22698177
0.036971036 -0.05893836 0.020830322 0.053971894 0.0019936042 -0.088025235 0.04934453 -0.006259425
0.012984204 0.0062374217 -0.042092867 0.16408111 -0.1460948 0.11404299 0.06196537 0.004156419
-0.023856817 -0.002500394 0.16218045 -0.092157155 0.068005 -0.1298738 0.09504916 -0.024309995
-0.102060065 0.029197993 -0.13772544 -0.025249049 -0.10696624 0.057069786 0.13696289 -0.0053395284
0.0011781633 -0.0062656202 0.04542049 -0.048900906 0.113691665 0.053347357 -0.05303051 -0.042936124
0.057489216 -0.03816758 0.03277003 0.039592154 0.007945756 -0.029124152 0.04656207 -0.06382643
0.14785925 0.12195963 -0.02631946 0.1036773 0.09535078 0.13356487 -0.10406676 -0.08770957

encoder_net.0.bias f4 [64]
00000000: d138 493d e706 803d affa eb3c 7d5c ca3c
00000010: 6a9b c1bb 8f3b 6fbc 9c25 7539 c2b9 cbbd
00000020: ee68 663d ea37 423d 512d d63d 05d7 683f
00000030: 36d9 6f3d 8956 993d 35e9 72bc acb4 7abd
00000040: 9e95 92bd 9bf2 ab3d 527e b33d 3652 a8bc
00000050: b2a1 c33b 0bd1 093d 592e 863d 0a3d 1dbe
00000060: 1793 f5bd 0f99 563b 124a 063e 0087 7f3d
00000070: 2486 763d 94c4 db3c e42b 33be faf5 0f3d
00000080: 1ab8 bc3c 30c6 21bf f984 393d b061 f1be
00000090: 4677 13bb bd59 a5bd 5375 afbd 08e4 813d
000000a0: a7d9 013e 06c1 53bd 8f3b 3abd aa21 6ebd
000000b0: d31e d43d 401e 503c 4df2 1b3c 94ee 7ebd
000000c0: b38a bdbc 4142 8e3d d5d3 f4ba b928 e83c
000000d0: 1796 8e3d 7578 8f3d 11d1 053d dcc6 70bd
000000e0: 772d a7bd ac0a 24bd 73d0 42bd 7bd8 81bc
000000f0: 3b8b c1bd 4bf2 56bd aff2 053e 12cd 4b3d
0.04912645 0.062513165 0.028806059 0.024702305 -0.0059084194 -0.014601602 0.00023379031 -0.0994754
0.056252412 0.047416605 0.10457862 0.90953094 0.058556758 0.074872084 -0.014826109 -0.06120746
-0.071574435 0.08395883 0.08764328 -0.020547014 0.0059702033 0.033646625 0.06551809 -0.15355316
-0.11990946 0.0032745039 0.13114193 0.062384605 0.06018652 0.026827134 -0.17497212 0.03514669
0.023037005 -0.63193035 0.04529283 -0.47144842 -0.0022501512 -0.08073757 -0.085673 0.06342322
0.12680684 -0.051697753 -0.045466956 -0.058137573 0.10357442 0.012702525 0.009518218 -0.062239245
-0.023137426 0.06946231 -0.0018678854 0.02833973 0.06962221 0.07005397 0.032670084 -0.058783397
-0.081629686 -0.04004924 -0.047562074 -0.015850296 -0.09450384 -0.052477162 0.13080858 0.049756117

encoder_net.2.weight f4 [64, 64]
00000000: af41 7b3b 1c81 3e3c 66b4 fc3b 4c5a 8cba
00000010: ecf3 a73a d7a6 f7bb ea66 87bc 21c1 8fbb
00000020: 57c9 50bc 030a 7b3b df4a d9bb a035 783c
00000030: c60a 1e3c de5a a2bb 7519 90bc 4e4b 48bb
00000040: c4c4 663c 435e ee3c eb30 59bc 387e 113c
00000050: 1051 00ba e858 de3a c844 cd3b e316 ffbb
00000060: 0558 07bb e96c 963c 4083 b13c 1c04 ec37
00000070: 86d8 973b 7a1b aa3a e43b 57bb 0d8e 7c3c
00000080: 31ac 1b3c 2d9c 0e3b f4f9 3d3c 5c68 b0bb
00000090: c4eb 6c3b f9e0 423c db28 aebb f5d7 a8bc
000000a0: aeac 27bc d7d4 d3bb 3e5a e73b f11d 5a3c
000000b0: 9d8e 203d 0682 09ba f8e2 16bc 0687 bdbb
000000c0: 44b2 e4ba 3446 6f3c 8ace 8aba 6c09 c23a
000000d0: 5e55 4ebc 7f05 b53b 806e 383c bff2 f5ba
000000e0: 8627 223c ea5a d03b 942a a8bc 1c37 00bc
000000f0: 489f 26bb e994 ac3b a26e 9fbc 2757 1f3b
00000100: 7f32 35bb 6a2c e3bb 1bd1 53bc 58fe d238
00000110: a3de 933b ee72 debb 3e0f 233c 9d4c 93bc
00000120: 16d7 6c3c 87f1 0bbb 3843 2ebc 38c4 b93b
00000130: 7a6b 02bc c03e 883c c5ed 9bbb bd33 f03b
00000140: 90bf 983b 0a8c 063c e9ee 133c c45c e13b
00000150: 70e8 a7bb 881a 01bb 91ee 143b 77db 903b
00000160: 86df 5f3a 522a 123b 9015 033c 796f 46bc
00000170: 6212 843c 0d31 b9ba 2337 fc39 44f0 243b
00000180: 02e2 8abc 7f42 97b9 a54b 99bc f8e3 2f3c
00000190: 5d47 183c 62e3 01bb a813 9dbc 11f9 00bc
000001a0: c5ad 083c 7fa8 903a 6476 9dbb 88ad 2dbb
000001b0: bd92 41bc 45cf 80ba 4d82 ce3a 27a5 3f3c
000001c0: 7642 833b 63de f63b 4877 7a3c 45ea 463c
000001d0: 9e22 593b c924 8abc 3ecc 4abb a27f 10bc
000001e0: 2904 b83b 811d debb 81b7 8a3b 4d04 90bb
000001f0: 4ea8 70bc e6c4 43bc b1b2 393c bda3 aebb
00000200: a7da 98bc fcc6 63bc 2ede 8d3a 8ac6 ba3c
00000210: 1910 cfbb c853 eabb ff47 973b de5a ac3c
00000220: b36e d93a 571d c6bb d60e 7ebb f9c0 2ebc
00000230: 7740 3a3c 5de7 003b 95c1 063d 3ce5 67bc
00000240: f0e3 a73c c8fb 06bc b13a 58bc f3f2 5cba
00000250: 0576 ef3c 3b6f 64ba 99ff 4bbc 652c 5c3b
00000260: 6408 cdbb 34c2 a8bc b209 fdbc 1a45 0a3c
00000270: 3e65 3dbc 6a20 2bbb 1f46 d33c b6a9 45bc
00000280: ae12 893b af72 12bc 83ac 5ebc f029 fb3b
00000290: 7579 e63b 077e 5f3b 1278 143d f96d 2abb
000002a0: 5545 833c cd93 6a3b 049a 953c 6585 2bbc
000002b0: ac5d 5db9 c708 a1ba d4f6 463b eca5 6e3b
000002c0: 6f2d 223c 425b 64bc 0d75 99bc ff5f cabc
000002d0: a31b 76bc fe64 37bb c352 323c 1199 1dbb
000002e0: aabc 00bc 6bc4 133c 139c 943c 09fe dcbb
000002f0: 6174 703b 2384 b83b cc73 2fbc c797 88bb
00000300: 9f3b 29ba 9854 473c accd 423c 7165 423c
00000310: b20b ee3b a93b 203c a009 abbb 9b38 b43a
00000320: f8ab cd3b ad65 293c 6838 9bbc 6c02 6f3c
00000330: 42fe c3bb a8ad 07bc 976f e5bb 24ee 15bc
00000340: 1e71 dc3c 9a87 4d3c 63a8 2fbc e9d7 59bc
00000350: 740b 26bb 32a2 413c f5b5 143c e787 3dbc
00000360: 7432 603c fe71 44bb 3cff c63b 80d7 8d3c
00000370: 64be fa3b d0f2 52ba 21e6 78bc 1c90 da3a
00000380: 9034 5dbc fc1e 5f3b c406 683b 8c1b 30bc
00000390: e469 06bc 2e3c 1c3c 05a2 1ab9 4508 13bc
000003a0: f519 27bc dfbf 993b c6a2 563a 791a dc3b
000003b0: b91e 083b a4b0 323c 2508 7dba 8ee4 b9bc
000003c0: b390 23bc 8c5f 2dbc ce53 2e3c af34 e4bb
000003d0: 9800 d33b 1270 5ebb 3b02 113c 66cd 89ba
000003e0: 3f47 e9bb 9df5 90bc bc66 483b bde3 f83b
000003f0: decc 793b c720 a6bb 3f40 8fbb 26d7 883c
0.003833871 0.011627462 0.007711935 -0.0010708063 0.0012813783 -0.0075577307 -0.016528565 -0.0043870364
-0.012743316 0.0038305528 -0.00663124 0.015149504 0.009646123 -0.00495468 -0.017590264 -0.0030562463
0.0140849985 0.029097682 -0.013256292 0.008880191 -0.0004894892 0.0016963752 0.006264303 -0.0077847107
-0.002065183 0.01836248 0.02166903 2.8135306e-05 0.004633966 0.0012978159 -0.0032842094 0.015414727
0.009501503 0.0021760568 0.011595238 -0.0053835344 0.003615127 0.011894458 -0.005314929 -0.020610789
-0.010234041 -0.0064645815 0.0070603183 0.013312803 0.039198507 -0.000524551 -0.009209387 -0.0057839183
-0.0017448147 0.01460414 -0.0010590118 0.0014803833 -0.012593595 0.005524337 0.011256814 -0.001876436
0.009897118 0.006358494 -0.020528115 -0.007825639 -0.002542453 0.005266775 -0.019461934 0.0024313421
-0.0027648506 -0.006932785 -0.012928273 0.000100609555 0.0045126243 -0.006788603 0.0099523645 -0.017980868
0.014455577 -0.0021353678 -0.010636143 0.005669143 -0.007960195 0.016631484 -0.004758569 0.0073303864
0.004661508 0.008212099 0.009029129 0.0068775136 -0.0051241443 -0.0019699652 0.0022725204 0.0044206935
0.00085400825 0.0022303057 0.008000746 -0.012111538 0.016122047 -0.0014128998 0.00048106266 0.0025167624
-0.016953472 -0.00028850508 -0.018712828 0.010735504 0.009294358 -0.0019819369 -0.019174412 -0.007871882
0.008342211 0.0011036544 -0.004805373 -0.0026501138 -0.01181477 -0.0009827396 0.0015755385 0.01169709
0.0040057255 0.007533835 0.015287228 0.012140815 0.0033132206 -0.016863244 -0.0030944492 -0.0088194925
0.0056157303 -0.0067784195 0.004233301 -0.004395044 -0.014688564 -0.0119488 0.011334107 -0.0053295777
-0.018658949 -0.013902422 0.0010823661 0.022799749 -0.0063190577 -0.007151101 0.004616737 0.021039423
0.0016588777 -0.006045978 -0.0038766167 -0.010666125 0.011367909 0.0019669153 0.032899458 -0.014153775
0.020494431 -0.00823874 -0.013197587 -0.0008428536 0.02923108 -0.00087140844 -0.012451076 0.0033595797
-0.0062571038 -0.020600416 -0.030888412 0.008439327 -0.011559783 -0.002611185 0.025790272 -0.012064388
0.004183135 -0.0089384755 -0.013590935 0.0076649114 0.007033522 0.0034102218 0.03624732 -0.002600549
0.016024271 0.0035793663 0.018261917 -0.010468815 -0.00021111098 -0.0012285941 0.0030359523 0.0036414815
0.0098985275 -0.013937773 -0.018732572 -0.024703978 -0.015021238 -0.002798378 0.01088399 -0.0024047534
-0.007857481 0.009018998 0.018140828 -0.0067441505 0.003669046 0.0056309863 -0.0107087605 -0.004168484
-0.00064557226 0.012166165 0.011889856 0.011865006 0.007264578 0.009779849 -0.0052196532 0.001374978
0.006276604 0.010339183 -0.018947795 0.01458798 -0.0059812376 -0.008281149 -0.007001828 -0.009151015
0.026909407 0.012544537 -0.010721299 -0.013296106 -0.0025336416 0.0118184555 0.009076585 -0.011568046
0.013683904 -0.0029975171 0.006072907 0.017314672 0.007652091 -0.0008047046 -0.015191586 0.0016675028
-0.013501301 0.0034045568 0.0035404423 -0.010748755 -0.008203957 0.009535832 -0.00014746941 -0.00897414
-0.01019906 0.0046920623 0.0008187707 0.006717023 0.0020770265 0.010906372 -0.0009652398 -0.022691991
-0.009983229 -0.010581862 0.010640098 -0.006964288 0.0064392798 -0.003394131 0.008850629 -0.0010513484
-0.007119089 -0.017695243 0.0030578813 0.007595508 0.0038116495 -0.0050698253 -0.0043716724 0.016704153

encoder_net.2.bias f4 [64]
00000000: aef7 b53a 9f3b a83b 5ffb ab3b 8470 b6ba
00000010: 9da8 003c dd07 ebbb fa72 393b e649 b7bb
00000020: c8c5 0fbc 8deb 92bb 9cc9 87ba ad38 c73b
00000030: 64e4 08bc edc6 f3ba 71f8 e0bb 2834 4b3a
00000040: 5ebe 043c f6d3 44ba 7050 60bf d43c 223b
00000050: 59b1 3cbb eb68 fbba 5357 f1bb 2985 1dba
00000060: ff80 0a3c 5c59 cc39 ef74 513c e085 91bb
00000070: 1b87 e43b 7589 24bb 09c7 f33a 5a04 253b
00000080: 2b38 26bc d030 e0ba d6c1 be3a ef6c 36bc
00000090: bbf5 e03b d9b4 28bb f494 92bb e807 353c
000000a0: e93b 04bc ec0b 6fbb 3125 93bb 88ec d03b
000000b0: de71 10ba 2bd5 8dbb f3ab ff3b 9072 8f3b
000000c0: 45f5 663d 59d2 91bb f5e9 853b 35bc ef3b
000000d0: 87a5 e8bb 483a 563b 5b06 ca3a 6e7b 07bc
000000e0: 7e7d 59bc 1b0a a43b 526f 8e3b 01f0 cd3a
000000f0: 1406 aa3b 3c8a 7f3a 2175 173b c748 61bb
0.0013883018 0.0051340605 0.0052484716 -0.001391903 0.007852701 -0.0071725682 0.002829729 -0.005593526
-0.008775182 -0.0044836462 -0.0010359767 0.0060797543 -0.008355234 -0.0018598713 -0.006865554 0.00077516073
0.008102028 -0.0007508391 -0.8762274 0.0024755495 -0.002879223 -0.0019181048 -0.007365146 -0.0006008917
0.008453607 0.0003897649 0.012784227 -0.004441008 0.0069741136 -0.0025106345 0.0018598746 0.0025179596
-0.010145227 -0.0017104391 0.0014553617 -0.01113437 0.006865231 -0.002574256 -0.004473323 0.011049248
-0.008070924 -0.0036475612 -0.0044905175 0.006375853 -0.00055101316 -0.00432839 0.0078024804 0.0043776706
0.05638625 -0.004450124 0.0040867277 0.007316137 -0.0070998105 0.0032688547 0.0015413271 -0.008269174
-0.013274549 0.0050060875 0.0043467665 0.0015711786 0.005188713 0.00097480766 0.0023110586 -0.0034375654

mu_net.weight f4 [3, 64]
00000000: 25a6 17bc 582b d33b 0a07 68bc be62 c239
00000010: 7f43 cd3b 07b4 d8b9 4270 26bc 1a66 0a3c
00000020: a5c2 27bc 8a21 7cbb a6f7 b7bb 42d1 933a
00000030: 5cf3 cfbb 7b36 cdba ecf3 3b3b 2f75 cfbb
00000040: d0a5 043c 4b90 37bb 5814 cc3a 5b89 8c3a
00000050: 5ee2 84bb f4a7 a839 15bb c3bb 720e 3fbc
00000060: 7c0a 48bc 9d47 95bb d728 e7bb e993 9e3b
00000070: 358d c83b 1687 94bb 023e 72bc 28c1 6fbc
00000080: 3a8d 3bbc 37f9 1abb eab0 603c 13c4 823c
00000090: f189 5e3c 8d08 7fbc a062 efbb d1bc 5dbc
000000a0: 388d 45bc 5ea1 20bb e578 563c 86b2 893b
000000b0: d553 b4bb 33e5 08bc 73b6 193b f678 783c
000000c0: a09a 03bb c8cd f6ba 260d 153c d441 98bc
000000d0: c751 5cbc ddb1 2c3c a1d6 d73b c307 d73a
000000e0: c794 223c f4f4 0ebc cd96 163b a428 9fba
000000f0: 07fc b0bc 4364 40bc af18 433c 3014 23bb
00000100: 2faa 9c3b dbc1 20ba 573e a03b 05a6 66bb
00000110: 3d05 bebb 62c9 dfbb 7651 a1bb 37cf 483b
00000120: 324a 1eba 1f37 743c 7b98 3fbc f346 7fbb
00000130: c5b2 8a3b 2757 443c 1a85 b73b b424 173b
00000140: c7c7 30bc 19ff 61bb 8624 2fb9 9188 c83a
00000150: 50e5 8fbb d5a7 acbb acdc b83b f585 193c
00000160: 0726 8dbb 3b4f 353c 5e43 913b 58b5 eaba
00000170: 003b 2fbc c0ab d5b7 6b0d 853c ce24 513c
00000180: b05a 553a 3780 eebb 5c81 003b 3cd4 2dbc
00000190: 785a 4bb9 a0f7 243b 0627 62bb 586e f53b
000001a0: 8392 103c d265 203c bc00 c9ba 4f13 48bc
000001b0: 5e10 0a3c e6f0 843b 82b6 0cbc b168 0abc
000001c0: 4f46 df3a 8270 51bb 0e07 143b 2b7c a83b
000001d0: 3e22 8aba f9fd af39 7afa 16bc 5710 6e3b
000001e0: 9a99 04ba 5ae5 2939 32fd c83b d132 933c
000001f0: 2788 74ba 5a2a 3c3c efc7 9dba 1e35 d43b
00000200: d503 f43a 8106 07bb 5755 fdba 8068 153a
00000210: 0b7f cb3a ed04 ad3a 1249 2f3b 86d1 aa37
00000220: 26ef 1d3b 788e 4bbb eef1 453b 5362 863b
00000230: eafd f93a 4f61 f1ba 9293 d2ba 3e32 a0b9
00000240: 4309 d23a e4f9 d03a 34b9 243e 552a 9bba
00000250: 22b4 4c3b ddcd ac3a 9e09 823b f62f bcb9
00000260: 113a b139 309e 43ba f7ca 463b 811d 5839
00000270: 04fa 033a 6e80 85b9 f656 9dba 1cca 5bb9
00000280: e523 e6b9 d1a5 8c3b 8a21 87bb d5ff b43a
00000290: a792 7fbb 182a 043b 5c89 55ba 80f0 67b5
000002a0: 9ba6 9d3b 9e4a 8dbb 9782 e7ba e692 443b
000002b0: 7247 aa3a 6f66 843a 0ac3 113b e872 e8b9
000002c0: d314 ccbd 595a 033b b28f d83a 538d 3a3a
000002d0: a2ee e939 b7e1 a9bb e698 053b 2b92 59bb
000002e0: cf38 31ba ac71 9c3b 0b7e be3a 4f80 6939
000002f0: 3e7e 22ba 2e63 b7b9 4791 1e3a eb18 9c3a
-0.009255921 0.006444376 -0.0141618345 0.00037076132 0.0062641497 -0.0004133286 -0.0101586 0.0084471945
-0.010239278 -0.003847214 -0.005614239 0.0011277574 -0.0063461494 -0.0015656495 0.0028679324 -0.006331108
0.008096173 -0.002800959 0.0015570028 0.0010722087 -0.0040553054 0.00032168592 -0.0059732297 -0.011661159
-0.012209531 -0.004555656 -0.007054429 0.0048394096 0.006120349 -0.004532705 -0.014785292 -0.014633454
-0.011447245 -0.0023647079 0.013714055 0.015962636 0.0135826925 -0.0155660035 -0.007305458 -0.013533787
-0.012057595 -0.0024510245 0.013090347 0.00420219 -0.0055031576 -0.008355427 0.0023454695 0.015165558
-0.0020081177 -0.0018829638 0.009097373 -0.018586077 -0.013447232 0.010540453 0.006586865 0.0016405511
0.009923167 -0.008725394 0.0022978068 -0.0012142849 -0.021604551 -0.011742654 0.0119077405 -0.002488386
0.0047810297 -0.00061324023 0.004890244 -0.003519417 -0.0057989643 -0.0068294266 -0.004923041 0.0030641088
-0.00060382776 0.01490572 -0.011694069 -0.00389522 0.004232737 0.011983669 0.0056005837 0.0023062648
-0.010789818 -0.0034484325 -0.00016702907 0.0015299489 -0.00439135 -0.0052690306 0.0056415405 0.009370317
-0.0043075117 0.011066253 0.0044330796 -0.0017906828 -0.010695219 -2.5471556e-05 0.01624175 0.012765123
0.00081388187 -0.007278468 0.0019608354 -0.010609683 -0.00019393291 0.002517201 -0.0034508123 0.0074899606
0.008823994 0.009789901 -0.0015335302 -0.012211635 0.008426754 0.0040570376 -0.008588435 -0.008447812
0.0017034503 -0.003195793 0.0022587213 0.005141755 -0.001053877 0.00033567825 -0.009214992 0.0036325657
-0.0005058289 0.00016202536 0.006133699 0.017968567 -0.00093281496 0.011484707 -0.0012037734 0.0064760586
0.0018616865 -0.0020603242 -0.0019327801 0.00056994706 0.0015525533 0.001320032 0.0026746434 2.0363146e-05
0.0024098842 -0.003106026 0.0030204016 0.0041010766 0.0019072865 -0.0018415841 -0.0016065708 -0.00030555011
0.0016024489 0.0015943614 0.16086274 -0.0011838177 0.0031235297 0.0013183911 0.0039684316 -0.00035893888
0.00033803334 -0.00074622314 0.0030333379 0.00020610356 0.00050345086 -0.00025463424 -0.0012004066 -0.00020960759
-0.00043895762 0.004292228 -0.004123871 0.0013809154 -0.0038997324 0.0020166691 -0.00081457733 -8.640418e-07
0.0048111207 -0.0043118736 -0.001766282 0.0029994785 0.0012991263 0.0010101328 0.0022241496 -0.000443361
-0.099649094 0.0020042865 0.0016522317 0.0007116396 0.00044619018 -0.005184378 0.0020385324 -0.0033198695
-0.00067604793 0.004774293 0.0014533413 0.0002226841 -0.0006198621 -0.00034978375 0.00060488697 0.0011909282

mu_net.bias f4 [3]
00000000: 71b3 afba ed2a 253a ecd0 243d
-0.0013404918 0.0006300647 0.040238306

log_var_net.weight f4 [3, 64]
00000000: 4446 cfbb 6764 c9bb d6f6 14bb 3a2f ed3a
00000010: 7f91 47bd a2d3 91bc 190f 1bbc 9494 adbc
00000020: f7b3 72bc 800c cd3a c5af 98bc 4eef 753a
00000030: 8fb8 483c 5aaf 6bbc d24a ec3b b2a1 33bc
00000040: d24d e53b fc84 3e3c 9ceb 92ba 28f7 b8bc
00000050: 2895 cb3c c042 2cbc 71c7 263d 8883 1a3a
00000060: d224 1fbc 6431 9ebc 77d3 b83b 457d c1bb
00000070: 71fd a8bb 64c8 7f3c bc45 febb 4e05 a33a
00000080: c633 e6bb d4aa 643c 04f2 2bbc 93fd eeba
00000090: c5c9 143c 5f07 4cbc ae19 ca3c 370e 8fbb
000000a0: 5343 a73d a491 76bc 643c d23b 608a da3b
000000b0: e2f7 be3c 0977 fa3c 8d14 f2bc 0557 e3bc
000000c0: 8cef 1e3b 4207 d23c b7fa 173d 3bdd 86ba
000000d0: adb8 afbb def3 fa3b e9ec d0bc f1a6 c33c
000000e0: 26ec cebb d4ba 643c 37fb 8b3c 803f 8db7
000000f0: 3cea 0e3b d279 343b c368 aa3c 53f3 f53b
00000100: 460a 09bd e42a 4dbc 9dab 2cbc b6c5 103c
00000110: 364c 57bc 9a30 2d38 86b9 933c 8502 cb3a
00000120: 004e 373b fe9a 74ba 85ed 5f3c 7474 42ba
00000130: 78c2 d4ba 84b8 18bc 55dd 6c3c 3af7 393a
00000140: 536e ee3b e9de a43b a1c9 9d39 e31e bebc
00000150: 8a47 99bc 482b cd3c 55e8 f93c f436 14bb
00000160: b622 8cba 414a b0ba 4379 aebb 8399 3abc
00000170: 6250 323b 3ac2 14bd 8259 e33b 4dbc 063b
00000180: ff4d 04bd 60ec c8bc 07d1 b43c 29af 86bb
00000190: 3b25 233c 9595 b43b 98d2 bbbb dd60 4dbb
000001a0: 7f5a 293c 99f5 65bc 1b1c 19bc c95c 71bb
000001b0: eb9d 8d3c 56be 863c c08b f0bb 8fe2 9abc
000001c0: 7019 4dba 751d 263c 45ed 723c fcb0 13bd
000001d0: 7091 073d d6e6 44bb c589 92bc 2095 bbbc
000001e0: 7b54 113c 1092 023d cb6c 2fbb c0ae 6a3c
000001f0: eaba ae3b c796 ccba a39e cebc 06aa 463b
00000200: c75a e1bc adfb 33bb 02f3 f8bb c844 38bc
00000210: c58c c8bc fed5 8938 42f5 cebc bd63 4b3c
00000220: fb80 873c a9e5 cb3c 1576 1a3c f789 bfbc
00000230: 34b0 573c a2c9 623c b04a a13c 3ecb f4bb
00000240: 2ac8 c3bc baca 5bbb 2f32 a13f dea3 d8b9
00000250: f998 003c 8f8a c4bc b613 853c 40cb eabc
00000260: 2b8a 91bc 5524 d43c 0fb5 4dbd 1080 af3c
00000270: d1c0 7dbc d1c2 883b 4ee2 bf3c 0676 7b3c
00000280: 8e0b 463c 171f 1c3c a699 abbb 0fd9 883c
00000290: fbfd c4bb 9a97 90bc 9800 29bb 50e5 1cbc
000002a0: 6cb3 cd3b 2d79 903c b026 063d 0fab ccbc
000002b0: 82cf 5fbb 3bd1 2b3c e8bc 39bd debd 42bc
000002c0: 6cc3 573f 158b 7ebc 7293 3abc 5474 92bb
000002d0: 8433 af3b c4dd 03bc 3c73 ddbc e732 343d
000002e0: d6d8 933c 2a41 39bb ef55 2ebc 9de6 5f3c
000002f0: ddc8 90bb 8797 503c a5de 8dba e168 35bb
-0.006325515 -0.006146002 -0.0022730133 0.001809574 -0.04872274 -0.01780111 -0.009464049 -0.021189012
-0.014813415 0.0015643984 -0.018638501 0.00093816675 0.012251033 -0.014385069 0.0072110677 -0.010963844
0.0069978023 0.011628386 -0.0011209133 -0.02257879 0.024851397 -0.010513961 0.040717546 0.00058942335
-0.0097133685 -0.01931066 0.005640443 -0.005904826 -0.0051571657 0.015611742 -0.007759778 0.0012437494
-0.007025215 0.013956744 -0.010494713 -0.001823353 0.009081309 -0.012452929 0.024670448 -0.004365708
0.08167138 -0.015049372 0.0064158905 0.0066693276 0.02331156 0.030574339 -0.029550815 -0.027751455
0.0024251668 0.025638226 0.037104335 -0.001028932 -0.0053625912 0.0076584658 -0.025503593 0.023883315
-0.006314772 0.013960559 0.017087562 -1.683808e-05 0.0021807095 0.002753843 0.020801907 0.007505813
-0.033457063 -0.012522433 -0.010538963 0.0088362 -0.013140729 4.1291678e-05 0.0180328 0.0015488422
0.0027970076 -0.0009330957 0.013667469 -0.00074178656 -0.0016232273 -0.009321336 0.014457067 0.00070940296
0.0072763353 0.005031456 0.000300956 -0.023208087 -0.01871087 0.025045052 0.030506292 -0.0022615762
-0.0010691497 -0.0013449864 -0.005324514 -0.011389139 0.0027208556 -0.03631804 0.0069381604 0.0020559013
-0.032300945 -0.024526775 0.022072328 -0.004110236 0.009957607 0.0055109956 -0.005731892 -0.0031338253
0.010336517 -0.014035606 -0.00934508 -0.0036828986 0.017287215 0.016448181 -0.0073408782 -0.01890686
-0.000782392 0.010138859 0.014827077 -0.036057457 0.033097684 -0.0030044816 -0.01788796 -0.022898257
0.008870239 0.031877577 -0.0026767727 0.01432389 0.0053323405 -0.00156089 -0.025222128 0.0030313744
-0.027509106 -0.0027463243 -0.007597328 -0.0112468675 -0.024481187 6.572528e-05 -0.025263432 0.012413916
0.016540995 0.024889784 0.009427567 -0.023381216 0.013164569 0.013842018 0.019688934 -0.0074705174
-0.023899157 -0.0033537582 1.259344 -0.0004132082 0.0078489715 -0.023991851 0.01624475 -0.02866137
-0.017766079 0.02589623 -0.0502215 0.02142337 -0.015487866 0.0041736146 0.02342334 0.015347963
0.012087716 0.009528897 -0.005236822 0.016705064 -0.006011722 -0.017650414 -0.0025787707 -0.009576157
0.0062774923 0.017635906 0.03275174 -0.02498391 -0.0034150784 0.010486896 -0.04534617 -0.011886088
0.84282565 -0.015536089 -0.011387693 -0.004469434 0.0053467173 -0.0080484785 -0.027032487 0.043993857
0.018047731 -0.00282676 -0.010640605 0.013665822 -0.004418476 0.012731439 -0.00108238 -0.002768092

log_var_net.bias f4 [3]
00000000: aa25 13c0 ee56 13c0 18fb 55c0
-2.2991738 -2.3021808 -3.3434505

decoder_net.0.weight f4 [64, 4]
00000000: f242 e33e 96b7 7ebb 09f9 8ebc 44ee 1141
00000010: 30b6 1bbe 5d62 d53b c318 c5bc 4d29 00c1
00000020: 622e 39b9 2c9a 72bd 520f b7bc 71ed b73b
00000030: ac8b b739 82c0 3e3c ca91 bb3c f981 f53a
00000040: 685c d8bf 3cf4 82bb 7f4f 71bc 3185 0c3f
00000050: df30 a9be 563a 713c 4b1f 273d 18d6 3441
00000060: a61f ecbd ecae ee3c 85d5 cd3c af7a 81c0
00000070: 1184 023f f282 123d c682 d9ba 4813 7241
00000080: f374 1dbf c285 8a3c 05f9 353d 25dc 973f
00000090: 8a9d 1a3a 3b88 c23c b0d5 953b 20f6 c13b
000000a0: 920f e63e 6b58 203d 0c1a c9bb ac3d 1b3f
000000b0: 32b3 173f d711 07bd f3f2 1bbb 17e3 f340
000000c0: aead 2abf 2bd0 61bd 0904 bfbc b719 623f
000000d0: 8fd5 bbbe 8a69 57bb 995c 303d acf4 083f
000000e0: 5038 c9b9 7a7d dc3b 61f1 a4bc 9d05 f5b9
000000f0: 693e dd3e dd29 90bc b245 46bc fc3f 1141
00000100: 4d1e 04b9 7bf5 f3bc 3c81 84bc 1684 4a3a
00000110: 0b4b 293b 9313 29bd 394a 2bbd 3cf2 2a3c
00000120: 696d 95be 4dae f63b cb59 2a3c 897d 6941
00000130: e6a2 0c3d 3e27 8c3c 2bbc 133d 438a 2841
00000140: c40a 0fba d4ac 57bc 7193 0ebc ca03 993b
00000150: 2c05 dab8 cc2a 41bc 3104 d2bc 0671 2c3b
00000160: f8ca c438 17cb 3abb fc89 19bc 0839 14bc
00000170: caa4 1abf 900a 9f3c d95c 74bc 06ff d540
00000180: 8024 d9ba d9ae b5bc fa4c e7bc 837a 93bc
00000190: 5589 203b 6b2d 69bd 7380 02bd 7c01 583c
000001a0: bfaf fbbe 93c1 c0bc 734d 7b3c 46ec 8d40
000001b0: f0c1 28bf adf9 5d3b c84c 143b 8659 0c40
000001c0: 7cdb 9539 9adb 983c adda 603c 8bec 09bc
000001d0: 1477 8cbe 20d2 453d eb6b 32bd e4f6 7341
000001e0: 4779 c03a cb10 e8bc 17db 2bbd 923c 123c
000001f0: 6a6f c23a 5575 cabb f454 173b 40cf ae3b
00000200: a7ea debe e08f 4b3d 8ac3 5f3d fa06 3cbe
00000210: f335 523a 819d 46bd 04eb 02bd 68bd e03b
00000220: f4fc b1be f38d 91bd b415 2e3d 7b57 4b40
00000230: 8081 9938 9637 ec3c a475 bcba 452f 9fbb
00000240: cf53 07bf 9532 58bb c17f 303d ecf1 c33d
00000250: a07c 23be 30b7 c23d 2373 14bc 22a2 a440
00000260: 9782 9abd 8664 363c f40e 803d 2900 823f
00000270: 92c5 abbd 527b 993b 5de8 0ebb 7579 803f
00000280: 7207 0abf 8225 aa3c 0d1e 4b3c 4cd2 8640
00000290: 088d 033f 5b09 0d3d 0d5c ab3c 13b6 503f
000002a0: 2b79 a9b9 feb4 0a3d bd76 c13b da77 09bc
000002b0: 6222 493a a864 ecbc 1ca1 613c d53c 693b
000002c0: c2ce 0aba 47de 7f3c b45e b33c ff5c 423b
000002d0: 7cb6 aeba 34a6 e03a 8f97 87bb b98f 1b3a
000002e0: 7e09 fa3e 0c66 a9bb 5602 8a3c 65b0 503f
000002f0: 3a23 e4b9 247e d63b 235c 2d3a b904 093c
00000300: b947 c53a 041a efbc 9379 0bbd 2a8e 1e3c
00000310: 85ab 833e 1821 22bb c24c 243d f321 00bf
00000320: 6eb4 1e3e 1f2b 873b 2230 83bc 65d8 9740
00000330: 4852 96ba f22d a5bc 42e6 373b 3f56 3f3d
00000340: 0e01 f6be d4a4 8bba 68bd d33c 7038 95be
00000350: 2318 173d 31d6 273c c06e 183d 9b41 d640
00000360: 5dda f73e dd4f 793c d1bd 18bd b080 5d3f
00000370: e5df cc3a 9291 f9bc f7b1 01bd 43fe 7f3b
00000380: ff90 05bf 8f40 293b 364b 11bd 7512 a3bc
00000390: 8afd c83a c078 68bd b7e2 a7bc bcd9 313c
000003a0: 2228 cc3e 5716 b23c 8305 ddbc 8159 373f
000003b0: 52cc 87be c927 48bd 5643 94bd b1db 963f
000003c0: 9f54 ac3a dad4 43bd c803 67bc 4d4f 753c
000003d0: cb73 afbe 39e9 b7bc ef02 543b e6fe e9bf
000003e0: 1ec7 5eb9 cda3 4d3d ff0e 813c 6cbb 0fbc
000003f0: ead3 9fba 19fb 333d 02e7 fd3c 2e86 f6bb
0.44387013 -0.003886675 -0.017452734 9.12067 -0.15206218 0.00651197 -0.024059659 -8.010083
-0.00017660254 -0.05922906 -0.022346172 0.005613022 0.00035008544 0.011642577 0.022896666 0.0018730751
-1.69032 -0.0039964 -0.014728426 0.54890734 -0.33045098 0.014723381 0.040801328 11.302269
-0.11529474 0.029136144 0.025126228 -4.046226 0.5098277 0.03576941 -0.001659476 15.129707
-0.61506575 0.016909484 0.044426937 1.1864058 0.0005898109 0.0237466 0.0045725927 0.005919233
0.44933754 0.039146822 -0.006137138 0.6064098 0.59257805 -0.032975998 -0.0023795932 7.621471
-0.66671264 -0.055130165 -0.023317354 0.8832049 -0.3668637 -0.0032869303 0.043057058 0.5349834
-0.00038379664 0.006728825 -0.02013463 -0.00046734224 0.43211678 -0.017598087 -0.012101578 9.078121
-0.00012599789 -0.02978014 -0.016174905 0.0007725371 0.0025832083 -0.041278433 -0.04181883 0.01043373
-0.29185036 0.0075281025 0.010397385 14.593148 0.03433504 0.017108556 0.036068123 10.533755
-0.00054566213 -0.013163764 -0.008702145 0.004669641 -0.000103960134 -0.011789989 -0.025636764 0.0026312484
9.383814e-05 -0.0028502399 -0.009371277 -0.0090468 -0.604077 0.019414216 -0.014914715 6.687381
-0.0016566664 -0.0221781 -0.028234947 -0.018002754 0.0024495919 -0.05692808 -0.03186078 0.013183948
-0.4915752 -0.023529803 0.01533829 4.435092 -0.65920925 0.0033870742 0.0022628773 2.192964
0.00028583023 0.018659402 0.013724011 -0.008418213 -0.274346 0.048296094 -0.04355995 15.247776
0.0014684581 -0.02832832 -0.041956987 0.008925574 0.0014834229 -0.006178538 0.0023091407 0.0053347647
-0.435384 0.049697757 0.05462984 -0.18362036 0.00080189033 -0.04849005 -0.03196241 0.0068585165
-0.347633 -0.07107153 0.042501166 3.1772144 7.31973e-05 0.0288351 -0.0014378321 -0.00485793
-0.52862257 -0.0032989134 0.043090586 0.09567627 -0.1596551 0.095075965 -0.009060654 5.1447916
-0.07544439 0.011132365 0.06252852 1.0156299 -0.08387293 0.0046838904 -0.002180598 1.0037066
-0.5391761 0.020769838 0.012397301 4.213171 0.5138707 0.03443275 0.020917917 0.81527823
-0.0003232447 0.033864014 0.0059040473 -0.008390391 0.0007672665 -0.02885659 0.013771322 0.0035589237
-0.00052950915 0.01561696 0.021895744 0.002965748 -0.0013329531 0.0017139376 -0.0041379402 0.0005934197
0.48835367 -0.0051696356 0.016846817 0.81519157 -0.00043513795 0.006545799 0.0006613156 0.008362942
0.0015051282 -0.02918721 -0.03405149 0.009677449 0.25716797 -0.0024738964 0.040112264 -0.500518
0.15498516 0.0041250135 -0.016014162 4.7451653 -0.0011468614 -0.02016351 0.0028060828 0.04671311
-0.4804768 -0.0010653981 0.025847152 -0.2914462 0.036888253 0.010243938 0.037214994 6.6955085
0.48408785 0.015216795 -0.037290398 0.86524487 0.0015630691 -0.030464921 -0.03166386 0.0039061464
-0.5217437 0.0025825833 -0.035472117 -0.019906262 0.001533435 -0.05675578 -0.020493848 0.010855135
0.3987437 0.021739168 -0.026980167 0.7162095 -0.26523072 -0.048866067 -0.07239406 1.1785794
0.0013147778 -0.047810413 -0.014100023 0.01497252 -0.3426803 -0.022450076 0.0032350381 -1.8280914
-0.00021245747 0.05020504 0.015754221 -0.008772712 -0.0012193893 0.043940637 0.030993942 -0.0075233197

decoder_net.0.bias f4 [64]
00000000: 674a 30c0 59d7 463e 022f 363a 10ac aab9
00000010: a833 5c3f 6f33 c43f b237 963e ae5f 8cc0
00000020: 417f 763f e2b3 25bb 6bd5 a3bf e0ec a2c0
00000030: 8c2c b83f b4a2 633f c528 5dbb b29c 0dc0
00000040: 50f0 abba f8b0 46b9 5d5b 153e 2521 e13e
00000050: 7101 bf3a 833b 713a 3db0 d9ba 8d1c 97bc
00000060: aa62 8cba 0e6d 023b d1d4 623f 583e 263f
00000070: 8d38 683a 6636 a0bf 159e e5ba 183e 48ba
00000080: 08d2 533f 833d 6bba 45d9 533f 4f14 58bb
00000090: c9e3 583f 0435 883e 53ff 3d3e d9ed 563e
000000a0: 7eaf 2a3f 3003 b8bf 7cd6 843b 05b3 8b3b
000000b0: 66a3 903a e492 bc3a 7799 5bc0 5694 42ba
000000c0: c27e 653a f2cc 97bf f96b 28bf 65f8 083a
000000d0: 009a 5e3f f66e a0be 9dd7 ebbf e636 593a
000000e0: 74fd 563f 9c70 003b 915d c2bf c197 0d3f
000000f0: 3862 a139 82dc 6340 1650 083b 2df0 33ba
-2.7545412 0.19418086 0.0006949754 -0.00032553123 0.8601632 1.5328196 0.29339367 -4.3866796
0.96287924 -0.002528422 -1.2799505 -5.0914154 1.4388595 0.8892014 -0.0033746224 -2.212689
-0.0013117883 -0.00018948677 0.14585634 0.439706 0.0014572573 0.00092022883 -0.0016608309 -0.018446231
-0.0010710557 0.0019901427 0.8860598 0.6493888 0.00088585244 -1.2516601 -0.0017518426 -0.0007638647
0.8274236 -0.00089737045 0.827534 -0.003297109 0.8472257 0.26602948 0.1855443 0.20989169
0.6667403 -1.4375973 0.004053889 0.004263284 0.0011035025 0.0014387039 -3.4312418 -0.00074226165
0.0008754545 -1.1859419 -0.65789753 0.0005225002 0.86953735 -0.31334656 -1.8425175 0.00082860736
0.8398049 0.001959837 -1.5184804 0.55309683 0.00030781492 3.5603337 0.0020799688 -0.0006864097

decoder_net.2.weight f4 [64, 64]
00000000: 7477 91be d823 253c 4f00 133b 3bbf 66bc
00000010: 730b 8ebe 7f14 01bf d0c5 d73c 40a4 463c
00000020: 6ff7 5f3f 2ad4 713b de14 a2bf cff2 d3bd
00000030: 35ce 8c3f 23a0 793f af6a 8d3c 0ff5 51be
00000040: 9196 063c 6041 d63c 6eee 823d e5a0 a6bf
00000050: 8256 0d3b 0359 a73c 7293 893c 4b8a 963f
00000060: 2b10 323c 95ea 8d3c 89ea 973f 551e 363f
00000070: dba6 f0bb 5280 0a3f 7d61 e73c 1888 0f3b
00000080: 8809 033f 6286 863c 7402 303f 2f37 363c
00000090: 71a8 ff3e 70c6 66be ea4d 0e3f ddd0 e83e
000000a0: 020f ad3f 1dce babf 1a70 89bc 587a c4bd
000000b0: 2729 8ebc 568f 7ebb 0f62 adbd d0c8 a9bb
000000c0: 0731 833c 1b82 14bf f750 9bbf ffa8 213e
000000d0: 7b63 083f b011 6abf 7bd7 41bf e0ed b23c
000000e0: 9500 bb3e dfaf b53b def0 52bf 354e 603f
000000f0: b034 5c3b 3294 af3e 77ae 09bc f122 95bb
00000100: 6f1d 54bd 1790 82bc 7419 663c 3cad 8e3c
00000110: 6f90 e5bb dee6 03bd a7b8 d63c 0c76 bc3c
00000120: 4357 63bc d66a 22bd 6207 8e3d 6b18 15bb
00000130: 9400 333d 5cb5 ddbc c6b1 29bd f11f 363d
00000140: 064d 3bbc 8b6c b7bd 4d5b 023c e990 86bd
00000150: a27c e839 e6b9 db3a 05fe f8bc b355 71bd
00000160: fad1 533c 5a40 02bc 78fd 3abd 2749 733d
00000170: 8ec4 b93d 3e99 bdbc 196c 33bd 2ca7 25bd
00000180: 69be 103d 36c8 27bd ceda d43d f64b 2ebc
00000190: e48b a33d 1b30 9c3c 1cae 743d 20f4 a33c
000001a0: 2567 dd3c bc56 e2bc 6e8f f03c 84bf 05be
000001b0: e7b5 8e3d 1f13 843b 593d 613c 795a 66bd
000001c0: 3749 8cbb d2d0 353d 2c32 e0b8 4709 04bc
000001d0: ca21 9dbd 4605 af3d 4076 803d 2107 bbbc
000001e0: 7741 9fbd 1c09 e9bc 3ae6 10be d10f 5fbc
000001f0: 301d 9bbd 30b4 633a 24ec 5d3d 12c6 933c
00000200: 5ab4 4f3b 75fb 2c3d 363c 5e3d e4e6 80bd
00000210: 0d7d 8bbc aa3a b5b9 ae5e 9c3a f69a e53b
00000220: a8f3 b53d d1bc 4d3c 4969 5d3d 4061 9ebc
00000230: 32fd d3bb c880 68bc b44b 843c c5ab 19bc
00000240: f622 1fbd 1704 3b3d beab 43bd ffbb 07bd
00000250: 9104 523d 059b 53bd d22b ba3c 5e9a b93d
00000260: 0bcb 0fbc eb1c 863d bfab 473c 4b10 b53d
00000270: 87b5 54bd 47a5 23bb 5fc0 833d a4f4 553c
00000280: d5c3 eabb e8a6 773d 09a9 33bb af0e cd3c
00000290: 8966 99bd f5f1 4f3d e386 3e3d 55ad 3b3d
000002a0: 38e3 e4bd 8ddc 013b a229 4f3d f3c3 3e3d
000002b0: 49c2 03bd 036d 373c 69fc 183d a6c1 22bd
000002c0: d1ed b83d 749b b9b8 d742 a43c bcfc 07bb
000002d0: b099 33bc c2db 413d c7fc 993d afec 493d
000002e0: 7af0 b5bc 84bf 983c 49e6 03be ad00 d33d
000002f0: 60e6 133d b0df e33c a080 893c 813e 22bd
00000300: 0291 0a3d 5d80 2d3c 57bb 1cbd deba 0c3d
00000310: 7f01 bd3c 6eed f6bc c0fd b83c 2e8b dfbc
00000320: 1dbd 843d b3c9 eb3c 7264 153b 1ecb 463d
00000330: 196b b33d 8a56 13be 5c46 40bd 45ad 363c
00000340: 4cfd c2bc 04cb 59bd bc04 cf3c 9411 2c3c
00000350: 69b6 65bd 0485 f13c f584 9a3c 95d2 43bb
00000360: 3aa5 d8b8 e17a 29bc eb4d 393d 4f8b 8ebd
00000370: f24f 39bd 9fe9 a5bc 6c56 83bc 1c9f 22bd
00000380: 9b86 1ebd 9102 96bc 9549 2a3d 9911 a2bc
00000390: ffe5 9b3d 07b8 553c b529 08bc adb7 8d3b
000003a0: 5ebf 0dbd 5a1b 2dbd 8017 ed3a 475e 7cbd
000003b0: d2ca 32bc 54d9 12bd aa3d fdbc a7a7 2f3c
000003c0: a86c 29bc b69a eb3d b398 913c eefb cdbc
000003d0: 3f69 8abb 937e 1dbd 9e49 b9bc 7fd8 aa3c
000003e0: bb61 b1bd 66ce 80bd 67a4 d5bc 06e4 17bc
000003f0: 7610 5e3d c967 b13b 9819 ebbb 6c46 bf39
-0.28411448 0.010079347 0.0022430604 -0.014083679 -0.2774311 -0.504219 0.026339442 0.012124121
0.8748693 0.0036900141 -1.2662618 -0.103490464 1.1000429 0.97509974 0.017262785 -0.20503639
0.008214609 0.02615422 0.06393133 -1.3017851 0.0021566455 0.020428186 0.01679394 1.1760954
0.010868113 0.017323771 1.186845 0.71140033 -0.0073441095 0.5410205 0.028244728 0.0021901187
0.5118642 0.0164215 0.68753743 0.011121555 0.49933198 -0.22536635 0.5558764 0.4547185
1.3520205 -1.4594151 -0.016777087 -0.09593648 -0.017353607 -0.003884276 -0.08465969 -0.0051814094
0.016014589 -0.58011025 -1.2134084 0.15787123 0.53276795 -0.9143324 -0.7571942 0.021841943
0.36523882 0.005544647 -0.82398784 0.87619334 0.003360074 0.34292752 -0.008403412 -0.0045512845
-0.051785883 -0.015937848 0.014044154 0.017416589 -0.007005743 -0.032202594 0.026211096 0.023005508
-0.013875785 -0.039652668 0.06935002 -0.002275015 0.043701723 -0.027064018 -0.041429304 0.044464055
-0.011431938 -0.0895625 0.007956338 -0.06570608 0.00044343347 0.0016763776 -0.030394563 -0.05891962
0.01292848 -0.007949913 -0.045651883 0.059395935 0.09070693 -0.02314436 -0.04380426 -0.04044263
0.03533784 -0.04096242 0.10393296 -0.010638228 0.079856664 0.019065907 0.059736356 0.020013869
0.027026722 -0.027629249 0.029365268 -0.13061339 0.06968289 0.0040305997 0.013747537 -0.056238625
-0.004281189 0.0443886 -0.000106904976 -0.0080588525 -0.076724604 0.08545928 0.062725544 -0.022830548
-0.07776158 -0.028446727 -0.14150324 -0.013614611 -0.075739264 0.0008686213 0.05418028 0.018038783
0.0031693191 0.042231996 0.05425664 -0.06294039 -0.017027402 -0.00034566718 0.0011930072 0.007006998
0.08884364 0.012557224 0.054055486 -0.019333482 -0.006469392 -0.01419086 0.01614938 -0.009379332
-0.0388517 0.045658197 -0.047771208 -0.03313827 0.051273886 -0.05166151 0.022725973 0.09062646
-0.008776437 0.065484844 0.012186944 0.08840998 -0.05193093 -0.002497034 0.06433176 0.013058815
-0.0071644583 0.06046191 -0.0027413985 0.025031416 -0.0749026 0.050767858 0.046515357 0.0458196
-0.11176151 0.0019815296 0.050576814 0.04657359 -0.032167707 0.011195424 0.037350092 -0.03973546
0.09029735 -8.850443e-05 0.020051403 -0.0020750007 -0.010961935 0.047328718 0.075189166 0.049297985
-0.022209395 0.01864601 -0.12880816 0.10302863 0.036108375 0.027816623 0.016784966 -0.03961039
0.033829696 0.010589686 -0.0382646 0.034357898 0.023072002 -0.030142512 0.022581935 -0.027288046
0.06481383 0.028782701 0.0022795466 0.04853355 0.08760662 -0.14388481 -0.0469421 0.011149709
-0.023802422 -0.053172126 0.025270812 0.010502238 -0.056082163 0.029482372 0.018862227 -0.0029880155
-0.000103304585 -0.010344238 0.045240324 -0.06960165 -0.045242257 -0.020253 -0.01603242 -0.03970252
-0.03870259 -0.01831177 0.04157408 -0.019783782 0.07612228 0.013044364 -0.008310725 0.0043248744
-0.03460633 -0.042262413 0.0018088669 -0.061613347 -0.010912614 -0.03585179 -0.030913193 0.010721124
-0.010340847 0.11504118 0.017773008 -0.025144543 -0.004223972 -0.03845079 -0.022618111 0.020855187
-0.08661219 -0.062893674 -0.02607937 -0.009270674 0.054214917 0.0054139835 -0.007174682 0.00036482827

decoder_net.2.bias f4 [64]
00000000: fec0 363c 014a 00bd 8a93 97bd 02ee 33bd
00000010: a95f 4fbd f3ba 4abd bfb1 22bd 0e8f 633c
00000020: f613 5e3d 7b0b e8bf afd5 a7bd ad2c 3e3c
00000030: 9444 b5bd 3194 c43c 8159 aabf b02b 13bc
00000040: 6189 053e 9a69 10bd d815 73bc 94f4 10be
00000050: 9b6c 3abf 905c 10be 1b6b 72bd 814f 623e
00000060: ef3f 6fbd cc03 85bd 7ef7 64bd 1e9e 253d
00000070: a781 88bd 18dc 31bd 2b88 673e 9f3e b13c
00000080: 2235 dbbd 368a dcbc 4b7e 07bd 10f4 8d3e
00000090: 76c5 15bd 7567 a2bc 073d 393c 6978 d23c
000000a0: 7bad acbf bb80 d0be b4bc c5bd 1917 623d
000000b0: 7923 d5bd 6359 acbe 5c5e 0bbe 4e5c 5dbd
000000c0: 6d71 12bd 8494 d4bd 053a dcbf 5168 0d3d
000000d0: 5a43 823e 482e d0bd ee4e 59bd de05 c63b
000000e0: 175f 5fbd ed28 28bf ef21 72bd 9768 91bd
000000f0: 5aaf 43bd b187 60bd f899 213e af82 32bd
0.011154411 -0.031320576 -0.07401188 -0.043928154 -0.050628338 -0.049494695 -0.039720293 0.013889087
0.054218255 -1.8128504 -0.08195054 0.011607331 -0.08850971 0.023996444 -1.3308564 -0.008982584
0.13040687 -0.03525696 -0.014836751 -0.14155799 -0.7282197 -0.1409781 -0.059184175 0.22100641
-0.05841058 -0.06494865 -0.05590009 0.040433995 -0.06665354 -0.04342279 0.22610538 0.021636305
-0.10703494 -0.026921373 -0.033079427 0.27725267 -0.036565267 -0.019824723 0.011306054 0.025692182
-1.3490442 -0.40723214 -0.09655133 0.05519781 -0.104071565 -0.33661947 -0.13610214 -0.054043107
-0.035752703 -0.103798896 -1.7205206 0.034523312 0.2544201 -0.101650774 -0.05305379 0.00604318
-0.054534044 -0.6568745 -0.059114393 -0.07100027 -0.04777465 -0.054816905 0.1578139 -0.04358166

decoder_net.4.weight f4 [1, 64]
00000000: a28f 93be daa4 01ba 933c dd39 f90c 19ba
00000010: da38 303a 1cd6 8b3b f678 b2b8 2ad1 383b
00000020: 81d5 103a 3341 153c e835 46ba 44a2 b837
00000030: 30fd 19ba e0ac 61ba 5044 e0bd aee6 58b9
00000040: da72 cfbe 34da f6b8 7eb0 92ba 5c30 b1b9
00000050: 17dc 163e 097f f53a 48a4 30ba f9ac 30be
00000060: 26bb 543b e751 ca3b 413a 3f3a a04f 1136
00000070: b2b9 cfb9 5435 bdb7 40d3 ac3e bbe0 a7b8
00000080: d6c3 ce3b e6bc d93b 28f2 0db9 a1eb a33e
00000090: 3e8c 4739 58a5 a039 ca0a 393b d139 383b
000000a0: 52a8 04be 8501 bd3d eb29 87ba bad6 953a
000000b0: c66d 6fb9 b68d 2d3e 0c6c c6b9 b806 1b3b
000000c0: 7c16 0b3a 3ccb 383e 801f 61bd 07c7 1e3e
000000d0: 902d 543e 4ed9 af3b fa8a 6ebe 42c8 2c39
000000e0: 614a 2137 304e babd def2 6a39 087e 07ba
000000f0: 4a33 f1b8 03de f53a aaef 85be 9d7d 9cba
-0.2882052 -0.0004945524 0.00042197536 -0.000583842 0.0006722339 0.004267467 -8.510232e-05 0.0028200843
0.00055249786 0.009109783 -0.0007561133 2.201007e-05 -0.00058742147 -0.0008608829 -0.109505296 -0.000206853
-0.40517312 -0.000117708376 -0.0011191515 -0.000337961 0.14732395 0.0018729876 -0.0006738347 -0.17253484
0.0032460182 0.0061743143 0.0007294752 2.1653032e-06 -0.0003962047 -2.2555389e-05 0.3375492 -8.00504e-05
0.0063099666 0.006644833 -0.00013537018 0.32015708 0.00019030363 0.0003064077 0.002823519 0.0028110633
-0.12954834 0.092288055 -0.0010312175 0.0011431791 -0.0002283371 0.1694859 -0.00037846004 0.0023655128
0.00053057796 0.18046278 -0.05496168 0.1550561 0.20720506 0.005366481 -0.23295203 0.000164778
9.6136655e-06 -0.09096944 0.00022406454 -0.00051686214 -0.00011501329 0.0018758181 -0.26159412 -0.0011939291
